models/decNet_15_1.pkl (torch_old, 101234 bytes, 17 tensors)

weight f4 [32, 1, 1, 1]
0.15887521 -0.63289374 -0.21864165 -0.9110019 0.312832 0.10076295 0.058884237 -0.26660675
0.2432839 -0.41650036 -0.8306094 0.10752116 0.46819574 -0.8425737 -0.7474727 0.14709942
-0.26361758 -0.46939892 -0.17685042 -0.06413232 -0.18774746 0.2028604 0.1927087 0.594326
0.12694591 0.046374753 -0.17105426 -0.5736648 0.22315949 -0.35110846 -0.16341846 0.14705154
00000000: 2fb0 223e 5305 22bf 99e3 5fbe 6c37 69bf
00000010: 842b a03e ce5c ce3d 9930 713d ae80 88be
00000020: 6a1f 793e 893f d5be d1a2 54bf 0e34 dc3d
00000030: 5ab7 ef3e e9b2 57bf 5f5a 3fbf 3ba1 163e
00000040: e2f8 86be 0e55 f0be 4718 35be ce57 83bd
00000050: df40 40be a3ba 4f3e 6e55 453e c025 183f
00000060: 1cfe 013e 74f3 3d3d d928 2fbe b2db 12bf
00000070: ec83 643e 7dc4 b3be 2b57 27be ae94 163e

weight f4 [32, 32, 2, 2]
0.036644503 0.077519394 0.0047042877 0.034938455 0.14435697 -0.06366269 0.050332095 -0.017446268
0.09722922 0.015943343 -0.0679397 -0.10870077 -0.095924675 -0.05639556 0.115840815 0.12238355
0.038891587 -0.08711793 0.04790658 0.013443165 -0.15830636 -0.14496616 0.059812833 -0.040701017
0.104678355 0.111455105 0.17515475 -0.013307674 0.09420048 0.045306474 0.22103363 0.090050645
-0.10663701 -0.007916759 -0.26707065 0.0052364664 0.03135073 0.0084272055 0.124893405 0.08586943
0.040461406 -0.00046338665 -0.0011567007 0.0076852525 -0.033863507 -0.0111675495 -0.1339592 -0.11474524
-0.085574895 0.036986955 -0.14300518 -0.16581167 -0.20734811 0.18024471 0.024858573 -0.008220764
0.2059889 -0.38439175 0.030179571 -0.14886244 0.04694134 -0.104304366 0.087354705 0.00012775525
-0.06203993 0.02219159 -0.11532205 0.06478947 -0.09595878 -0.03711612 0.07728062 0.012442055
-0.1785041 0.09054936 -0.18207501 0.1529652 -0.046650082 -0.045237217 -0.065530725 0.02301094
0.045188155 -0.12291311 -0.02575193 -0.009936809 -0.08626548 0.14324827 0.0723696 -0.07330348
0.005852859 0.13359924 -0.03974791 0.092414774 -0.2144397 0.07013294 -0.10795111 -0.03919367
0.16207524 -0.0040074163 0.03707901 -0.024571683 0.02922248 0.24030271 -0.097156085 -0.0588862
-0.0531795 -0.114475995 -0.04648911 0.0295937 0.055943713 -0.074245624 -0.020297747 -0.031015016
-0.031617306 -0.089088164 -0.024561604 -0.0050162077 -0.011381005 -0.028449206 0.010383085 0.054494593
0.0606622 0.07027937 0.06434655 -0.048080992 0.017494656 -0.033970095 -0.12311863 0.07904292
0.12260851 -0.016579084 -0.0041794404 -0.10306099 0.06450616 -0.24976048 0.25665122 -0.026676387
0.049221784 -0.06588123 0.041122224 -0.04245086 -0.1322734 -0.244522 0.117644094 -0.12489022
-0.047484327 0.1464705 0.04647193 0.119545154 -0.053132486 0.05046919 0.09935783 0.011922766
0.090151526 -0.09508142 -0.110112645 -0.01530201 0.009908662 -0.036246326 0.035263453 0.093864374
0.052973133 0.069479145 -0.12407085 -0.06224595 -0.19197445 -0.07360134 0.030072242 0.01348958
-0.052274596 0.029689346 0.08431854 -0.027986795 0.18221648 -0.01649022 -0.00021408344 -0.0067384853
-0.058286835 0.032181125 0.024084631 -0.02589913 0.1699377 -0.08869344 0.10524466 0.025730593
0.003447732 -0.076768026 -0.1307099 0.01652737 -0.027668184 0.037086684 0.19847023 -0.045308914
-0.31148478 0.044445947 0.06252188 0.06265953 0.03792273 -0.104902506 -0.036429517 0.003648285
-0.13359775 0.106573634 -0.030670851 0.061997797 0.08237369 0.095502734 -0.0027083082 0.11887235
-0.030884901 0.24485196 -0.060881995 0.14589503 0.16707182 -0.26590168 0.06405513 -0.040310252
0.025566366 0.21047463 0.06618363 0.039450757 0.07537295 -0.08361974 -0.026736105 -0.007587895
0.14872572 0.053941827 0.055930715 0.031055639 0.08347701 -0.056989916 -0.08587415 -0.054769993
2.1246631e-05 0.06404692 -0.07934959 0.09878101 0.23940669 0.21826099 -0.1267642 0.061081767
0.034993898 0.090362206 0.117264256 0.061595548 -0.29388446 0.29328135 0.12269432 0.13769409
0.14873528 -0.022139546 -0.1421928 0.026279828 -0.08247859 -0.017248025 -0.022671213 -0.029794011
00000000: 8c18 163d 7dc2 9e3d 6d26 9a3b a01b 0f3d
00000010: 50d2 133e 9661 82bd 0729 4e3d 7aeb 8ebc
00000020: 1d20 c73d 9d9b 823c f823 8bbd 829e debd
00000030: 2874 c4bd 08ff 66bd f33d ed3d 3aa4 fa3d
00000040: c94c 1f3d e36a b2bd b139 443d b940 5c3c
00000050: 101b 22be 0272 14be 4dfe 743d 1cb6 26bd
00000060: 9b61 d63d 9342 e43d c45b 333e 6e08 5abc
00000070: 2eec c03d 4893 393d a456 623e 796c b83d
00000080: 8164 dabd 4bb5 01bc 7cbd 88be aa96 ab3b
00000090: a069 003d 4312 0a3c 1dc8 ff3d 50dc af3d
000000a0: dcba 253d b4f2 f2b9 6f9c 97ba 92d4 fb3b
000000b0: 76b4 0abd 19f8 36bc 9a2c 09be 8dff eabd
000000c0: e441 afbd a27f 173d f36f 12be 89ca 29be
000000d0: 1053 54be 1292 383e 35a4 cb3c 62b0 06bc
000000e0: c1ee 523e ffce c4be 263b f73c 656f 18be
000000f0: 9045 403d 879d d5bd 06e7 b23d 0af6 0539
00000100: 951d 7ebd 23cb b53c f82d ecbd 57b0 843d
00000110: 0986 c4bd 1307 18bd 4d45 9e3d c3d9 4b3c
00000120: c7c9 36be f171 b93d df71 3abe e9a2 1c3e
00000130: 2814 3fbd a94a 39bd f934 86bd 7081 bc3c
00000140: 3717 393d deb9 fbbd b6f5 d2bc ffcd 22bc
00000150: f5ab b0bd adaf 123e 8336 943d 2320 96bd
00000160: 57c9 bf3b 3dce 083e b4ce 22bd f543 bd3d
00000170: 1596 5bbe dca1 8f3d 7915 ddbd 8b89 20bd
00000180: 0df7 253e a550 83bb 29e0 173d 8e4a c9bc
00000190: fb63 ef3c ea11 763e c5f9 c6bd a832 71bd
000001a0: bfd2 59bd 6472 eabd 5d6b 3ebd 7d6e f23c
000001b0: 3c25 653d 170e 98bd 7647 a6bc 3413 febc
000001c0: 2681 01bd db73 b6bd 6b35 c9bc 005f a4bb
000001d0: 6577 3abc 4f0e e9bc d11d 2a3c b935 5f3d
000001e0: ed78 783d a1ee 8f3d 20c8 833d 93f0 44bd
000001f0: f450 8f3c 3a24 0bbd 9f25 fcbd 41e1 a13d
00000200: 2c1a fb3d dcd0 87bc b0f3 88bb a411 d3bd
00000210: ce1b 843d 36c1 7fbe ca67 833e 7088 dabc
00000220: c89c 493d bdec 86bd c76f 283d f4e0 2dbd
00000230: ae72 07be fa63 7abe 63ef f03d 72c6 ffbd
00000240: ed7e 42bd 5dfc 153e 5a59 3e3d 17d4 f43d
00000250: 73a1 59bd c8b8 4e3d 1e7c cb3d b557 433c
00000260: 5da1 b83d 0cba c2bd bd82 e1bd 48b5 7abc
00000270: f157 223c 0777 14bd 6970 103d f73b c03d
00000280: 5bfa 583d 154b 8e3d dc18 febd 9cf5 7ebd
00000290: f394 44be 4dbc 96bd 105a f63c 6603 5d3c
000002a0: e31d 56bd 1237 f33c 33af ac3d 9044 e5bc
000002b0: f596 3a3e 7f16 87bc 967b 60b9 83ce dcbb
000002c0: 2dbe 6ebd 5bd0 033d 224d c53c 6a2a d4bc
000002d0: 2604 2e3e e8a4 b5bd 838a d73d f7c8 d23c
000002e0: 58f3 613b 8e38 9dbd d1d8 05be 6864 873c
000002f0: 63a8 e2bc 35e8 173d c83b 4b3e d795 39bd
00000300: ef7a 9fbe f40c 363d 790b 803d a453 803d
00000310: dd54 1b3d 20d7 d6bd 1e37 15bd 1118 6f3b
00000320: d9cd 08be 4743 da3d 7041 fbbc 67f1 7d3d
00000330: 8ab3 a83d f096 c33d df7d 31bb 5973 f33d
00000340: 5502 fdbc 79ba 7a3e 665f 79bd 8265 153e
00000350: e014 2b3e 4424 88be 562f 833d 5d1c 25bd
00000360: 8e70 d13c a986 573e 488b 873d 1e97 213d
00000370: 225d 9a3d d440 abbd ad05 dbbc e0a3 f8bb
00000380: 8e4b 183e 1bf2 5c3d 9b17 653d 6568 fe3c
00000390: fff5 aa3d 426e 69bd c9de afbd 8056 60bd
000003a0: cb3a b237 082b 833d 0a82 a2bd b34d ca3d
000003b0: 0727 753e cf7f 5f3e 79ce 01be e030 7a3d
000003c0: c355 0f3d d20f b93d 3e28 f03d 9d4b 7c3d
000003d0: 0678 96be f928 963e 2947 fb3d aeff 0c3e
000003e0: 104e 183e fe5d b5bc fd9a 11be cb48 d73c
000003f0: 89ea a8bd bb4b 8dbc fbb8 b9bc 9212 f4bc

bias f4 [32]
-0.027993819 -0.05967976 0.08644569 0.01408522 0.02904832 0.015507504 -0.023332525 -0.031337235
0.027862435 -0.039698407 -0.0016703897 0.011006239 0.038952418 0.04717676 -0.027167581 0.007238019
0.009999961 0.05112591 0.026178962 0.03936275 0.0037087987 0.015632493 0.011012438 0.046153676
-0.009533739 -0.0025251359 0.01567884 0.025897957 0.040655147 -0.02036095 -0.018992184 -0.023302073
00000000: 4b53 e5bc c472 74bd 700a b13d b2c5 663c
00000010: bef6 ed3c 3013 7e3c da23 bfbc 795b 00bd
00000020: c33f e43c cc9a 22bd faf0 daba 8353 343c
00000030: 928c 1f3d 6b3c 413d 8c8e debc e72c ed3b
00000040: e0d6 233c 6769 513d 4375 d63c d63a 213d
00000050: 510f 733b b70f 803c 836d 343c a30b 3d3d
00000060: 6633 1cbc c07c 25bb e970 803c f427 d43c
00000070: 0386 263d 02cc a6bc 7f95 9bbc fde3 bebc

weight f4 [32, 32, 2, 2]
0.02802926 0.0005680988 -0.2651716 -0.05733154 -0.066955924 0.07937635 0.016320398 0.20704024
-0.044376466 0.013524331 0.04102073 -0.00564687 -0.029417917 0.046303805 0.010536048 0.10223857
-0.075212434 -0.09076515 0.05125379 -0.060648706 0.1027266 0.07734754 0.05387158 0.048594996
0.037662588 0.1000305 0.07277176 0.07819012 0.011503893 -0.026343241 0.011259131 0.002629965
0.042132437 0.0052872747 0.042617764 -0.057692744 -0.000518503 -0.06313024 0.3830976 -0.030667337
-0.15644899 -0.16740769 -0.17387971 -0.14042912 -0.01212388 0.0025168292 0.08145118 0.030196382
0.06056861 0.17397723 -0.101689376 -0.111487955 0.1120622 0.05579831 0.050184015 0.057432882
0.12394142 0.06728713 -0.01753453 0.033031017 0.048411284 0.06989216 0.037677456 0.04939549
-0.027410025 0.11529805 -0.054705665 0.14644746 0.072494544 0.022528028 -0.17976198 0.10376276
-0.042632535 0.06501944 -0.12002643 -0.022973675 -0.102749296 0.09395331 -0.031657957 0.24067599
0.038648766 0.016768381 0.039715912 -0.052447494 -0.23146006 -0.19775203 -0.027083468 -0.20116207
0.060954954 -0.15674491 0.16725484 0.23275603 -0.028878566 -0.20635262 0.20041329 0.091460966
0.014136055 0.077649176 -0.022980984 -0.023414798 0.031389225 -0.04442817 -0.04158213 -0.01060971
0.09086228 0.017568598 -0.012959327 -0.026432019 0.026645675 -0.015481354 0.047534157 -0.01269983
0.081849985 -0.0853674 0.068597876 -0.1973146 0.021628186 0.08813592 0.0016701965 0.073807634
-0.121407464 -0.14128995 -0.114796065 -0.08756745 0.023944017 -0.035987537 0.26357648 -0.013759754
-0.037517615 -0.020232016 0.052122336 0.017090172 0.2195813 0.047856346 -0.20013142 0.17860398
-0.04014584 0.029080896 -0.018586785 -0.07114561 0.07040264 0.07109289 -0.025537893 0.060002312
0.046628013 -0.18433058 0.08298603 -0.19253512 0.116391264 0.017535973 -0.10166738 0.012595954
-0.060464926 -0.05561455 0.11935984 0.016595421 -0.010547402 -0.0019702585 0.048682187 0.06629719
-0.07607289 -0.13598014 0.049774177 -0.13301522 -0.0009894834 0.022753082 0.14272925 0.05527528
-0.15954298 -0.41600513 0.091433875 0.014607751 0.040379584 -0.07003479 0.073258325 -0.048757214
-0.032058164 0.12805727 0.22136757 0.06692963 0.0962303 0.0075371047 -0.10108215 0.08383917
0.14018235 -0.04971107 6.86201e-05 -0.030929975 0.063586526 0.0031706945 -0.029986044 0.093798175
0.012427811 0.023278864 -0.030342082 0.10237156 0.029579422 0.22832684 -0.09311785 -0.16167894
-0.019308183 -0.12410452 -0.11147904 -0.06958766 -0.05258615 0.27543363 -0.061534487 0.16477683
0.024096888 -0.049559787 -0.0259745 0.045891248 -0.15885314 -0.08115475 0.06771842 -0.4862256
0.089489184 -0.1268065 -0.031668037 -0.032425206 -0.008544585 -0.031956673 0.10193421 -0.02732398
0.035875455 0.03132941 -0.06847044 0.03739024 0.08322976 -0.04292274 -0.088323124 -0.016991852
0.13082786 -0.052195616 -0.01146295 -0.068480425 0.0999469 0.011287825 -0.22816697 -0.075785466
0.042452592 -0.28117654 0.11855324 -0.13065995 -0.032709192 0.052827045 0.048770703 0.10284212
-0.34963325 -0.084276 -0.13176261 -0.20106374 0.02445331 -0.09179363 0.27483326 0.08066267
00000000: 9e9d e53c 77ec 143a 92c4 87be 7ad4 6abd
00000010: 3020 89bd 1190 a23d 5bb2 853c 5b02 543e
00000020: 19c4 35bd 2895 5d3c 5a05 283d 6109 b9bb
00000030: d8fd f0bc 0fa9 3d3d 639f 2c3c 7562 d13d
00000040: fa08 9abd 14e3 b9bd 7eef 513d c76a 78bd
00000050: 5362 d23d 6368 9e3d 72a8 5c3d 8c0b 473d
00000060: 1644 1a3d cadc cc3d 5c09 953d 2422 a03d
00000070: d37a 3c3c c8cd d7bc 3878 383c 7e5b 2c3b
00000080: 1093 2c3d e040 ad3b f78f 2e3d 3a4f 6cbd
00000090: 26ec 07ba 6d4a 81bd 5e25 c43e 113a fbbc
000000a0: 2a34 20be ec6c 2bbe 860d 32be a7cc 0fbe
000000b0: 3da3 46bc 63f1 243b e0cf a63d 675e f73c
000000c0: ca16 783d 1627 323e 8542 d0bd cc53 e4bd
000000d0: de80 e53d c58c 643d c18d 4d3d be3e 6b3d
000000e0: 00d5 fd3d d6cd 893d 93a4 8fbc 884b 073d
000000f0: e94a 463d 9f23 8f3d ad53 1a3d ed52 4a3d
00000100: fd8a e0bc 6221 ec3d 0c13 60bd 53f6 153e
00000110: 0578 943d b38c b83c 8613 38be 9281 d43d
00000120: 749f 2ebd ea28 853d 6bd0 f5bd 4a33 bcbc
00000130: 396e d2bd 986a c03d c6ab 01bd c473 763e
00000140: 2b4e 1e3d d85d 893c 27ad 223d 2fd3 56bd
00000150: de03 6dbe 827f 4abe 26de ddbc 6efd 4dbe
00000160: e7ab 793d bd81 20be da44 2b3e 9957 6e3e
00000170: be92 ecbc 1a4e 53be 2439 4d3e e34f bb3d
00000180: e99a 673c 8806 9f3d 9e42 bcbc 64d0 bfbc
00000190: fd91 003d 50fa 35bd 0652 2abd 59d4 2dbc
000001a0: 0116 ba3d 05ec 8f3c 5b53 54bc f687 d8bc
000001b0: 0848 da3c 81a5 7dbc 2db3 423d f312 50bc
000001c0: f7a0 a73d 1ad5 aebd 0b7d 8c3d d70c 4abe
000001d0: 982d b13c 9b80 b43d 7fea da3a 7528 973d
000001e0: 7aa4 f8bd 50ae 10be 331a ebbd 9056 b3bd
000001f0: 3e26 c43c ab67 13bd 7ff3 863e 9770 61bc
00000200: 12ac 19bd 9dbd a5bc 3b7e 553d b000 8c3c
00000210: ecd9 603e 0405 443d 40ef 4cbe f6e3 363e
00000220: f76f 24bd 0f3b ee3c 5043 98bc cab4 91bd
00000230: 422f 903d 2699 913d d834 d1bc fcc4 753d
00000240: 04fd 3e3d 28c1 3cbe 94f4 a93d ed27 45be
00000250: 8b5e ee3d 9aa7 8f3c fd36 d0bd 435f 4e3c
00000260: 12aa 77bd 15cc 63bd ef72 f43d 1ff3 873c
00000270: 03cf 2cbc 741f 01bb f966 473d d2c6 873d
00000280: 1acc 9bbd 613e 0bbe 02e0 4b3d 2435 08be
00000290: 8eb1 81ba ac64 ba3c 9e27 123e 5568 623d
000002a0: 3c5f 23be a0fe d4be af41 bb3d 5955 6f3c
000002b0: 1065 253d 666e 8fbd 7608 963d a5b5 47bd
000002c0: 6c4f 03bd 7221 033e 2eae 623e 6712 893d
000002d0: 6414 c53d d1f9 f63b 2904 cfbd dfb3 ab3d
000002e0: f68b 0f3e d69d 4bbd 23e8 8f38 dc60 fdbc
000002f0: a739 823d 6dcb 4f3b 4ba5 f5bc 4219 c03d
00000300: 049e 4b3c 51b3 be3c f58f f8bc 2ea8 d13d
00000310: 8b50 f23c 83ce 693e 92b4 bebd 2a8f 25be
00000320: 322c 9ebc 832a febd 1f4f e4bd fa83 8ebd
00000330: 9364 57bd a305 8d3e 960b 7cbd 42bb 283e
00000340: d666 c53c 34ff 4abd 7ac8 d4bc 76f8 3b3d
00000350: 66aa 22be 7634 a6bd f4af 8a3d 90f2 f8be
00000360: 1b46 b73d 90d9 01be 58b6 01bd 4bd0 04bd
00000370: 96fe 0bbc 00e5 02bd e2c2 d03d 8ad6 dfbc
00000380: 24f2 123d 4453 003d 3b3a 8cbd 8226 193d
00000390: 5d74 aa3d c1cf 2fbd c1e2 b4bd 7f32 8bbc
000003a0: bdf7 053e 12cb 55bd 19cf 3bbc 773f 8cbd
000003b0: f6b0 cc3d 92f0 383c 9aa4 69be 6935 9bbd
000003c0: c5e2 2d3d 5ff6 8fbe 0bcc f23d b9cb 05be
000003d0: 13fa 05bd 2c61 583d cac3 473d e49e d23d
000003e0: 2103 b3be e598 acbd c7ec 06be a7e3 4dbe
000003f0: 4f52 c83c 4cfe bbbd f2b6 8c3e 7832 a53d

bias f4 [32]
0.061630193 -0.016201952 -0.015534948 0.04513394 0.028948639 -0.0365988 0.013893642 -0.009765124
0.044880427 -0.017098587 0.0058483314 -0.0045059025 0.00033761087 -0.009230799 0.12032135 0.12842508
-0.038997687 0.028634222 0.028517056 -0.018815054 0.090970345 0.0110640675 -0.005227021 -0.022362892
0.09904919 0.11985047 0.16721955 -0.0264873 0.008894505 0.05222519 0.025030324 -0.012972075
00000000: f16f 7c3d f5b9 84bc 4b86 7ebc 5ede 383d
00000010: b225 ed3c a0e8 15bd 29a2 633c e6fd 1fbc
00000020: 8ad4 373d 5612 8cbc 5ca3 bf3b 40a6 93bb
00000030: 5d01 b139 c73c 17bc 0a6b f63d dd81 033e
00000040: 0abc 1fbd 5192 ea3c 9a9c e93c 0722 9abc
00000050: a94e ba3d 1046 353c 6e47 abbb 6232 b7bc
00000060: 4dda ca3d 2a74 f53d 9a3b 2b3e e5fb d8bc
00000070: 42ba 113c 15ea 553d 650c cd3c d388 54bc

weight f4 [32, 32, 2, 2]
0.010086834 0.2084896 -0.16393459 0.012720544 0.075765565 -0.23521781 -0.058307264 -0.18484773
0.022915985 0.09218597 -0.056070127 0.007266155 -0.034199968 -0.10236164 0.030873055 -0.09260813
-0.4105793 0.088360794 -0.16964158 0.014369032 0.118741326 0.08314778 0.015517 -0.048734855
0.48608756 0.23875546 -0.06999452 0.5107051 -0.0017911631 -0.080519766 0.04420021 0.05159348
0.13924992 0.09676029 0.024320006 0.03896042 -0.19675365 -0.244742 -0.05582417 0.12424653
0.032507915 -0.021082385 0.0033255715 0.024337377 -0.10772823 0.013662882 -0.03814867 -0.022485001
0.118198976 -0.0015089929 -0.013522224 0.039862197 -0.09459008 -0.062716335 -0.0203438 0.0036602267
0.075209215 -0.019125827 0.09510998 -0.07906123 -0.24912976 -0.10132023 -0.3876589 -0.06572953
0.28514495 0.05567431 0.12260504 0.007065879 -0.06382897 0.26361573 -0.07403518 0.058003306
0.12473792 0.05127535 0.12630852 0.027133096 0.04090891 0.19331484 -0.020048939 0.080346376
0.06969234 -0.012645829 0.023339888 -0.20757064 0.2605721 -0.22737573 0.17415142 -0.27126807
-0.123028345 0.30020154 0.0053494023 -0.07747108 -0.12416901 -0.2542942 0.14071085 0.026395706
0.04129848 0.0052530016 0.07420209 0.3187802 0.13312532 0.052748535 0.03147282 -0.01838196
-0.10396886 0.16308093 -0.23353407 0.012946408 0.22062594 0.07081657 0.4003423 0.18803778
-0.01138084 0.07615902 0.050284848 -0.066464126 -0.16471602 -0.32683632 -0.50711 -0.07597503
0.06465305 -0.061020467 0.07405243 -0.14294519 0.16043013 0.21281986 -0.1509365 0.09085564
-0.054587398 -0.0306766 0.120167166 -0.0062936153 0.20870638 0.10594643 0.07427797 0.46660337
-0.06763107 -0.08082196 0.092212394 -0.009546341 0.08754623 0.054296084 0.10421903 0.006430431
0.1081678 -0.13673528 0.20319512 -0.15475671 0.053775504 -0.008609122 0.048176214 0.0150219025
-0.3589275 -0.038959917 0.124373876 -0.4235651 -0.06667416 -0.13700342 0.09485414 0.034106612
-0.050069828 -0.09035629 0.034176424 0.03380682 0.086753614 -0.03995549 0.07655399 -0.26077217
-0.043960385 -0.03415597 -0.029168958 -0.022961527 -0.0018083602 -0.10882032 0.016601829 -0.09395333
-0.1018959 0.009296306 0.080753274 -0.029028583 -0.037597574 -0.14786941 0.11564234 -0.065197
0.18869673 0.01927845 0.052008677 0.017539116 -0.16792814 0.05927643 -0.19734791 0.17167449
-0.09659462 0.23527576 -0.19650713 0.027248649 0.02509462 -0.19226514 -0.19088794 -0.13818498
-0.045971047 -0.05444505 0.003646748 0.004597301 -0.11616294 0.12853998 0.08975638 0.005498563
0.020898158 -0.09798324 0.009974321 -0.04548353 -0.36610475 9.036049e-05 -0.007520654 -0.24351442
0.29664245 -0.122329 0.32266665 0.22388153 -0.27318376 0.30742368 -0.42348263 0.12021293
0.13949977 0.36755452 -0.12786599 0.046302643 -0.15791754 -0.32560658 -0.001503196 -0.0847437
-0.18061304 0.03966744 -0.06315964 -0.15446523 -0.091000006 0.17301083 -0.13096452 -0.009428826
-0.07977743 0.013384373 -0.07015873 -0.07121767 0.28763357 0.07760283 -0.123957895 0.44982862
0.03208714 0.0021944211 0.1887127 0.035656482 -0.09559156 -0.1698345 0.16025816 -0.1755756
00000000: 4043 253c 4c7e 553e 78de 27be d469 503c
00000010: fa2a 9b3d f0dc 70be 99d3 6ebd b948 3dbe
00000020: 4eba bb3c ffcb bc3d caa9 65bd ed18 ee3b
00000030: 4415 0cbd fba2 d1bd 7de9 fc3c 55a9 bdbd
00000040: 7337 d2be 81f6 b43d 86b6 2dbe 176c 6b3c
00000050: a72e f33d 6249 aa3d 043b 7e3c 339e 47bd
00000060: 78e0 f83e 507c 743e 4959 8fbd 92bd 023f
00000070: 76c5 eaba 8ce7 a4bd 480b 353d af53 533d
00000080: 8897 0e3e 422a c63d c03a c73c f694 1f3d
00000090: ca79 49be a69d 7abe e3a7 64bd f774 fe3d
000000a0: 0527 053d f7b4 acbc d5f1 593b 2e5f c73c
000000b0: 9ea0 dcbd 48da 5f3c c841 1cbd 7732 b8bc
000000c0: 4e12 f23d 66c9 c5ba 518c 5dbc 8b46 233d
000000d0: 72b8 c1bd 6c71 80bd 0aa8 a6bc 6ae0 6f3b
000000e0: 4a07 9a3d c4ad 9cbc 05c9 c23d dbea a1bd
000000f0: df1b 7fbe fb80 cfbd 3a7b c6be 349d 86bd
00000100: 85fe 913e bf0a 643d 5a18 fb3d e488 e73b
00000110: c3b8 82bd a4f8 863e c29f 97bd e094 6d3d
00000120: 9876 ff3d 1a06 523d 0557 013e 3a46 de3c
00000130: 1a90 273d 53f4 453e ac3d a4bc a48c a43d
00000140: dcba 8e3d 7330 4fbc 4b33 bf3c 668d 54be
00000150: b569 853e 2fd5 68be c054 323e a6e3 8abe
00000160: 49f6 fbbd 04b4 993e 0a4a af3b 28a9 9ebd
00000170: 524c febd d932 82be 8116 103e cf3b d83c
00000180: 9828 293d 5f21 ac3b 44f7 973d 2937 a33e
00000190: 0152 083e d90e 583d a5e9 003d c495 96bc
000001a0: a0ed d4bd b0fe 263e 8e23 6fbe 2c1d 543c
000001b0: c4eb 613e 4708 913d aaf9 cc3e fa8c 403e
000001c0: b476 3abc 43f9 9b3d 7cf7 4d3d 581e 88bd
000001d0: 51ab 28be 1757 a7be f6d1 01bf cc98 9bbd
000001e0: d168 843d 99f0 79bd cda8 973d 3960 12be
000001f0: cc47 243e 73ed 593e 198f 1abe 8612 ba3d
00000200: 0997 5fbd 7e4d fbbc 341a f63d ac3a cebb
00000210: 20b7 553e 71fa d83d 0c1f 983d a3e6 ee3e
00000220: 2982 8abd fc85 a5bd dad9 bc3d 4268 1cbc
00000230: 704b b33d 9265 5e3d c970 d53d 5db6 d23b
00000240: 1487 dd3d 5504 0cbe 6212 503e 8b78 1ebe
00000250: b443 5c3d 460d 0dbc 6c54 453d 6d1e 763c
00000260: 58c5 b7be 6f94 1fbd bbb7 fe3d 86dd d8be
00000270: 768c 88bd a04a 0cbe e342 c23d 60b3 0b3d
00000280: 0516 4dbd b80c b9bd 94fc 0b3d 0579 0a3d
00000290: e1ab b13d 5ea8 23bd 57c8 9c3d ee83 85be
000002a0: ce0f 34bd 21e7 0bbd bdf3 eebc d019 bcbc
000002b0: 8006 edba 30dd debd 8f00 883c 9a6a c0bd
000002c0: ccae d0bd 894f 183c f961 a53d 5acd edbc
000002d0: eaff 19bd 146b 17be e4d5 ec3d 0186 85bd
000002e0: b739 413e d7ed 9d3c 0d07 553d 31ae 8f3c
000002f0: 5bf5 2bbe d8cb 723d 9215 4abe 70cb 2f3e
00000300: 66d3 c5bd 21ec 703e 2a39 49be 8f38 df3c
00000310: 3c93 cd3c 27e1 44be 2178 43be 5d80 0dbe
00000320: 234c 3cbd c601 5fbd 47fe 6e3b f5a4 963b
00000330: d6e6 edbd fc9f 033e 31d2 b73d 4a2d b43b
00000340: 9d32 ab3c 70ab c8bd 566b 233c f04c 3abd
00000350: 1572 bbbe eb7f bd38 d16f f6bb d85b 79be
00000360: 85e1 973e a087 fabd 9034 a53e 3341 653e
00000370: bede 8bbe a366 9d3e b7d2 d8be 3232 f63d
00000380: 07d9 0e3e 1b30 bc3e 4def 02be d7a7 3d3d
00000390: 23b5 21be e8b5 a6be e306 c5ba 1b8e adbd
000003a0: a0f2 38be 537a 223d d759 81bd 222c 1ebe
000003b0: 365e babd c029 313e 901b 06be 5d7b 1abc
000003c0: 5962 a3bd 214a 5b3c 61af 8fbd 92da 91bd
000003d0: b544 933e 3cee 9e3d a3dd fdbd f04f e63e
000003e0: ce6d 033d 47d0 0f3b e73d 413e 880c 123d
000003f0: 82c5 c3bd 18e9 2dbe b71a 243e 17ca 33be

bias f4 [32]
0.050879497 -0.021047069 0.0797841 0.0999499 -0.021907488 0.093140654 -0.0498562 -0.033847764
0.120012596 -0.019345596 0.11382422 -0.033783052 -0.09430539 0.008950831 -0.10215116 0.0072684684
-0.0360906 -0.0003363023 0.09367581 -0.015751792 -0.021526717 -0.014691042 -0.00089132594 -0.08145407
-0.03503829 0.028099036 -0.25335962 -0.021464182 0.051993005 -0.07038584 -0.04652007 -0.0021823922
00000000: 0567 503d e76a acbc d965 a33d 88b2 cc3d
00000010: 5577 b3bc 87c0 be3d 0436 4cbd f4a3 0abd
00000020: 2ac9 f53d a87a 9ebc ac1c e93d 1960 0abd
00000030: 2f23 c1bd 82a6 123c a134 d1bd 552c ee3b
00000040: bdd3 13bd bb51 b0b9 1ad9 bf3d e709 81bc
00000050: cc58 b0bc b2b2 70bc dfa7 69ba 64d1 a6bd
00000060: 4f84 0fbd f32f e63c 5ab8 81be a7d5 afbc
00000070: 9ef6 543d 7426 90bd d48b 3ebd 7706 0fbb

weight f4 [32, 32, 2, 2]
0.12420917 -0.07861441 0.038130455 0.10153519 -0.024684694 0.016785873 -0.0060659363 0.024464859
-0.14032744 -0.12835653 0.16603996 -0.7613608 0.022953415 -0.06605604 0.09523885 0.10154839
0.015948763 -0.05201615 -0.15164895 -0.074887544 -0.022617579 -0.023909803 0.10629421 0.02012082
0.033350695 -0.0729119 -0.0014360936 0.19257478 0.15682839 -0.12478442 -0.03163755 -0.6202002
0.008367874 0.059348114 0.052440025 -0.101149015 -0.0037036184 -0.03401558 -0.3058339 0.10094222
0.06832766 0.1062646 -0.049028568 0.04696218 -0.0693051 -0.36851147 -0.47301212 0.095417306
-0.0694862 -0.071083084 -0.058230676 -0.1184404 0.099828795 0.04432929 -0.008782552 -0.067617424
0.03573282 -0.0028143306 -0.042449992 -0.0057330485 0.36495367 0.06001696 -1.344081 -0.86874664
-0.11407388 -0.42528972 -0.5388835 -0.24394241 0.1168026 0.02716456 -0.07334352 -0.054345906
-0.05297019 0.23130897 -0.036099415 -0.28273022 -0.68760103 0.22343631 -0.41973573 0.47868183
-0.124301784 0.022594796 -0.0705163 -0.013012043 -0.08183685 0.014682788 0.17022647 -0.020583244
-0.09278769 -0.011538345 -0.06577401 -0.013977179 -0.09331707 0.0518971 -0.10545003 -0.048253585
-0.020767549 -0.11902634 -0.13012518 -0.16790983 -0.058037024 -0.10329304 -0.057170764 0.14843851
-0.044972073 0.10122446 -0.07433702 -0.026743775 0.028238826 -0.026674215 0.04300302 -0.16068152
0.055363216 0.06406675 -1.3369303 0.0676479 0.0858443 -0.086277016 -0.04485794 -0.01184859
0.012572268 -0.4882275 0.057622667 0.135435 0.034751702 -0.12854147 -0.049912024 -0.31075004
0.14333908 -0.09414815 -0.10334723 0.055658877 -0.040097326 0.107902244 -0.091377966 -0.039188053
0.15657105 -0.14557333 -0.17002068 0.08571868 -0.13710028 -0.12559183 0.019275699 -0.19022469
0.100692354 0.13860767 0.12976202 0.100998595 0.2316786 -0.8321309 0.046377186 -0.41494712
0.08176018 0.115830086 0.059543937 0.08497117 -0.029142989 -0.22024356 -0.1305268 0.05913188
-0.01006502 -0.22032332 -0.13190873 -0.27198932 0.035312638 -0.39980093 -0.21128899 -0.069378324
-0.011978197 -0.016645899 0.06255089 -0.013423054 0.24941547 -0.011736494 -0.094493955 0.2014568
0.080438145 0.0059728627 0.011679767 0.0138864 0.029090058 0.045309402 0.080401264 0.047701757
0.027772842 -0.022204805 0.013844678 -0.0009749847 0.5206028 0.17522916 -0.792726 0.33817735
-0.17067252 -0.27244684 0.057239722 0.12056907 0.05111099 0.13296989 -0.006342328 0.3865528
0.59038854 -0.54320294 0.45707014 -0.24452469 0.31059897 0.1915492 0.110124275 0.13494499
0.057392962 -0.54550976 -0.4207692 -0.08610804 -0.4756746 -0.20255843 0.030769119 0.13272202
-0.17830308 -0.07673857 -0.105500534 -0.2952061 -0.015365239 0.048766658 0.0535522 0.10297351
-0.026982618 0.098091535 -0.0046667093 0.019769097 0.09689834 -0.07099134 -0.86468196 -0.61657625
-0.070297934 -0.55095124 -0.38910687 -0.77574986 0.08943444 0.06604609 0.15868422 -6.63597e-05
-0.12059361 -0.4473715 0.20049542 -0.08597427 0.046430938 0.06932802 -0.06597739 0.12363073
0.30832803 0.11623059 -0.14885294 -0.05781067 0.116836175 0.04950143 -0.001165015 0.12646312
00000000: 6161 fe3d 9700 a1bd ae2e 1c3d aff1 cf3d
00000010: 8e37 cabc 8782 893c c3c4 c6bb 876a c83c
00000020: ffb1 0fbe e56f 03be 6106 2a3e 8be8 42bf
00000030: cd08 bc3c 6448 87bd 960c c33d 9af8 cf3d
00000040: fba6 823c e30e 55bd dd49 1bbe a45e 99bd
00000050: 8048 b9bc 7ede c3bc c7b0 d93d 6bd4 a43c
00000060: bd9a 083d d652 95bd 4e3b bcba 5332 453e
00000070: 9f97 203e f98e ffbd 6096 01bd 71c5 1ebf
00000080: 6819 093c 0217 733d 5acb 563d 3727 cfbd
00000090: 68b8 72bb ec53 0bbd 4396 9cbe cbba ce3d
000000a0: 5fef 8b3d 41a1 d93d 2ed2 48bd 6a5b 403d
000000b0: d5ef 8dbd 89ad bcbe a52e f2be 266a c33d
000000c0: c84e 8ebd 0294 91bd 4a83 6ebd e190 f2bd
000000d0: 0a73 cc3d a192 353d b1e4 0fbc 017b 8abd
000000e0: 945c 123d a270 38bb 0be0 2dbd 4cdc bbbb
000000f0: 35db ba3e 58d4 753d d90a acbf 2e66 5ebf
00000100: 919f e9bd 93bf d9be 45f4 09bf 0acc 79be
00000110: 3436 ef3d 3688 de3c 2135 96bd d099 5ebd
00000120: 45f7 58bd 42dc 6c3e fbdc 13bd 04c2 90be
00000130: 9f06 30bf 7dcc 643e 9ae7 d6be c915 f53e
00000140: ef91 febd b918 b93c da6a 90bd 7730 55bc
00000150: 149a a7bd 1490 703c d94f 2e3e 319e a8bc
00000160: 7907 bebd 540b 3dbc 86b4 86bd 8a00 65bc
00000170: 051d bfbd 0e92 543d 2ff6 d7bd 8da5 45bd
00000180: b520 aabc 15c4 f3bd 893f 05be 8ef0 2bbe
00000190: 3bb8 6dbd 4d8b d3bd e42b 6abd 4400 183e
000001a0: a334 38bd c54e cf3d 023e 98bd c315 dbbc
000001b0: 1c55 e73c e283 dabc ef23 303d b289 24be
000001c0: 8ac4 623d 6e35 833d 8820 abbf fb8a 8a3d
000001d0: 23cf af3d 01b2 b0bd f6bc 37bd 9720 42bc
000001e0: eafb 4d3c f4f8 f9be bf05 6c3d 79af 0a3e
000001f0: cd57 0e3d 60a0 03be 8d70 4cbd a11a 9fbe
00000200: 7bc7 123e bfd0 c0bd b6a7 d3bd 90fa 633d
00000210: 183d 24bd dafb dc3d 5f24 bbbd a783 20bd
00000220: 2954 203e 2d11 15be e719 2ebe 468d af3d
00000230: 0464 0cbe 259b 00be 12e8 9d3c 43ca 42be
00000240: cb37 ce3d 2bef 0d3e 56e0 043e 5ad8 ce3d
00000250: 283d 6d3e 8806 55bf 01f6 3d3d f373 d4be
00000260: e271 a73d 5338 ed3d 58e4 733d 5d05 ae3d
00000270: 47bd eebc 8787 61be d1a8 05be 4534 723d
00000280: c1e7 24bc 709c 61be 1513 07be 2f42 8bbe
00000290: fca3 103d b5b2 ccbe 245c 58be 3916 8ebd
000002a0: 3340 44bc fb5c 88bc ae1a 803d 5eec 5bbc
000002b0: c566 7f3e 6c4a 40bc 0c86 c1bd b14a 4e3e
000002c0: c1bc a43d 01b8 c33b 7e5c 3f3c c883 633c
000002d0: 464e ee3c 5a96 393d 6ba9 a43d eb62 433d
000002e0: df83 e33c dae6 b5bc cad4 623c 1e96 7fba
000002f0: 3a46 053f 466f 333e 17f0 4abf 9525 ad3e
00000300: c7c4 2ebe 277e 8bbe 3374 6a3d ebec f63d
00000310: c259 513d 4229 083e 4ed3 cfbb 40ea c53e
00000320: b423 173f 590f 0bbf 1905 ea3e ae64 7abe
00000330: d406 9f3e 7925 443e d688 e13d 052f 0a3e
00000340: e214 6b3d 87a6 0bbf 106f d7be 6959 b0bd
00000350: 9f8b f3be 7a6b 4fbe 850f fc3c 48e8 073e
00000360: 1595 36be 1d29 9dbd aa10 d8bd 4125 97be
00000370: 7cbe 7bbc 8cbf 473d 8d59 5b3d c7e3 d23d
00000380: a70a ddbc 37e4 c83d 32eb 98bb cdf2 a13c
00000390: a372 c63d e863 91bd cc5b 5dbf f1d7 1dbf
000003a0: 5df8 8fbd 240b 0dbf 0439 c7be 8b97 46bf
000003b0: 6729 b73d 2c43 873d 1e7e 223e 982a 8bb8
000003c0: c8f9 f6bd e10d e5be ac4e 4d3e 4713 b0bd
000003d0: 5e2e 3e3d d9fb 8d3d 271f 87bd 1c32 fd3d
000003e0: 2cdd 9d3e 4e0a ee3d e86c 18be e2ca 6cbd
000003f0: ce47 ef3d 03c2 4a3d 6bb3 98ba 8c7f 013e

bias f4 [32]
-0.05138264 -0.2070862 -0.0450881 -0.17659844 0.105573885 -0.025695574 0.006093798 -0.045812804
-0.04377396 -0.06697597 -0.45833942 0.012213153 0.103182115 0.18026307 -0.39163005 -0.07772813
-0.04751097 0.19737236 0.037113536 0.0942544 -0.2527955 0.029068142 -0.011195857 0.16807109
0.096312426 -0.050047316 -0.037021503 0.10060707 -0.08184334 0.12435405 -0.017684678 0.08252473
00000000: 9a76 52bd 680e 54be 4dae 38bd 39d6 34be
00000010: 1f37 d83d 867f d2bc 7cae c73b 35a6 3bbd
00000020: 534c 33bd b32a 89bd 77ab eabe ad19 483c
00000030: 2551 d33d e296 383e bc83 c8be ed2f 9fbd
00000040: dd9a 42bd fb1b 4a3e 5d04 183d 7308 c13d
00000050: 696e 81be 5020 ee3c d46e 37bc d41a 2c3e
00000060: 733f c53d 6afe 4cbd dca3 17bd 140b ce3d
00000070: 7b9d a7bd 56ad fe3d 75df 90bc ba02 a93d

beta f4 [32]
0.99691343 1.0375162 0.87683994 0.94155526 0.92210335 1.0167819 0.8655466 0.806733
0.91862005 0.88355815 0.8867598 0.8900599 0.90630907 0.9117506 0.9051093 0.8947579
0.9003288 1.14455 1.0236214 0.8481425 0.88579965 0.9347895 0.88923633 0.9405414
0.92813325 0.85785925 0.8848162 0.9621839 0.9062002 0.9209841 0.8705253 0.9024995
00000000: b835 7f3f 55cd 843f 9578 603f c409 713f
00000010: f70e 6c3f e925 823f 7694 5d3f 0e86 4e3f
00000020: af2a 6b3f de30 623f b102 633f f7da 633f
00000030: df03 683f 7d68 693f 3eb5 673f db0e 653f
00000040: f37b 663f 9d80 923f 0706 833f de1f 593f
00000050: c4c3 623f 5d4e 6f3f fea4 633f 52c7 703f
00000060: 249a 6d3f aa9c 5b3f 5183 623f af51 763f
00000070: bcfc 673f 9dc5 6b3f bfda 5e3f 350a 673f

gamma f4 [32, 32]
0.15554844 0.39129573 0.014997125 -0.022833198 -0.0033703414 -0.00010845097 0.0057298415 -0.0105900895
-0.01423856 0.089074686 -0.0026939167 0.090006776 0.18728289 0.3856896 -0.004459784 0.35725188
-0.00047730043 1.6317313 -0.0002740684 0.00012558808 1.043562e-05 0.0004213407 0.079887375 -0.00026518642
0.054563954 0.22458631 0.07414248 -0.009361013 -0.00017706222 0.30232427 -7.4950665e-05 1.4386977e-05
0.2673819 6.0278862e-06 -0.00052628794 -0.036325183 0.082871825 -4.812765e-06 0.14553565 0.1005458
0.21863334 -0.018071419 0.37262973 -0.0037559727 3.2652726e-05 -0.020842375 -0.015570694 0.26710337
-0.012255485 0.19878134 3.235205e-06 0.00038102892 -0.00021277326 -0.002202765 0.00015300178 0.31645757
-0.0078071896 3.9997253e-06 0.109145276 3.7331145e-06 0.0007820076 -3.7244477e-05 6.4759326e-05 -0.0010131507
-0.0060542966 0.12698866 0.9734205 3.29158e-06 -1.8862433e-05 -0.00091614976 3.8232315e-06 0.27644354
2.2637098e-05 4.6361283e-06 -0.013317482 4.21139e-06 3.8096262e-06 -0.0003930292 4.5671254e-06 0.40545556
3.4927273e-06 0.38187078 -3.4275088e-06 1.2751877e-05 -0.014569325 -0.0005918167 -0.011364634 -0.005247908
-0.0020528324 7.968239e-06 4.7870585e-06 3.3964538e-06 -0.00010581918 -0.007911053 -0.0061445213 5.8338924e-06
-0.006762057 -0.006660996 4.837556e-06 1.0390682 1.5308426e-05 -0.008622305 0.25269353 0.07927323
0.024359625 -0.0012775419 -0.016201034 0.13774471 -0.0018279993 -0.012502289 0.19946286 0.2250786
-1.590004e-05 0.010072346 -0.0018249413 0.057092905 -0.0031754489 -0.00021712708 1.8657161e-05 -0.012771152
-1.9204133e-05 -0.0014475235 -0.00026547463 0.21663843 4.5634065e-06 4.676449e-06 0.051828116 -0.000114779185
-0.020336526 -0.005570188 -0.004855716 0.0017739817 0.97482646 0.32308865 -0.0056617074 -0.0043912265
0.3698918 0.025000725 0.065215655 -0.0005715048 -0.0076179747 0.1831515 -0.0025813645 0.46588483
-0.005015188 0.345149 0.037434276 0.0017224634 0.0022363663 4.9686805e-06 -6.9665446e-05 0.11989422
3.932764e-06 0.028390069 -0.0001459437 0.12567458 0.0054003494 -0.00076123443 -0.00096119766 0.0023862377
0.00015941818 0.42004365 0.042529613 -0.01228287 1.3076481e-05 0.22552678 0.14011303 -0.0062150396
-0.017718257 0.200138 0.00020046739 0.37015402 1.3407769e-05 -0.0040255804 0.07979142 -0.001856598
-0.0034031603 1.8236487 -0.0035446093 -0.0011007271 -6.462392e-05 -0.0016092457 0.1185131 -0.009453795
0.18810302 0.15060581 4.716269e-06 -0.0031371864 0.006658536 -0.0030860784 7.2801004e-06 0.2968795
0.09707507 -0.0017313812 0.18132271 0.21203843 -0.0029366782 -0.0012523379 0.9189485 4.280229e-06
0.5643947 5.578979e-06 -0.028473962 -0.020774847 7.8562356e-05 -0.0017934783 0.29653215 0.14590076
4.3643226e-06 0.41612613 0.22231326 0.14886808 6.9429702e-06 -0.014571896 -0.002408282 -0.024607595
-0.007172684 4.933744e-06 0.1500241 9.4721345e-06 -0.00028480345 8.419215e-07 -0.016500866 2.4402236e-05
-0.0048031257 -0.008402914 0.0015930596 0.45718256 -0.0031577265 -5.2452237e-05 5.218915e-06 1.0111173
0.0030542735 -0.0003962007 3.8946337e-06 -0.004749438 -0.004899746 0.15491447 -0.012818579 0.0077899178
-0.00025359902 1.2971731 0.0017769473 3.0562917e-06 -0.0136191845 -0.019465854 -0.004369565 0.00010468812
1.3808752e-05 -7.583586e-05 -0.0035050057 -0.0005071207 -0.00037298957 5.1895413e-06 -0.0044139656 -0.0055990377
00000000: 1748 1f3e ea57 c83e 80b6 753c b00c bbbc
00000010: f2e0 5cbb 2c70 e3b8 65c1 bb3b 0e82 2dbc
00000020: d948 69bc ca6c b63d 6c8c 30bb 7955 b83d
00000030: 16c7 3f3e 1b79 c53e 6123 92bb b8e9 b63e
00000040: 2e3e fab9 92dc d03f d7b0 8fb9 4bb0 0339
00000050: a614 2f37 64e7 dc39 fe9b a33d b808 8bb9
00000060: 747e 5f3d f4f9 653e 03d8 973d ef5e 19bc
00000070: c7a9 39b9 3fca 9a3e d52e 9db8 995f 7137
00000080: 48e6 883e 2643 ca36 96f6 09ba b7c9 14bd
00000090: b4b8 a93d 567d a1b6 4c07 153e f5ea cd3d
000000a0: 6be1 5f3e 830a 94bc 53c9 be3e c426 76bb
000000b0: 99f4 0838 a1bd aabc 391c 7fbc c6c1 883e
000000c0: 3bcb 48bc 568d 4b3e 661c 5936 d6c4 c739
000000d0: e31b 5fb9 445c 10bb 1a6f 2039 ba06 a23e
000000e0: 74d3 ffbb 6135 8636 8f87 df3d 6b86 7a36
000000f0: a4ff 4c3a f436 1cb8 66cf 8738 b2cb 84ba
00000100: 1f63 c6bb 5109 023e 1632 793f eae4 5c36
00000110: c43a 9eb7 c529 70ba 4f49 8036 028a 8d3e
00000120: cce4 bd37 0a90 9b36 9131 5abc 914f 8d36
00000130: e1a8 7f36 7c0f ceb9 4f3f 9936 df97 cf3e
00000140: 9964 6a36 9184 c33e 2704 66b6 e5f0 5537
00000150: 2eb4 6ebc 2524 1bba bb32 3abc a5f6 abbb
00000160: d088 06bb 53af 0537 85a0 a036 a2ee 6336
00000170: 3deb ddb8 5c9d 01bc fb57 c9bb c1c0 c336
00000180: 3f94 ddbb 7c44 dabb 4a52 a236 3000 853f
00000190: 986a 8037 9144 0dbc 0c61 813e 015a a23d
000001a0: d68d c73c 3173 a7ba 08b8 84bc f30c 0d3e
000001b0: 7a99 efba 67d6 4cbc fe3f 4c3e 017b 663e
000001c0: 1361 85b7 7b06 253c de32 efba 40da 693d
000001d0: 311b 50bb 9bac 63b9 f381 9c37 183e 51bc
000001e0: 9018 a1b7 d4ba bdba 672f 8bb9 77d6 5d3e
000001f0: 5d1f 9936 64ea 9c36 b849 543d 9bb5 f0b8
00000200: c998 a6bc 2086 b6bb b31c 9fbb f384 e83a
00000210: 3a8e 793f e06b a53e d885 b9bb 47e4 8fbb
00000220: 7562 bd3e 52ce cc3c c98f 853d 0ad1 15ba
00000230: 34a0 f9bb 118c 3b3e 1c2c 29bb 7588 ee3e
00000240: 7256 a4bb 5fb7 b03e af54 193d 48c4 e13a
00000250: 0090 123b a4b8 a636 5a19 92b8 1a8b f53d
00000260: 2ff6 8336 4a92 e83c 7708 19b9 d6b0 003e
00000270: 6af5 b03b 948d 47ba e2f8 7bba 6d62 1c3b
00000280: 7e29 2739 f60f d73e 8833 2e3d 173e 49bc
00000290: 0f63 5b37 7ef0 663e ca79 0f3e 88a7 cbbb
000002a0: e125 91bc faf0 4c3e 8e34 5239 d484 bd3e
000002b0: eef1 6037 04e9 83bb af69 a33d 1759 f3ba
000002c0: 8e07 5fbb 526d e93f ad4c 68bb 4646 90ba
000002d0: b486 87b8 53ed d2ba ffb6 f23d 17e4 1abc
000002e0: 149e 403e 6938 1a3e 7140 9e36 4199 4dbb
000002f0: d92f da3b ce3f 4abb 9647 f436 9700 983e
00000300: 4bcf c63d 83ef e2ba a9ac 393e 9a20 593e
00000310: 4975 40bb 7d25 a4ba 3540 6b3f e39e 8f36
00000320: 2c7c 103f 1133 bb36 3a42 e9bc 0330 aabc
00000330: d8c1 a438 2513 ebba 10d3 973e 0267 153e
00000340: 3f71 9236 7c0e d53e 16a6 633e e070 183e
00000350: a9f7 e836 f6be 6ebc 44d4 1dbb de95 c9bc
00000360: d608 ebbb 8a8c a536 eb9f 193e 82ea 1e37
00000370: ac51 95b9 6800 6235 d32c 87bc 67b3 cc37
00000380: 8a63 9dbb 60ac 09bc 36ce d03a d513 ea3e
00000390: dcf1 4ebb 2900 5cb8 231e af36 4b6c 813f
000003a0: 352a 483b 28b9 cfb9 a6ae 8236 2ca1 9bbb
000003b0: 0c8e a0bb e6a1 1e3e 0405 52bc 9142 ff3b
000003c0: 7cf5 84b9 c509 a63f 75e8 e83a b11a 4d36
000003d0: 0023 5fbc db76 9fbc 912e 8fbb 028c db38
000003e0: 23ac 6737 110a 9fb8 3db4 65bb 4bf0 04ba
000003f0: d08d c3b9 d221 ae36 07a3 90bb 2278 b7bb

beta f4 [32]
0.89470005 0.9473783 1.0501474 0.8459588 0.9766713 0.82446635 1.0554105 1.1199977
0.9121477 0.81922716 0.9279575 0.9996574 0.92264324 0.96874094 0.7988551 0.95241374
0.9029129 0.8058036 1.0868591 0.9547072 0.911706 0.95404285 1.068456 0.9210865
1.0181713 1.0102142 0.88036793 0.93111366 0.9735825 0.9479221 0.8383801 0.8749465
00000000: 100b 653f 6287 723f 3b6b 863f c290 583f
00000010: 2107 7a3f 3a10 533f b117 873f 165c 8f3f
00000020: 8382 693f dfb8 513f 9f8e 6d3f 8ce9 7f3f
00000030: 5932 6c3f 68ff 773f c581 4c3f 63d1 733f
00000040: 4d25 673f 2549 4e3f 331e 8b3f b167 743f
00000050: 9065 693f 273c 743f 2bc3 883f 53cc 6b3f
00000060: 7053 823f b34e 813f cb5f 613f 775d 6e3f
00000070: b43c 793f 06ab 723f 14a0 563f 7efc 5f3f

gamma f4 [32, 32]
0.35498723 0.48714277 -0.0065588825 -8.221019e-06 -0.00150244 -0.0012864654 0.86220664 -0.00030789143
0.047963195 7.276556e-06 -0.0081727505 -0.011036299 -0.010755342 -0.0004707464 -6.610611e-05 -0.0014487146
-0.000269749 6.541158e-06 -4.651548e-05 -1.5368087e-05 -0.0019993659 -0.020297348 -0.0011125987 2.35476e-05
-0.009406758 -0.0010122439 -4.4576576e-05 -7.5608127e-06 5.9381878e-06 -0.00017675638 -1.5394455e-06 -0.012119074
-0.00038550523 0.58806074 -0.00940821 0.18677284 -7.4535135e-05 0.10715237 4.691131e-06 0.24894474
-0.0008931537 0.4814372 -0.00023128871 -0.022939015 -0.005788023 -7.4329546e-05 -0.0010529888 -0.011435682
2.8047214e-06 0.35920364 -0.010242723 -0.001099072 3.608972e-06 2.0934316e-05 -0.008348353 -3.870585e-05
-0.0077510863 -0.002033417 -0.00022249822 0.07594152 -7.437859e-05 7.704253e-06 -0.00031904047 7.152301e-06
-0.0058366307 -0.0036584537 0.14784764 -0.0016413393 -0.001492352 -0.00024544532 -0.018147102 -0.0050579575
-0.0061597554 -0.0010399511 -0.02396417 -0.0057825535 -0.0063493154 -0.024509473 -0.0059128283 -0.02231074
-0.0010359775 -0.0070644217 0.4546231 -0.0005220128 -0.008684739 -0.016349362 -0.0024210787 -0.01262007
-0.00042075544 -0.011375364 -1.571651e-05 -0.0003883964 -0.013992602 -0.013792297 -0.0015523912 0.61544394
0.34861058 -3.4184036e-06 -0.011701058 0.48684254 -0.00031381042 -0.0013744095 0.20088117 -0.001543263
-2.5938478e-05 0.8073254 -6.432724e-05 -0.0016921443 -0.010832807 -0.00073328573 0.59576 5.907442e-05
-0.00019533586 -0.010434223 -0.00015092466 -6.6208995e-06 -0.007872083 -1.1480435e-05 -0.020693665 -0.020500785
-0.022193141 1.2656669e-05 -0.0037947616 0.00037184244 -0.0026828141 1.58623e-05 0.29985616 6.1652268e-06
-0.012521478 -0.007415061 -0.0037566186 -0.0019997244 0.27216586 -6.5347504e-06 -0.00014586103 -0.011747006
-0.0029846395 -7.101615e-05 -0.005926774 -0.009914004 -0.009681833 5.0609974e-06 -7.486243e-05 -0.00051574584
6.0152975e-06 -0.000107337924 4.069398e-06 -0.0023700234 -0.0002782109 -0.0051251627 -0.0010544722 -0.014995644
-0.001017401 -0.011057647 -0.0078033535 -0.0012279673 -0.014711539 -0.018069103 -0.00084324734 -0.0056137755
-0.00065390946 0.4098802 -0.0007285693 -0.00041972913 -0.000102073056 0.8195657 -0.00028638242 -0.010417816
-0.00019057136 0.14225453 -0.0016110418 -0.016020851 -0.0021834392 0.007113751 0.63375705 -0.00022970288
-0.0004891071 -9.782671e-06 -0.002784392 -0.0004166094 0.07047534 -0.0025235196 0.026607988 4.75316e-06
-0.0007962997 -0.00049567124 -7.7276694e-05 -0.00031706033 -0.020320822 0.00010256033 0.56505233 0.079451405
-0.0003477463 0.6663741 -0.0063615735 -0.014744226 -0.00073150825 -0.0025555366 0.43016332 -0.019991921
-0.0007385478 -0.0002187611 -0.0010878985 -0.0006216041 -0.010014029 -2.7411068e-06 0.93018365 -0.01222588
-2.1313685e-06 -0.0020395743 -0.0012335319 -0.004386603 -8.167452e-05 -5.9309674e-05 -2.4358409e-05 -0.00079498783
-0.0011267916 0.19386294 8.129815e-07 -0.013303399 -0.0038996649 -0.0019754486 -0.014804362 0.621434
-0.00019114293 -0.0041393153 0.084553726 -0.023053762 -0.010427216 -0.0033825173 -0.003635912 0.3524034
0.46677122 -0.0012691189 -0.0013942639 -0.017816348 -0.011320059 -0.0002903509 -2.4590569e-05 -0.009615101
-0.003797787 0.7570951 -0.017044105 -0.00047561113 -0.0007025602 -0.019589843 -0.021249814 -1.5955451e-05
-0.009378046 -0.019729098 -0.011894874 -0.013878531 0.12875797 -0.015060804 -0.008901693 -0.0032526706
00000000: e3c0 b53e c76a f93e e5eb d6bb 02ed 09b7
00000010: 85ed c4ba 9e9e a8ba 93b9 5c3f 7d6c a1b9
00000020: 0e75 443d 2429 f436 00e7 05bc 98d1 34bc
00000030: 2d37 30bc 83ce f6b9 73a2 8ab8 cce2 bdba
00000040: 196d 8db9 1f7c db36 9e19 43b8 b7ea 80b7
00000050: cb07 03bb a046 a6bc 9ed4 91ba 1688 c537
00000060: cd1e 1abc 45ad 84ba bcf7 3ab8 e3b2 fdb6
00000070: a540 c736 ae57 39b9 f29e ceb5 158f 46bc
00000080: a31d cab9 268b 163f e524 1abc 6141 3f3e
00000090: bf4f 9cb8 b472 db3d 8268 9d36 5feb 7e3e
000000a0: 8822 6aba f07e f63e 1786 72b9 9aea bbbc
000000b0: 75a9 bdbb 5fe1 9bb8 7104 8aba ba5c 3bbc
000000c0: bf38 3c36 8ae9 b73e 18d1 27bc bd0e 90ba
000000d0: ab31 7236 1a9c af37 88c7 08bc 1758 22b8
000000e0: d3fc fdbb 1443 05bb 694e 69b9 3a87 9b3d
000000f0: b4fb 9bb8 8441 0137 e344 a7b9 ccfd ef36
00000100: 3541 bfbb abc2 6fbb 5f65 173e 3522 d7ba
00000110: 069b c3ba 1daf 80b9 3ba9 94bc 39bd a5bb
00000120: c6d7 c9bb f84e 88ba 8250 c4bc 937b bdbb
00000130: eb0d d0bb 17c8 c8bc 66c0 c1bb 03c5 b6bc
00000140: a3c9 87ba aa7c e7bb 5cc4 e83e b0d7 08ba
00000150: 6f4a 0ebc 19ef 85bc f6aa 1ebb 69c4 4ebc
00000160: d798 dcb9 bc5f 3abc f3d6 83b7 afa1 cbb9
00000170: 3a41 65bc 16f9 61bc 9b79 cbba bc8d 1d3f
00000180: 167d b23e ba67 65b6 cbb5 3fbc 6d43 f93e
00000190: ec86 a4b9 8825 b4ba cbb3 4d3e 5047 caba
000001a0: 7596 d9b7 e1ac 4e3f 6de7 86b8 f1ca ddba
000001b0: 167c 31bc f939 40ba ba83 183f adc6 7738
000001c0: 12d3 4cb9 4ef4 2abc 8841 1eb9 1829 deb6
000001d0: e9f9 00bc 189c 40b7 c385 a9bc 43f1 a7bc
000001e0: 64ce b5bc fb57 5437 89b1 78bb d9f3 c239
000001f0: 27d2 2fbb 0810 8537 bf86 993e e5de ce36
00000200: e326 4dbc 0afa f2bb 9a31 76bb cf0d 03bb
00000210: 5359 8b3e 1445 dbb6 46f2 18b9 8476 40bc
00000220: f199 43bb 81ee 94b8 6235 c2bb 596e 22bc
00000230: 8da0 1ebc a3d1 a936 76ff 9cb8 1e33 07ba
00000240: 03d7 c936 9c1a e1b8 dd8b 8836 6552 1bbb
00000250: d6dc 91b9 fbf0 a7bb 3736 8aba 4ab0 75bc
00000260: 505a 85ba 222b 35bc 46b3 ffbb bff3 a0ba
00000270: ab08 71bc a805 94bc 5f0d 5dba c3f3 b7bb
00000280: 1f6b 2bba d1db d13e 75fd 3eba 170f dcb9
00000290: 0e10 d6b8 0fcf 513f 9925 96b9 7daf 2abc
000002a0: 1cd4 47b9 2cab 113e 9829 d3ba 293e 83bc
000002b0: 0818 0fbb 781a e93b e73d 223f 66dc 70b9
000002c0: 6c37 00ba 4120 24b7 597a 36bb 5e6c dab9
000002d0: 6055 903d a261 25bb fff8 d93c 557d 9f36
000002e0: c5be 50ba efef 01ba 9c0f a2b8 1e3b a6b9
000002f0: da77 a6bc a815 d738 45a7 103f 6bb7 a23d
00000300: b851 b6b9 7e97 2a3f bf74 d0bb c491 71bc
00000310: b0c2 3fba ca7a 27bb 5e3e dc3e 19c6 a3bc
00000320: 1b9b 41ba 3c63 65b9 d197 8eba 25f3 22ba
00000330: e211 24bc dbf3 37b6 8420 6e3f 0f4f 48bc
00000340: a208 0fb6 61aa 05bb 76ae a1ba 7ebd 8fbb
00000350: ad48 abb8 47c3 78b8 4955 ccb7 bb66 50ba
00000360: dab0 93ba 0284 463e aa3b 5a35 80f6 59bc
00000370: 8591 7fbb 8776 01bb ff8d 72bc 4c16 1f3f
00000380: 8a6d 48b9 18a3 87bb 812a ad3d 3edb bcbc
00000390: ead6 2abc 39ad 5dbb 7b48 6ebb 386e b43e
000003a0: a3fc ee3e 9058 a6ba bcbf b6ba 97f3 91bc
000003b0: c577 39bc 3d3a 98b9 d847 ceb7 a888 1dbc
000003c0: 4be4 78bb fcd0 413f 14a0 8bbc 725b f9b9
000003d0: 042c 38ba e17a a0bc 1714 aebc 12d8 85b7
000003e0: 60a6 19bc eb9e a1bc b8e2 42bc c762 63bc
000003f0: 21d9 033e 97c1 76bc 68d8 11bc c22a 55bb

beta f4 [32]
0.91109145 0.83462113 0.89968085 0.9231663 0.9828163 0.96540755 0.8467083 0.8643266
0.95853007 0.77544326 0.7277243 0.853633 1.0570595 1.023201 1.0539554 0.9429044
0.9039957 1.0652044 0.87456363 1.2220682 0.8933428 1.2581048 0.9138407 0.8535992
0.93534005 0.8869095 0.95996124 0.87857246 1.0938088 0.88088715 1.2179967 0.8495744
00000000: 4a3d 693f bba9 553f 7c51 663f a054 6c3f
00000010: d999 7b3f f324 773f e0c1 583f 8244 5d3f
00000020: 3a62 753f 7383 463f 244c 3a3f b187 5a3f
00000030: ba4d 873f 40f8 823f 03e8 863f 2f62 713f
00000040: 436c 673f 9e58 883f 67e3 5f3f bb6c 9c3f
00000050: 1db2 643f 9409 a13f 77f1 693f 7a85 5a3f
00000060: 7272 6f3f 800c 633f 05c0 753f 20ea 603f
00000070: ed01 8c3f d281 613f 51e7 9b3f b57d 593f
