models/decNet2_10_1.pkl (torch_old, 348258 bytes, 17 tensors)

weight f4 [64, 1, 1, 1]
0.20650612 0.27980784 -1.4129841 0.40594515 -1.3717315 0.3503678 0.32123545 -0.7647611
-1.1173908 0.08854418 -1.3367082 0.26304826 0.103187755 0.071653284 0.54606766 0.42942613
-0.66544384 0.10625308 -0.55535144 0.17524739 0.23182791 0.096504726 -1.0638244 -0.6490035
0.18131058 -0.91833663 0.6555629 -0.9664364 0.8464685 0.32091323 -0.34462824 0.8368147
0.635871 0.0147817135 -1.3553847 0.9002451 -0.8340366 -0.94466764 -1.50863 -0.86197174
-1.021215 0.1075732 -0.65253186 -1.2654444 0.15357067 -0.4066138 0.32751748 0.923108
-0.2564853 0.1042511 0.21415797 0.35260174 0.2825933 0.41535133 -1.4372263 -0.4159246
0.21853909 0.5499385 0.6082068 0.52656513 0.7422328 0.6892342 0.19973697 -0.8079532
00000000: 5776 533e f942 8f3e aadc b4bf 0bd8 cf3e
00000010: e694 afbf 6963 b33e f978 a43e 62c7 43bf
00000020: a906 8fbf a756 b53d 4119 abbf 43ae 863e
00000030: 1a54 d33d f5be 923d 17cb 0b3f bedd db3e
00000040: 875a 2abf 379b d93d 832b 0ebf 0d74 333e
00000050: 4c64 6d3e 45a4 c53d 662b 88bf 1825 26bf
00000060: 7ba9 393e 1c18 6bbf f8d2 273f 6068 77bf
00000070: 29b2 583f bd4e a43e 1d73 b0be 7d39 563f
00000080: 71c8 223f 002f 723c 3f7d adbf 7676 663f
00000090: 6c83 55bf bdd5 71bf ca1a c1bf 2eaa 5cbf
000000a0: 2cb7 82bf 564f dc3d 540c 27bf 15fa a1bf
000000b0: a141 1d3e af2f d0be 5fb0 a73e ce50 6c3f
000000c0: 0b52 83be 9a81 d53d 3a4c 5b3e 3788 b43e
000000d0: 12b0 903e eea8 d43e 08f7 b7bf 12f4 d4be
000000e0: b6c8 5f3e c5c8 0c3f 71b3 1b3f f9cc 063f
000000f0: f802 3e3f a771 303f d987 4c3e 05d6 4ebf

weight f4 [64, 64, 2, 2]
0.054094996 0.16978733 0.1908356 0.30512366 -0.14505225 0.06667633 -0.08084689 -0.020171853
-0.013012979 0.038641512 0.057077777 0.08181615 -0.055029213 0.06144282 0.09159247 0.114400946
0.11760941 0.17644672 0.3876811 0.201804 0.058623303 0.038426854 0.1533072 0.16678435
0.12981367 0.025608724 -0.09742198 0.08855642 0.13437827 0.087368615 -0.015501908 -0.053209186
-0.107051045 -0.17776205 0.09453927 0.01588862 0.053618044 0.112034954 0.052834444 -0.32695022
0.03414086 0.31818664 -0.075600676 0.11669742 0.051441737 -0.017161755 -0.16216354 0.13132691
-0.13872615 0.14388537 -0.2610717 0.078372136 0.15621318 0.015131157 -0.13906555 -0.04590953
0.044309586 -0.075860485 -0.0721166 -0.06274033 0.19149683 -0.057794463 0.11471532 -0.07339336
0.08897631 -0.20240569 -0.078785546 -0.0118836565 0.103607595 0.1525323 -0.03542117 -0.036070943
-0.06752137 0.28107718 0.038984857 -0.03216745 -0.1536515 0.06047955 0.19480444 -0.03700072
-0.003964761 0.027220175 -0.03940843 -0.013887989 -0.18639609 -0.036944255 0.060830805 -0.043107573
-0.05919638 -0.09261597 -0.2527857 -0.15899298 0.07199388 0.033577863 0.03519503 -0.10320846
-0.07926315 0.15887979 -0.009491626 0.10865914 0.10682309 -0.026973838 -0.02174866 0.120796345
0.056094427 -0.035720285 0.016077336 -0.09622169 0.03559498 0.024145724 -0.29446328 0.17192541
0.10200716 0.071086034 -0.05442973 0.13581759 -0.036401395 0.123165876 -0.027116265 0.09526736
0.078373596 -0.0992739 0.030912109 -0.050420206 -0.12661275 0.12121305 0.0706967 0.11394581
-0.06474275 -0.10976548 -0.105476215 -0.14769973 -0.08645453 -0.013709249 -0.48591518 -0.017221015
0.050367344 -0.077941045 -0.014362983 -0.011223582 0.067459755 -0.19928855 -0.038372178 -0.12338046
-0.10990535 0.28146532 0.19921862 -0.10829983 0.0287288 0.019143755 0.036317457 -3.2709963e-06
0.107348844 0.05038861 0.13805668 -0.0029040545 -0.097341426 0.028556762 0.030892882 -0.040474955
-0.045457732 -0.18600832 0.017744383 0.08786369 -0.08277934 -0.017783267 -0.17935902 -0.040713474
0.061424155 0.029807838 0.17100523 0.010493869 0.07560796 0.03446923 0.11879545 0.10661567
0.010100951 0.00597663 -0.03481793 -0.16628234 -0.030261943 -0.039962117 0.10804047 -0.039198745
-0.11813882 -0.13431405 0.20648755 -0.09285604 0.105463244 -0.13989091 -0.14222471 -0.23021735
-0.08206337 -0.22331172 -0.008460444 -0.061778806 0.047176298 -0.1210938 -0.16473001 -0.09256166
-0.029664868 0.26815 0.023768289 0.053154718 -0.03868895 0.21232918 0.028971475 0.16807617
-0.029988354 0.0577367 -0.011545974 -0.02097658 0.21925512 0.16726986 0.024601985 -0.26851082
0.105742544 -0.17886965 -0.09111349 0.106297486 -0.1344813 0.14856973 -0.13979727 0.020303875
-0.07673559 -0.12299658 -0.022820551 0.033204943 -0.03368577 0.07101048 -0.030979007 0.010714539
-0.12439814 0.19678932 -0.023905722 0.1529385 0.11054895 -0.100909695 0.06942687 -0.050148766
-0.1236855 -0.057582792 -0.16222413 -0.105452545 0.002036042 0.041708987 -0.4807759 0.06705648
0.07634153 -0.10003608 0.20502171 0.14887561 -0.07462859 0.019147234 -0.052374184 -0.17485067
00000000: b792 5d3d bbdc 2d3e 686a 433e 2b39 9c3e
00000010: 9488 14be 9a8d 883d 0e93 a5bd 713f a5bc
00000020: 6434 55bc 9046 1e3d 63ca 693d 3a8f a73d
00000030: 5066 61bd 77ab 7b3d d594 bb3d 0b4b ea3d
00000040: 34dd f03d 73ae 343e 237e c63e b5a5 4e3e
00000050: fd1e 703d 7a65 1d3d 90fc 1c3e 84c9 2a3e
00000060: e0ed 043e 63c9 d13c 2d85 c7bd 115d b53d
00000070: 759a 093e 51ee b23d b7fb 7dbc e0f1 59bd
00000080: 943d dbbd 4107 36be ce9d c13d da28 823c
00000090: 989e 5b3d 9572 e53d ee68 583d 0566 a7be
000000a0: 49d7 0b3d 5ce9 a23e 87d4 9abd 0fff ee3d
000000b0: 92b4 523d cf96 8cbc 330e 26be 907a 063e
000000c0: 3a0e 0ebe b056 133e 31ab 85be 9281 a03d
000000d0: 59f6 1f3e ace8 773c 3367 0ebe a20b 3cbd
000000e0: f87d 353d be5c 9bbd deb1 93bd 017e 80bd
000000f0: bf17 443e e3b9 6cbd deef ea3d 424f 96bd
00000100: 3639 b63d 7043 4fbe 515a a1bd abb3 42bc
00000110: 3830 d43d 6d31 1c3e ca15 11bd 20bf 13bd
00000120: a548 8abd 59e9 8f3e 96ae 1f3d 04c2 03bd
00000130: d256 1dbe 68b9 773d d17a 473e 118e 17bd
00000140: d3ea 81bb d8fc de3c bc6a 21bd 738a 63bc
00000150: 9ede 3ebe dc52 17bd b929 793d 9191 30bd
00000160: e777 72bd 71ad bdbd 216d 81be 0ecf 22be
00000170: 8771 933d f188 093d aa28 103d f55e d3bd
00000180: b854 a2bd 62b1 223e c482 1bbc af88 de3d
00000190: 10c6 da3d 3df8 dcbc 3f2a b2bc 1364 f73d
000001a0: 45c3 653d 6f4f 12bd 9eb4 833c e10f c5bd
000001b0: 0bcc 113d 41cd c53c e4c3 96be 370d 303e
000001c0: 21e9 d03d 8e95 913d b5f1 5ebd c413 0b3e
000001d0: a119 15bd 643e fc3d ee22 debc 891b c33d
000001e0: 5682 a03d 1d50 cbbd 643b fd3c 6b85 4ebd
000001f0: c6a6 01be 8c3e f83d 6ec9 903d 6c5c e93d
00000200: d997 84bd b9cc e0bd ea03 d8bd 993e 17be
00000210: 130f b1bd c29c 60bc e0c9 f8be 1613 8dbc
00000220: fd4d 4e3d 8e9f 9fbd b852 6bbc 1de3 37bc
00000230: 5728 8a3d 4c12 4cbe 252c 1dbd e5ae fcbd
00000240: 0e16 e1bd 391c 903e f7ff 4b3e 4dcc ddbd
00000250: a958 eb3c 5dd3 9c3c 9dc1 143d 4a83 5bb6
00000260: b6d9 db3d 4a64 4e3d bb5e 0d3e f351 3ebb
00000270: f15a c7bd dfef e93c 1213 fd3c 11c9 25bd
00000280: e331 3abd f778 3ebe ab5c 913c e1f1 b33d
00000290: 3788 a9bd 37ae 91bc e4a9 37be 2cc3 26bd
000002a0: e597 7b3d 912f f43c ff1b 2f3e 7aee 2b3c
000002b0: 59d8 9a3d 9b2f 0d3d 074b f33d 5159 da3d
000002c0: 767e 253c 9bd7 c33b 3f9d 0ebd eb45 2abe
000002d0: e5e7 f7bc 51af 23bd 5244 dd3d dd8e 20bd
000002e0: c4f2 f1bd 9f89 09be 7971 533e 4f2b bebd
000002f0: 1dfd d73d 903f 0fbe 5ba3 11be 19be 6bbe
00000300: d710 a8bd d4ab 64be ad9d 0abc c60b 7dbd
00000310: ef3b 413d 0700 f8bd fcae 28be f890 bdbd
00000320: bd03 f3bc f54a 893e b7b5 c23c c3b8 593d
00000330: 4e78 1ebd d26c 593e 9655 ed3c 291c 2c3e
00000340: 23aa f5bc 517d 6c3d 532b 3dbc 14d7 abbc
00000350: 6a84 603e ca48 2b3e 1a8a c93c 407a 89be
00000360: 8c8f d83d 9b29 37be b699 babd 7fb2 d93d
00000370: 77b5 09be aa22 183e 0427 0fbe 5054 a63c
00000380: 8d27 9dbd a2e5 fbbd 2af2 babc e801 083d
00000390: 17fa 09bd f16d 913d b0c7 fdbc 098c 2f3c
000003a0: 74c4 febd 2483 493e efd5 c3bc e99b 1c3e
000003b0: 7d67 e23d bea9 cebd ad2f 8e3d cb68 4dbd
000003c0: d34e fdbd efdb 6bbd 151e 26be 81f7 d7bd
000003d0: 1e6f 053b 0bd7 2a3d 4228 f6be e854 893d
000003e0: f358 9c3d b7df ccbd 36f1 513e d972 183e
000003f0: e0d6 98bd a9da 9c3c 5086 56bd 0e0c 33be

bias f4 [64]
0.12710443 -0.05433103 0.016331136 0.043977596 -0.020027619 0.05642851 0.007852763 -0.07038232
0.052542266 0.118141435 0.10670251 0.06363363 0.00038496318 -0.057265144 0.0341611 -0.13445969
0.03007931 0.06959374 0.05011003 -0.059962172 0.045145784 0.07626362 0.020614367 -0.04955204
-0.008817123 0.08732408 0.026375126 0.009594964 0.068767555 0.105814025 -0.06319003 0.100481644
0.06276994 -0.079507805 0.1677019 -0.03453726 -0.10702895 -0.030557523 -0.0005843871 0.038624104
-0.006296014 0.053876728 0.12776911 -0.010481622 -0.06912704 0.016874947 0.019670593 -0.005940529
0.07959014 0.032102693 -0.030088698 0.09186257 -0.061138608 -0.05967078 0.08114704 -0.08601504
-0.020845586 0.06836223 -0.03940269 -0.06551637 -0.09131906 -0.061582703 0.06012383 0.022840323
00000000: aa27 023e 378a 5ebd e0c8 853c da21 343d
00000010: f610 a4bc 9521 673d e0a8 003c 9b24 90bd
00000020: 8f36 573d 23f4 f13d d886 da3d 5952 823d
00000030: e2d4 c939 db8e 6abd 82ec 0b3d cdaf 09be
00000040: e368 f63c 2a87 8e3d 2d40 4d3d e59a 75bd
00000050: c9ea 383d 1a30 9c3d 76df a83c 14f7 4abd
00000060: b275 10bc f8d6 b23d a610 d83c 3234 1d3c
00000070: 01d6 8c3d 06b5 d83d c669 81bd 52c9 cd3d
00000080: 878d 803d fdd4 a2bd 0cba 2b3e f176 0dbd
00000090: fe31 dbbd c553 fabc 8e31 19ba 4f34 1e3d
000000a0: cb4e cebb d8ad 5c3d e8d5 023e 1cbb 2bbc
000000b0: 7a92 8dbd 543d 8a3c 3924 a13c c5a8 c2bb
000000c0: 2800 a33d 1d7e 033d 937c f6bc 7122 bc3d
000000d0: 7a6c 7abd 5969 74bd 6b30 a63d a728 b0bd
000000e0: 5dc4 aabc 7f01 8c3d b764 21bd 722d 86bd
000000f0: 7d05 bbbd 253e 7cbd 6844 763d a11b bb3c

weight f4 [64, 64, 2, 2]
0.028270705 -0.15066615 0.19726226 -0.039505623 0.051896997 0.061298437 0.09945278 0.21219675
-0.14504822 0.048308026 0.03178205 0.23820172 0.07502401 0.02278539 -0.047178794 -0.0060327905
-0.13514107 -0.037682906 0.103465475 0.18843077 -0.07101914 -0.075984746 -0.08371229 -0.37736464
0.03887046 0.0075753913 0.07521837 0.07507738 0.15009627 0.024934474 -0.08113208 0.10811267
0.095073245 0.10469651 0.11648375 -0.040409263 -0.053498473 -0.1125742 0.18914248 0.115399994
-0.01077815 0.039761137 -0.06591864 -0.15246917 0.16805197 -0.051554885 0.098841585 -0.0934948
-0.21257375 -0.08407889 0.06879275 0.21298794 0.04775689 0.13446394 -0.10677577 -0.044892296
0.17424282 -0.30288494 0.03196082 -0.28602302 -0.051147886 0.06226322 0.24373628 0.20182873
-0.082359254 -0.10967412 0.02111417 0.21784025 -0.119953424 -0.050909046 -0.120207824 -0.14324647
0.040695358 0.18169062 -0.07201355 0.046144795 -0.19627176 -0.13797437 0.024568984 0.16323182
-0.08199912 0.23190965 0.08689247 -0.113261014 0.04260979 -0.23884663 -0.11880694 0.11962581
-0.06457099 0.062262554 -0.2166702 -0.032766424 -0.37832457 -0.113205165 -0.10695904 -0.51200485
-0.13103792 -0.0038477953 -0.1761698 -0.04826613 -0.08750368 -0.009590224 0.09581601 0.06326199
-0.1292444 0.12202664 0.10585696 -0.02151177 -0.069299154 -0.11392308 -0.059030503 0.10968813
-0.058932357 0.012486789 -0.045562502 0.07791967 -0.0717506 -0.017779756 -0.3290443 -0.021502461
0.11459247 0.0720093 0.13598037 -0.028258184 -0.014889128 -0.1546761 0.045787163 0.044902828
0.09420316 -0.07084183 -0.17402375 -0.1714412 -0.1383127 0.107857116 -0.017471425 -0.22377816
-0.05530248 0.034750648 0.09335039 0.16731647 -0.24340722 -0.18657428 -0.015840562 -0.09744155
-0.03882875 -0.042272497 -0.077362224 -0.050487816 -0.05969119 -0.042535618 0.08855424 0.1269939
-0.0074497513 -0.14512132 -0.13657275 0.07279368 0.13747644 0.11164532 0.03755597 -0.05156946
-0.09307471 0.025176577 0.12228105 0.04368678 0.086754754 -0.11366131 -0.036444288 0.14224644
0.07005396 -0.0027254818 0.076999776 -0.082738936 -0.030761883 0.13411029 0.25785306 0.2854674
0.042345513 -0.00053406064 -0.010136776 -0.081371315 -0.025950788 -0.045598894 0.21633668 0.17662713
-0.16932532 0.049088497 -0.045374658 0.0022310014 -0.077684246 -0.10975797 0.041925773 -0.120938666
0.030663066 -0.00617116 0.16385715 0.03986496 0.1528857 0.04887537 0.034867894 0.17793576
0.031317998 0.0055606416 0.19857575 0.37572137 -0.09751411 0.10774453 -0.07786256 -0.0240593
0.13935053 0.0886383 0.0919245 -0.034747057 -0.07648806 0.10021119 0.19326988 -0.14815181
0.12680136 0.014186314 0.018132776 0.055934604 -0.059768435 -0.062271327 -0.36802128 -0.015477477
0.042821802 -0.007750164 0.012732883 -0.16367115 0.0011829536 0.045716878 0.062315535 -0.13933341
0.037791923 -0.021043824 -0.06988669 0.009466054 -0.052454863 -0.018379461 0.16723044 0.0825345
-0.1475027 0.053606782 -0.058448385 -0.05157443 -0.038303684 -0.002879794 -0.014297181 0.052882228
-0.25517204 -0.0045856247 -0.04862572 0.012404361 0.08494931 -0.121513404 0.05617119 0.038624957
00000000: f797 e73c 3a48 1abe 1eff 493e a6d0 21bd
00000010: f291 543d 1214 7b3d e6ad cb3d 1b4a 593e
00000020: 8587 14be a3de 453d e52d 023d 27eb 733e
00000030: 30a6 993d 6da8 ba3c 8d3e 41bd b7ae c5bb
00000040: 6c62 0abe 6459 1abd b5e5 d33d fff3 403e
00000050: 7c72 91bd e49d 9bbd 5971 abbd f035 c1be
00000060: a236 1f3d fd3a f83b 170c 9a3d 2bc2 993d
00000070: d6b2 193e 6243 cc3c 9328 a6bd 2d6a dd3d
00000080: c3b5 c23d 206b d63d 088f ee3d 2f84 25bd
00000090: 3721 5bbd 4d8d e6bd 91ae 413e d556 ec3d
000000a0: d696 30bc 93dc 223d 5a00 87bd e120 1cbe
000000b0: d115 2c3e 372b 53bd 756d ca3d 347a bfbd
000000c0: efac 59be 8e31 acbd 37e3 8c3d 8319 5a3e
000000d0: bb9c 433d eab0 093e 41ad dabd fce0 37bd
000000e0: b66c 323e bc13 9bbe 59e9 023d 9c71 92be
000000f0: 7280 51bd b807 7f3d 0196 793e 31ac 4e3e
00000100: f8ab a8bd d39c e0bd a0f7 ac3c 8411 5f3e
00000110: 24aa f5bd 0186 50bd 852f f6bd 34af 12be
00000120: 2db0 263d 1b0d 3a3e d77b 93bd 5302 3d3d
00000130: 77fb 48be 2749 0dbe e544 c93c 3e26 273e
00000140: 28ef a7bd b979 6d3e aef4 b13d 64f5 e7bd
00000150: 9a87 2e3d 3694 74be 0e51 f3bd 60fe f43d
00000160: cc3d 84bd 0507 7f3d cbde 5dbe 1636 06bd
00000170: c2b3 c1be 1cd8 e7bd 570d dbbd c012 03bf
00000180: ce2e 06be 4b2b 7cbb db65 34be b5b2 45bd
00000190: 2135 b3bd 5120 1dbc 2f3b c43d 818f 813d
000001a0: a558 04be 1ae9 f93d 89cb d83d 7439 b0bc
000001b0: b7ec 8dbd 8150 e9bd f8c9 71bd 2ca4 e03d
000001c0: 0e63 71bd 6495 4c3c bf9f 3abd 5994 9f3d
000001d0: fbf1 92bd daa6 91bc 7f78 a8be ee25 b0bc
000001e0: 75af ea3d 9d79 933d 703e 0b3e b57d e7bc
000001f0: 87f1 73bc 6963 1ebe 528b 3b3d 07ec 373d
00000200: 96ed c03d 8515 91bd 4833 32be 488e 2fbe
00000210: d8a1 0dbe 31e4 dc3d 3c20 8fbc 1a26 65be
00000220: da84 62bd b256 0e3d 7d2e bf3d 0255 2b3e
00000230: be3f 79be 540d 3fbe 11c4 81bc 6f8f c7bd
00000240: e50a 1fbd ed25 2dbd 1670 9ebd 50cc 4ebd
00000250: c07e 74bd d439 2ebd ed5b b53d b00a 023e
00000260: 0b1d f4bb af9a 14be bad9 0bbe da14 953d
00000270: a0c6 0c3e 4da6 e43d 4ad4 193d 803a 53bd
00000280: f49d bebd 1c3f ce3c 7d6e fa3d e9f0 323d
00000290: 7aac b13d 43c7 e8bd 9b46 15bd 0da9 113e
000002a0: 7378 8f3d ff9d 32bb 0fb2 9d3d 0873 a9bd
000002b0: 5800 fcbc 3554 093e 5105 843e c828 923e
000002c0: 7d72 2d3d 3400 0cba b814 26bc 01a6 a6bd
000002d0: bf96 d4bc e8c5 3abd 5d87 5d3e bedd 343e
000002e0: 9e63 2dbe 0511 493d c7da 39bd fe35 123b
000002f0: eb18 9fbd c9c8 e0bd 5cba 2b3d b1ae f7bd
00000300: 1c31 fb3c 7137 cabb 2bca 273e 7149 233d
00000310: 128e 1c3e 8a31 483d a3d1 0e3d cb34 363e
00000320: 4d47 003d 0b36 b63b 7157 4b3e 8d5e c03e
00000330: 7ab5 c7bd 2aa9 dc3d 6876 9fbd 0218 c5bc
00000340: e8b1 0e3e ff87 b53d ea42 bc3d ee52 0ebd
00000350: c6a5 9cbd 863b cd3d 8ae8 453e 1cb5 17be
00000360: 37d8 013e b76d 683c 308b 943c af1b 653d
00000370: bfcf 74bd 3810 7fbd 496d bcbe 3e95 7dbc
00000380: ea65 2f3d 16f5 fdbb 959d 503c 6999 27be
00000390: 560d 9b3a 9f41 3b3d 933e 7f3d 6bad 0ebe
000003a0: b4cb 1a3d 1964 acbc c120 8fbd 8217 1b3c
000003b0: e9da 56bd 8690 96bc 753e 2b3e d907 a93d
000003c0: f30a 17be c992 5b3d 9367 6fbd b63f 53bd
000003d0: 53e4 1cbd edba 3cbb b93e 6abc 099b 583d
000003e0: e9a5 82be 0243 96bb c32b 47bd a93b 4b3c
000003f0: e7f9 ad3d 05dc f8bd c313 663d 3435 1e3d

bias f4 [64]
-0.07184591 0.09713361 0.01825613 0.25370964 0.024824675 -0.0816578 0.23783962 0.0012436964
-0.07700843 0.072151646 -0.0047867587 -0.08829545 -0.020759221 -0.1430747 -0.04245281 0.044560354
-0.16301103 0.046384666 -0.048883464 0.14257815 -0.101840116 -0.024314191 -0.070457235 -0.1282662
-0.026951551 -0.10727049 0.030048333 0.17472757 -0.031363796 -0.07184427 -0.08683432 -0.14037895
0.14774138 0.06955026 -0.0047239396 0.060818624 -0.058317143 -0.060320288 0.025070006 -0.06530486
-0.072672926 -0.043400165 -0.099616125 -0.09930699 0.02540347 0.08119976 0.09725689 -0.07934092
-0.0031846808 0.098077014 0.06419166 -0.029347947 0.035127178 0.19029222 0.061404932 -0.035996396
0.14976326 0.056800805 -0.1849234 0.09923145 0.011829515 -0.14057787 -0.053563707 0.21826945
00000000: f323 93bd fced c63d e18d 953c 3be6 813e
00000010: 1e5d cb3c 343c a7bd 3b8c 733e 8703 a33a
00000020: 99b6 9dbd 3ec4 933d 3eda 9cbb 3fd4 b4bd
00000030: 3e0f aabc 2d82 12be ffe2 2dbd eb84 363d
00000040: 5dec 26be d9fd 3d3d 073a 48bd 0200 123e
00000050: 8d91 d0bd 8e2e c7bc e24b 90bd 3758 03be
00000060: 80c9 dcbc a1b0 dbbd ec27 f63c c9eb 323e
00000070: 5377 00bd 1723 93bd 31d6 b1bd 80bf 0fbe
00000080: 8449 173e 5e70 8e3d 47cb 9abb f31c 793d
00000090: f5dd 6ebd 6812 77bd 9d5f cd3c 8ebe 85bd
000000a0: 8bd5 94bd 5fc4 31bd 8a03 ccbd 7761 cbbd
000000b0: f01a d03c 0f4c a63d 9f2e c73d 7e7d a2bd
000000c0: 14b6 50bb 9adc c83d eb76 833d 1b6b f0bc
000000d0: 84e1 0f3d f7db 423e bd83 7b3d f570 13bd
000000e0: 8a5b 193e f6a7 683d 8f5c 3dbe dc39 cb3d
000000f0: 95d0 413c a5f3 0fbe 9e65 5bbd 0782 5f3e

weight f4 [64, 64, 2, 2]
0.016001899 -0.020361837 0.32510734 0.11530754 0.105290025 -0.018423455 -0.21150354 -0.04579071
0.07657517 0.011448429 -0.0050947894 0.010012492 0.00217493 -0.026158933 0.09465745 -0.07789926
-0.021469917 0.09465152 -0.05472581 -0.052957673 -0.0015157212 0.020043444 0.12074104 0.07362608
-0.075429626 -0.11526082 0.2206806 -0.2206369 -0.2000572 0.01977271 0.14144817 0.049883876
0.03195271 0.06255481 0.09848847 0.1412103 -0.13399163 0.13082772 0.2070734 0.21297908
-0.078387246 0.086789005 -0.0604131 0.3450618 -0.12782493 -0.008061284 -0.004954917 -0.004455144
-0.011119228 -0.17659879 0.15365493 -0.07404116 -0.014641224 -0.70611465 0.03437925 0.040810473
-0.08502575 0.07766016 -0.16685893 -0.017205661 0.055138476 -0.0048220665 -0.036948193 0.082098275
-0.19023088 -0.16621535 0.17154884 0.096294284 -0.049389344 0.033021737 0.056908406 -0.03138933
0.026309563 0.20841658 0.1529691 0.17295088 -0.032758772 -0.12312784 0.05940988 -0.1392013
-0.05968542 -0.31045726 0.20127992 0.11937611 0.17813614 -0.106406696 0.15195653 -0.16883655
-0.003800423 -0.07296344 -0.08604519 0.20013867 -0.117552474 -0.23250887 0.1281665 -0.107401066
0.08454536 -0.23907793 0.035037193 0.08762651 0.116419144 -0.1439036 0.10614162 0.058462173
-0.2740425 -0.050342448 -0.10716903 0.09432783 0.18844603 0.010977062 0.047042873 -0.14765826
0.1341463 0.101966225 0.16375719 0.09211865 -0.36065313 0.06368767 0.09150414 0.00782611
-0.00846411 0.09424403 -0.011154535 0.13104267 0.15047887 -0.10634872 -0.10954883 -0.22176634
-0.033679858 -0.039969813 -0.010186617 0.066205926 0.10827708 0.11906358 -0.2166535 0.24135552
-0.032391656 0.003557009 -0.24123712 -0.10931627 -0.041928682 -0.080330476 0.04317228 -0.117161825
-0.039264914 -0.3201705 0.18360011 0.09315395 0.13118167 -0.03446224 0.07713499 0.11109413
-0.0056135827 0.15700945 -0.19735937 -0.144323 -0.027778514 0.03243262 -0.052447084 -0.07393416
-0.005731748 -0.002901976 -0.10685146 0.28812328 -0.1880253 0.069387905 -0.044262916 -0.0015124889
-0.025097623 -0.063753374 -0.063717514 -0.14926514 -0.0349541 -0.18399966 -0.118348494 0.15342109
0.1280185 -0.19773205 0.17699589 -0.21397263 0.07084565 0.12101726 -0.07394962 0.013767705
0.049806602 -0.04311956 0.33419552 0.20544875 -0.0021440815 0.09434002 0.16338752 0.018987602
0.1511682 0.13647956 0.13547143 0.094090305 -0.113616854 0.19643892 -0.06330067 -0.045083173
-0.08239815 -0.16321556 0.06455957 0.058843814 -0.0030785515 -0.05234834 0.09061186 -0.08032108
0.02762022 0.050381236 -0.12303255 -0.1263968 0.05752171 -0.119726196 0.15853025 0.27100736
0.04587028 -0.1359532 0.07215879 -0.108074285 -0.011538779 0.18751827 -0.07189217 -0.010993553
0.023699192 -0.012871929 0.1751301 0.031916354 0.07034153 -0.092472054 -0.091470264 0.03593805
-0.24430959 -0.09151678 -0.014505407 0.01500445 -0.012548372 0.0657511 0.1586552 0.21095839
-0.095111035 0.111011095 0.040550135 -0.059325702 -0.5745382 0.05277929 0.20902652 0.025014503
0.11432979 -0.013618562 0.06837463 0.050476 0.16732651 -0.13511659 0.12673768 -0.07303865
00000000: 6a16 833c decd a6bc 7874 a63e 5c26 ec3d
00000010: 4ca2 d73d c9ec 96bc 6294 58be 0a8f 3bbd
00000020: 71d3 9c3d 3192 3b3c 31f2 a6bb 6f0b 243c
00000030: 4589 0e3b 424b d6bc c4db c13d a689 9fbd
00000040: aee1 afbc a8d8 c13d 2c28 60bd 25ea 58bd
00000050: 2aab c6ba 2632 a43c 1447 f73d 45c9 963d
00000060: d97a 9abd dd0d ecbd 18fa 613e a4ee 61be
00000070: cbdb 4cbe 61fa a13c cad7 103e 0953 4c3d
00000080: d8e0 023d bc1c 803d 53b4 c93d 6f99 103e
00000090: 1a35 09be b4f7 053e 0d0b 543e 3017 5a3e
000000a0: 7e89 a0bd 6fbe b13d ba73 77bd f1ab b03e
000000b0: 8ae4 02be 7a13 04bc db5c a2bb 75fc 91bb
000000c0: 6c2d 36bc 50d6 34be b857 1d3e e4a2 97bd
000000d0: bfe1 6fbc eec3 34bf 42d1 0c3d e228 273d
000000e0: fb21 aebd 4a0c 9f3d 11dd 2abe e3f2 8cbc
000000f0: e2d8 613d 6d02 9ebb fd56 17bd 2423 a83d
00000100: e2cb 42be 5b34 2abe 80aa 2f3e f035 c53d
00000110: 7b4c 4abd cd41 073d ca18 693d 1992 00bd
00000120: 2787 d73c 286b 553e efa3 1c3e 091a 313e
00000130: 102e 06bd 732a fcbd c657 733d c98a 0ebe
00000140: b378 74bd 41f4 9ebe 531c 4e3e 767b f43d
00000150: 5269 363e c1eb d9bd 7e9a 1b3e 7de3 2cbe
00000160: 8410 79bb db6d 95bd 7638 b0bd 27f1 4c3e
00000170: 5abf f0bd ce16 6ebe 143e 033e 17f5 dbbd
00000180: 1e26 ad3d d8d0 74be 2983 0f3d 8775 b33d
00000190: 296d ee3d 775b 13be c760 d93d 0876 6f3d
000001a0: 4c4f 8cbe e233 4ebd 707b dbbd f32e c13d
000001b0: fff7 403e 23d9 333c 07b0 403d ba33 17be
000001c0: a65d 093e abd3 d03d f7af 273e b4a8 bc3d
000001d0: 87a7 b8be ae6e 823d 8666 bb3d 1639 003c
000001e0: 0dad 0abc 0403 c13d 83c1 36bc 0d30 063e
000001f0: 2217 1a3e 5ccd d9bd 235b e0bd b716 63be
00000200: e4f3 09bd 63b7 23bd c5e5 26bc f996 873d
00000210: 60c0 dd3d 9bd7 f33d 6ada 5dbe e725 773e
00000220: 1dad 04bd b51c 693b dd06 77be 35e1 dfbd
00000230: 69bd 2bbd 4e84 a4bd 6bd5 303d 8af2 efbd
00000240: 3fd4 20bd 63ed a3be ab01 3c3e 80c7 be3d
00000250: 7d54 063e 4728 0dbd f3f8 9d3d 5285 e33d
00000260: 25f2 b7bb 16c7 203e 9318 4abe 69c9 13be
00000270: c48f e3bc 11d8 043d c1d2 56bd cb6a 97bd
00000280: 63d1 bbbb 142f 3ebb f0d4 dabd e584 933e
00000290: b489 40be 3f1b 8e3d 084d 35bd b53e c6ba
000002a0: 8899 cdbc 2191 82bd 547e 82bd f6d8 18be
000002b0: 082c 0fbd 686a 3cbe b260 f2bd 6b1a 1d3e
000002c0: 4817 033e 457a 4abe 693e 353e a41b 5bbe
000002d0: 8617 913d e6d7 f73d e672 97bd f191 613c
000002e0: 0202 4c3d 239e 30bd ad1b ab3e 2861 523e
000002f0: b883 0cbb 5735 c13d 0f4f 273e e38b 9b3c
00000300: d6cb 1a3e 4cc1 0b3e 06b9 0a3e 6bb2 c03d
00000310: f4af e8bd 4927 493e c8a3 81bd 22a9 38bd
00000320: 5cc0 a8bd fb21 27be cf37 843d 3606 713d
00000330: 86c1 49bb 376b 56bd b692 b93d 617f a4bd
00000340: cd43 e23c 8e5c 4e3d 7df8 fbbd 2a6e 01be
00000350: e29b 6b3d 0233 f5bd c155 223e 7ac1 8a3e
00000360: 7ae2 3b3d 5137 0bbe fdc7 933d 0d56 ddbd
00000370: 260d 3dbc ca04 403e 343c 93bd 4e1e 34bc
00000380: cf24 c23c c9e4 52bc 4e55 333e b9ba 023d
00000390: 380f 903d fd61 bdbd c354 bbbd c733 133d
000003a0: 4b2c 7abe 266d bbbd 16a8 6dbc 3ad5 753c
000003b0: b097 4dbc 83a8 863d 8276 223e 7a05 583e
000003c0: 93c9 c2bd c959 e33d e617 263d 82ff 72bd
000003d0: ef14 13bf 192f 583d 0c0b 563e 37eb cc3c
000003e0: bd25 ea3d 6420 5fbc ff07 8c3d ecbf 4e3d
000003f0: a457 2b3e 015c 0abe 86c7 013e 4a95 95bd

bias f4 [64]
-0.013011143 0.063963704 0.14663437 -0.18839173 -0.099527024 -0.028751718 0.1347555 -0.13115872
-0.13285711 0.024727773 -0.14204453 0.09917431 -0.049545597 -0.0934749 -0.20431596 0.061351195
-0.022876997 -0.07287408 -0.06321738 -0.08917437 -0.30919388 -0.23553288 -0.0022189668 -0.1361633
0.0014414906 -0.20845138 0.081665754 -0.09229133 -0.17658424 -0.13500932 -0.13421704 -0.090795346
0.19069348 -0.16385368 0.023032539 -0.16028127 -0.090341695 -0.109835155 -0.19963886 -0.17926778
-0.1705473 -0.08152039 -0.045953598 0.084790945 -0.21681064 0.035523925 -0.15852717 -0.027354896
-0.06674569 -0.16582073 0.19237226 -0.040933896 0.0216926 -0.041074295 -0.011395936 0.12516859
-0.026583511 -0.0013492162 -0.14337994 -0.10903359 -0.066468306 0.07352837 -0.13280956 -0.01656464
00000000: b02c 55bc 67ff 823d 5227 163e c3e9 40be
00000010: d3d4 cbbd b988 ebbc 59fd 093e 794e 06be
00000020: b20b 08be e691 ca3c 1f74 11be e71b cb3d
00000030: 53f0 4abd c56f bfbd 3438 51be 644b 7b3d
00000040: 8a68 bbbc 013f 95bd 1d78 81bd 0da1 b6bd
00000050: a94e 9ebe 882f 71be 166c 11bb 646e 0bbe
00000060: 66f0 bc3a 4774 55be 6040 a73d 3d03 bdbd
00000070: 80d2 34be e23f 0abe 3170 09be e9f2 b9bd
00000080: 2745 433e 42c9 27be bcae bc3c c620 24be
00000090: 1105 b9bd 41f1 e0bd 216e 4cbe f991 37be
000000a0: f4a3 2ebe 2af4 a6bd d739 3cbd e0a6 ad3d
000000b0: 9c03 5ebe 8981 113d f254 22be 6017 e0bc
000000c0: f7b1 88bd e9cc 29be 3cfd 443e 4daa 27bd
000000d0: aeb4 b13c 853d 28bd 05b6 3abc 322c 003e
000000e0: aac5 d9bc 2fd8 b0ba 31d2 12be 014d dfbd
000000f0: 8920 88bd 0b96 963d 3bff 07be 91b2 87bc

weight f4 [64, 64, 2, 2]
0.012476128 0.19258222 0.034502514 -0.11541666 0.028422473 0.076927654 0.08729345 -0.08388765
-0.18210475 -0.021806475 -0.028486526 0.30617523 0.09385121 -0.02203658 0.039203845 -0.13101442
-0.15842752 -0.03787167 -0.0036249987 0.3097858 -0.033343483 -0.037334055 -0.036697306 0.11697176
-0.02053595 -0.102115855 0.16077796 -0.03358979 0.051520046 0.013830238 0.06420014 0.05814936
-0.16938771 -0.040158384 0.009869605 0.20899495 0.076745376 0.16233122 0.030663872 -0.025045086
-0.20343086 -0.07990728 0.06477129 0.30478767 -0.055945504 -0.060528696 0.047669984 0.08959474
0.039717145 -0.038094018 -0.067026325 -0.08108728 0.016798502 -0.079137675 -0.04513241 -0.08368315
0.07685263 0.027582334 -0.1449035 -0.2998721 -0.010032522 -0.040435154 -0.057068784 -0.35142517
-0.16669479 -0.051523253 0.008165375 0.34949 0.17224106 0.12123307 -0.08673204 0.057601817
-0.10630893 -0.16546369 0.100839965 0.18768488 0.035527308 0.13417028 -0.26087627 0.054843545
-0.0631049 -0.060782325 -0.039761312 0.011867303 0.2150209 0.027185999 0.024285609 0.054105464
-0.05668673 -0.04603526 -0.0151631385 0.16613881 0.007831434 -0.09604026 -0.030077815 0.14753002
0.19132856 -0.06806196 0.13382293 -0.14248426 0.032968674 0.06631781 -0.033714153 0.07068605
0.020305831 -0.04100921 0.13367695 0.11393091 -0.17214784 -0.030095777 -0.014435216 0.30488652
-0.010552409 0.05371078 -0.0012631578 0.021879934 -0.047356185 0.075146765 -0.014343395 0.087049335
-0.16040234 -0.04691556 -0.0027996732 0.038161397 0.020756805 -0.023155818 -0.073890716 -0.0025645702
0.05535883 -0.0676187 -0.15440804 -0.10031953 0.14394407 -0.05991552 -0.13261202 0.15233858
-0.24594283 -0.025296632 -0.08719119 0.2717412 0.11847719 0.003364639 0.070545904 0.025966885
-0.12394467 -0.06792627 -0.06106431 0.0048560104 -0.2071857 -0.015839437 -0.0014569162 0.2838735
-0.19214147 -0.049908187 -0.017609406 0.36953023 -0.199376 -0.06712277 -0.010902444 0.34036797
-0.18284011 -0.08540452 -0.007112824 0.42285442 0.20888141 0.051055357 -0.039905444 -0.033613566
-0.06006912 -0.037800133 -0.0545422 0.024052031 -0.22166185 -0.017024565 -0.003278181 0.32738113
0.11817998 0.005904902 -0.018737564 0.06501939 -0.07642738 0.08158393 -0.07921483 0.010605845
0.059368752 0.10528529 -0.032312684 -0.060332015 0.019005733 -0.032805666 -0.15908347 -0.35273492
-0.1605932 -0.09043793 -0.0463011 -0.04715691 -0.01813052 -0.07844183 -0.13650034 -0.07881003
0.042321064 0.022507256 0.086202286 -0.00841116 0.059000183 -0.08317935 0.03463862 -0.18570177
0.027086142 -0.0044944095 0.017450212 0.11474475 0.023448385 0.024012493 -0.10313353 -0.061088942
-0.12723108 -0.100619346 -0.06667818 0.27001336 -0.0020182987 0.034183685 0.09976525 -0.11667855
0.118926905 0.00031484218 -0.0051194173 0.028752023 -0.041942142 0.08488116 0.0051693954 0.15027682
0.023853203 -0.17519945 -0.23667003 -0.106536396 0.059644945 0.11347972 0.0806369 0.023360858
-0.0068006655 -0.1071691 -0.022469409 -0.054622725 0.04521725 -0.0052903276 0.033208493 -0.14110129
-0.06372209 0.0036980652 -0.030058704 0.12260974 -0.06633316 0.0041741156 -0.029653069 0.14818911
00000000: ac68 4c3c 4634 453e 8252 0d3d 925f ecbd
00000010: 3fd6 e83c 3f8c 9d3d e9c6 b23d 4acd abbd
00000020: ab79 3abe 7ea3 b2bc 935c e9bc 00c3 9c3e
00000030: 1035 c03d 0f86 b4bc 3694 203d a528 06be
00000040: d33a 22be 531f 1bbd 6391 6dbb 3f9c 9e3e
00000050: 2d93 08bd 98eb 18bd ea4f 16bd e48e ef3d
00000060: 023b a8bc 1e22 d1bd faa2 243e 7395 09bd
00000070: af06 533d 3998 623c 5d7b 833d 062e 6e3d
00000080: f973 2dbe 1e7d 24bd 20b4 213c c602 563e
00000090: ae2c 9d3d 283a 263e cd32 fb3c 5a2b cdbc
000000a0: 2e50 50be 6ea6 a3bd cfa6 843d 210d 9c3e
000000b0: 1d27 65bd f0ec 77bd 9a41 433d 727d b73d
000000c0: 72ae 223d 7908 1cbd 1945 89bd 1611 a6bd
000000d0: 039d 893c ef12 a2bd c3dc 38bd 1262 abbd
000000e0: e964 9d3d 59f4 e13c 9561 14be d688 99be
000000f0: 725f 24bc 559f 25bd f5c0 69bd 00ee b3be
00000100: 0ab2 2abe 0c0a 53bd 11c8 053c 5af0 b23e
00000110: f65f 303e 0b49 f83d 91a0 b1bd e2ef 6b3d
00000120: 7fb8 d9bd 506f 29be 2f85 ce3d 7730 403e
00000130: 1585 113d ef63 093e 9391 85be a0a3 603d
00000140: 243d 81bd e3f6 78bd c2dc 22bd 146f 423c
00000150: 702e 5c3e 2cb5 de3c 9df2 c63c b19d 5d3d
00000160: 5830 68bd 788f 3cbd d06e 78bc 4b20 2a3e
00000170: 6a4f 003c c1b0 c4bd c065 f6bc 1c12 173e
00000180: a2eb 433e 1264 8bbd e108 093e 65e7 11be
00000190: 290a 073d a2d1 873d da17 0abd d9c3 903d
000001a0: 6a58 a63c 46f9 27bd 9ce2 083e 9c54 e93d
000001b0: 8647 30be 6b8b f6bc af81 6cbc 161a 9c3e
000001c0: 03e4 2cbc d6ff 5b3d 8b90 a5ba 8c3d b33c
000001d0: 8ff8 41bd 8ce6 993d 8f00 6bbc ec46 b23d
000001e0: 8340 24be 882a 40bd b97a 37bb 204f 1c3d
000001f0: 2d0a aa3c 45b1 bdbc 0454 97bd 5912 28bb
00000200: f1bf 623d ac7b 8abd 241d 1ebe 5374 cdbd
00000210: 1366 133e fa69 75bd 72cb 07be a5fe 1b3e
00000220: 70d8 7bbe e23a cfbc 4b91 b2bd aa21 8b3e
00000230: 2ba4 f23d 4681 5c3b 5f7a 903d 81b8 d43c
00000240: b4d6 fdbd ee1c 8bbd 921e 7abd 2b1f 9f3b
00000250: 7d28 54be b5c1 81bc fff5 beba de57 913e
00000260: bcc0 44be 876c 4cbd 9a41 90bc 1133 bd3e
00000270: 3929 4cbe aa77 89bd 2aa0 32bc b644 ae3e
00000280: 703a 3bbe 91e8 aebd b112 e9bb 6080 d83e
00000290: 02e5 553e 6c1f 513d e473 23bd 61ae 09bd
000002a0: 0a0b 76bd 50d4 1abd a467 5fbd c408 c53c
000002b0: 53fb 62be 1a77 8bbc c0d6 56bb 809e a73e
000002c0: 5808 f23d e87d c13b 857f 99bc e328 853d
000002d0: f585 9cbd 7a15 a73d 633b a2bd 23c4 2d3c
000002e0: a62c 733d d09f d73d 4e5a 04bd b41e 77bd
000002f0: e9b1 9b3c 3c5f 06bd c7e6 22be ac99 b4be
00000300: 8b72 24be 8537 b9bd 39a6 3dbd 9b27 41bd
00000310: 7586 94bc 1ca6 a0bd bfc6 0bbe 2767 a1bd
00000320: da58 2d3d 2361 b83c d38a b03d f6ce 09bc
00000330: 2daa 713d ef59 aabd 3ae1 0d3d 9b28 3ebe
00000340: c2e3 dd3c d745 93bb bff3 8e3c 4cff ea3d
00000350: d416 c03c d9b5 c43c ac37 d3bd 6638 7abd
00000360: dd48 02be 8411 cebd 928e 88bd 313f 8a3e
00000370: 6f45 04bb 3104 0c3d b951 cc3d 2af5 eebd
00000380: f38f f33d 6711 a539 c9c0 a7bb 5d89 eb3c
00000390: 86cb 2bbd 2cd6 ad3d 0864 a93b 2be2 193e
000003a0: cb67 c33c 7c67 33be a159 72be c12f dabd
000003b0: 424e 743d 0e68 e83d f624 a53d 455f bf3c
000003c0: 1ed8 debb 797b dbbd c411 b8bc 14bc 5fbd
000003d0: b935 393d 7c5a adbb a105 083d db7c 10be
000003e0: ba80 82bd 3d5b 723b ac3d f6bc d11a fb3d
000003f0: aed9 87bd 05c7 883b feea f2bc e3be 173e

bias f4 [64]
-0.17175287 -0.16684695 -0.07766406 -0.2370743 -0.09689588 -0.20177378 -0.18899688 0.22149745
-0.004593603 -0.24874203 -0.05585742 -0.19147272 -0.11141062 -0.19294468 -0.15467693 -0.22436322
-0.083813 -0.19637462 0.15574206 -0.0882699 -0.1820316 -0.1843163 0.015793644 0.12667954
-0.17493334 0.19456145 -0.2681769 -0.08313087 -0.16738974 -0.18179217 0.17331961 -0.16291104
-0.119331 -0.14595881 -0.079788014 -0.16482201 0.16173662 -0.06825685 -0.09017667 -0.08886025
0.004397168 -0.22441816 0.16704285 -0.08924141 -0.102262706 0.2167086 -0.20023635 -0.17839266
-0.024003446 -0.05360719 -0.10725108 -0.22909331 -0.17121418 -0.20984906 -0.010897238 0.1932715
-0.08301614 -0.10450988 -0.12444026 -0.13574287 -0.072522596 -0.18320023 -0.19113876 0.030248772
00000000: fcdf 2fbe edd9 2abe 560e 9fbd 9bc3 72be
00000010: 5971 c6bd c99d 4ebe 6688 41be 3ad0 623e
00000020: ef85 96bb 3bb6 7ebe c0ca 64bd 6d11 44be
00000030: 402b e4bd 4a93 45be a163 1ebe 79bf 65be
00000040: 26a6 abbd 6e16 49be d97a 1f3e d9c6 b4bd
00000050: 7e66 3abe 6abd 3cbe ac61 813c 48b8 013e
00000060: ba21 33be 1e3b 473e 7c4e 89be 8440 aabd
00000070: 3768 2bbe ba27 3abe b27a 313e 27d2 26be
00000080: d063 f4bd 3a76 15be e667 a3bd 1ac7 28be
00000090: 499e 253e 3fca 8bbd 8cae b8bd 5dfc b5bd
000000a0: 1e16 903b e0cd 65be 480d 2b3e 33c4 b6bd
000000b0: 1c6f d1bd dce8 5d3e c20a 4dbe 91ac 36be
000000c0: e0a2 c4bc 3693 5bbd 74a6 dbbd 7097 6abe
000000d0: c552 2fbe ace2 56be 548a 32bc f7e8 453e
000000e0: 5e04 aabd 4709 d6bd 89da febd 2e00 0bbe
000000f0: ba86 94bd d798 3bbe e1b9 43be 46cc f73c

beta f4 [64]
0.89077985 1.0246538 0.85728663 0.8852555 0.9306738 0.9431918 1.0565208 0.9937809
1.0054833 0.9185756 0.8535563 0.85580313 1.024753 1.0224622 0.9067633 0.96398073
0.8686767 1.042833 0.883862 1.0266696 1.0212392 1.0304066 0.99067605 0.8361456
0.9525868 1.0717902 1.0120599 1.0121813 0.8938009 0.9685764 1.0017377 1.0268428
0.9739051 0.9316101 0.9715541 0.97710294 0.85820705 1.0091431 1.0561235 0.8810892
0.8767448 1.0128577 1.0130379 1.1407771 0.9960014 0.9513589 0.892548 1.0649583
1.0514282 0.95378244 0.9077829 0.9282793 0.9997723 1.0139381 0.99365544 0.9450359
0.93557346 0.8423194 1.0220312 0.9472871 1.0524927 0.8085663 0.8206269 0.901013
00000000: 260a 643f db27 833f 2377 5b3f 1ba0 623f
00000010: a340 6e3f 0575 713f 133c 873f 6d68 7e3f
00000020: adb3 803f c527 6b3f aa82 5a3f ea15 5b3f
00000030: 1b2b 833f 0be0 823f a421 683f 71c7 763f
00000040: 9961 5e3f 8d7b 853f c844 623f e969 833f
00000050: f7b7 823f 5de4 833f f29c 7d3f a30d 563f
00000060: bbdc 733f 6c30 893f 2e8b 813f 288f 813f
00000070: 23d0 643f 9ff4 773f f138 803f 966f 833f
00000080: d851 793f 007e 6e3f c5b7 783f 6b23 7a3f
00000090: 75b3 5b3f 9a2b 813f 0e2f 873f 108f 613f
000000a0: 5972 603f 52a5 813f 3aab 813f fc04 923f
000000b0: f3f9 7e3f 428c 733f 077e 643f 8e50 883f
000000c0: 3395 863f 162b 743f 7664 683f b6a3 6d3f
000000d0: 14f1 7f3f b9c8 813f 3460 7e3f dfed 713f
000000e0: be81 6f3f 3fa2 573f ebd1 823f 6881 723f
000000f0: 15b8 863f 33fe 4e3f 9b14 523f caa8 663f

gamma f4 [64, 64]
0.12740809 -0.024689378 0.1339952 -0.020776303 -0.02017981 0.00017308832 2.7436226e-05 0.00030341867
-0.01578279 -0.0024107068 -0.018488847 4.4411972e-06 -0.010662564 -0.025853148 -0.015406775 0.00046908983
-0.0009984735 0.00023498811 -0.02959652 -0.007512906 -0.02041256 -0.021599362 -0.003794546 -0.016215002
-0.020991012 -0.016749922 4.1098783e-06 -0.0057590143 -0.001649507 -0.029382711 -0.022645656 -0.0017323721
-0.01824148 -0.0097810775 9.401804e-05 3.511874e-06 -0.0161446 -0.021310598 -0.009965115 4.607337e-06
-0.019001706 -0.011307097 -0.030435506 -0.0037320827 -0.00022459742 -0.0076304763 -0.024711294 -0.0027274413
-0.009894401 -0.0056240065 -0.008361518 -0.022390125 -0.0030650531 -0.0017821522 0.15457766 -0.00041297736
0.0001816146 -0.033474937 -0.0006611849 -0.021877114 -0.011286569 -0.0018222531 -0.008905327 0.000120846365
-0.022885945 0.104970075 -0.022807358 0.036671743 -0.005568133 -0.010791453 -0.030278226 -0.022479743
-0.0035367012 -0.0015174581 -0.011601587 -0.011937876 -0.013253685 -0.014535251 -0.015169305 -0.018547058
-0.0012438371 -0.007377936 0.022238035 -0.004875366 3.7372515e-06 -0.016603772 -0.013851534 -0.010051786
0.00013950831 -0.003880609 -0.008943586 -0.0036381704 0.06147505 -0.005023047 -0.022915464 -0.011114221
-0.0007464978 8.202581e-05 -0.0026137826 -0.009383058 -0.014321461 3.3517972e-05 -0.0057257037 -0.015498713
-0.014102251 -0.016557926 -0.023923924 -0.013268347 -0.0005135604 -0.0012458628 -0.011230568 -0.02680674
-0.0001175409 0.27750453 -0.0013970807 -2.3547726e-05 -0.017170094 -0.013840323 -0.0053124456 -0.015185809
-0.017979212 -0.0087799765 -0.012078459 -0.006357343 -0.014834744 -0.020434096 -0.017046047 0.13227834
-0.021605574 -0.0055941558 0.16135041 -0.024973124 1.578978e-05 -0.0047324924 -0.010647867 -0.01644446
-0.015349901 -0.013153461 -0.014642985 -0.024867527 8.777267e-05 -0.007976507 -0.010174506 -0.017959937
0.0023790342 -0.0023636217 -0.007047037 -0.0021692342 3.9677716e-06 0.0001466185 0.00020954812 0.00013507552
-0.0026375244 -0.010200252 3.784314e-06 -0.0005309126 -0.018575625 0.00016844728 0.00012382476 -0.026153376
-0.00050602946 -0.020381127 -0.035646703 -0.012701859 -0.00084366574 -0.012749451 0.00010839066 -0.0004109319
-0.012096796 -0.0028722484 -0.017245635 -0.039144937 -0.003059599 -0.0073377965 0.116136104 -0.017896622
-0.007823457 -0.025855716 0.0689003 -0.008239715 -0.018810397 -0.029885082 -0.0051958375 -0.022714924
-0.010533166 -0.008065673 0.10976298 -0.0033131524 -0.026473133 -0.0056944103 -0.009133339 -0.015797652
-0.014131997 -0.00094122667 -0.032149974 0.011904459 -0.0052336683 0.04833312 -0.012978124 -0.001915648
-0.0073784245 -0.0005511288 -9.37553e-05 0.05397393 -0.012379963 -0.0035612884 -0.009126088 -0.02089935
-0.032551583 -0.009608226 0.059317842 -1.9114514e-05 -0.025502203 0.00032939477 -0.0148017695 -0.021358415
-0.012646504 0.033927064 -0.015663868 -0.0013800764 -0.014230483 -0.009962081 -0.01095549 -0.0075924057
-0.001928469 3.2836276e-06 -0.009057464 -0.0067675584 -0.033601817 0.095346875 2.3934734e-05 -0.030019552
-0.01814391 0.00031456098 -0.004292636 -0.022330523 -0.0060827346 -0.0077235824 -0.001853188 -0.002302968
4.2334827e-06 0.016939618 7.347135e-05 -0.022602044 -0.026081705 0.061722588 -0.012185104 -0.016684843
-0.0005463196 -0.013701341 -0.018138928 -0.026162544 -0.0022899972 -0.0144294575 -0.025870493 -0.0108715
00000000: 4477 023e 6141 cabc 0a36 093e 1133 aabc
00000010: 2150 a5bc 0b7f 3539 d926 e637 2a14 9f39
00000020: e94a 81bc f3fc 1dbb ec75 97bc 9805 9536
00000030: 09b2 2ebc fbc9 d3bc b36c 7cbc 2cf0 f539
00000040: 36df 82ba 2467 7639 6774 f2bc d32e f6bb
00000050: 3e38 a7bc 25f1 b0bc ebad 78bb 53d5 84bc
00000060: 58f5 abbc 2237 89bc 96e7 8936 1db6 bcbb
00000070: 4534 d8ba 03b4 f0bc 6283 b9bc c310 e3ba
00000080: 286f 95bc d040 20bc 8d2b c538 89ad 6b36
00000090: ae41 84bc 9093 aebc b944 23bc b998 9a36
000000a0: 77a9 9bbc 6741 39bc e253 f9bc f595 74bb
000000b0: e981 6bb9 1309 fabb 576f cabc dfbe 32bb
000000c0: 201c 22bc 9649 b8bb c0fe 08bc 7f6b b7bc
000000d0: 0fdf 48bb 1b97 e9ba 9b49 1e3e e284 d8b9
000000e0: cc6f 3e39 041d 09bd 5e53 2dba a237 b3bc
000000f0: 4deb 38bc abd8 eeba a6e7 11bc e66e fd38
00000100: 4e7b bbbc 8dfa d63d 7fd6 babc 1c35 163d
00000110: e374 b6bb a2ce 30bc 0b0a f8bc 7027 b8bc
00000120: 00c8 67bb 72e5 c6ba 9514 3ebc 1597 43bc
00000130: fc25 59bc 4325 6ebc ad88 78bc 00f0 97bc
00000140: 3f08 a3ba 9dc2 f1bb 8a2c b63c 89c1 9fbb
00000150: 7ecd 7a36 a204 88bc 8bf1 62bc 3fb0 24bc
00000160: fa48 1239 d151 7ebb 1e88 12bc 5f6e 6ebb
00000170: 43cd 7b3d 5f98 a4bb 36b9 bbbc 6c18 36bc
00000180: 9fb0 43ba 4505 ac38 ff4b 2bbb 66bb 19bc
00000190: 90a4 6abc a695 0c38 af9e bbbb 50ee 7dbc
000001a0: 210d 67bc 7da4 87bc 1bfc c3bc 7b63 59bc
000001b0: 74a0 06ba 384c a3ba 6b00 38bc cf99 dbbc
000001c0: 4a80 f6b8 1315 8e3e 401e b7ba 5b88 c5b7
000001d0: 4ca8 8cbc 86c2 62bc 0614 aebb e6cd 78bc
000001e0: 2449 93bc e4d9 0fbc bbe4 45bc 4251 d0bb
000001f0: 6d0d 73bc 6865 a7bc 27a4 8bbc f973 073e
00000200: 2cfe b0bc 2e4f b7bb 0b39 253e 7094 ccbc
00000210: 4b74 8437 0613 9bbb 6474 2ebc 88b6 86bc
00000220: 277e 7bbc 9d81 57bc 21e9 6fbc fcb6 cbbc
00000230: 9812 b838 e5af 02bc f9b2 26bc b820 93bc
00000240: 92e9 1b3b fee6 1abb d5ea e6bb b629 0ebb
00000250: e622 8536 9bbd 1939 25ba 5b39 0fa3 0d39
00000260: 51da 2cbb f51e 27bc 05f6 7d36 f12c 0bba
00000270: e92b 98bc 39a1 3039 f5d6 0139 9b3f d6bc
00000280: 10a7 04ba 52f6 a6bc 4702 12bd 751b 50bc
00000290: 7329 5dba 13e3 50bc cb4f e338 5972 d7b9
000002a0: a431 46bc 553c 3cbb b846 8dbc 7156 20bd
000002b0: 8e83 48bb e671 f0bb c4d8 ed3d f09b 92bc
000002c0: f52d 00bc 5ecf d3bc 9a1b 8d3d dfff 06bc
000002d0: 4318 9abc 8fd1 f4bc d841 aabb a614 babc
000002e0: 4d93 2cbc e225 04bc 6acb e03d 7921 59bb
000002f0: 2fde d8bc 2d98 babb 00a4 15bc 146a 81bc
00000300: e489 67bc a7bc 76ba b1af 03bd ec0a 433c
00000310: 317f abbb f3f8 453d 33a2 54bc 7b16 fbba
00000320: b6c6 f1bb a179 10ba 7e9e c4b8 c513 5d3d
00000330: 54d5 4abc 8164 69bb 9685 15bc 1d35 abbc
00000340: cf54 05bd d26b 1dbc 44f7 723d 1b58 a0b7
00000350: ffe9 d0bc 9eb2 ac39 1f83 72bc d8f7 aebc
00000360: 4833 4fbc 1bf7 0a3d 8351 80bc aee3 b4ba
00000370: f926 69bc ff37 23bc a87e 33bc b7c9 f8bb
00000380: afc4 fcba 4b5c 5c36 c265 14bc 65c2 ddbb
00000390: 0fa2 09bd 3945 c33d 73c7 c837 90eb f5bc
000003a0: 8aa2 94bc a9eb a439 3ea9 8cbb 80ee b6bc
000003b0: ad51 c7bb 1b16 fdbb ace6 f2ba 64ed 16bb
000003c0: 570d 8e36 f4c4 8a3c a114 9a38 ec27 b9bc
000003d0: 4da9 d5bc d3d0 7c3d 08a4 47bc a7ae 88bc
000003e0: e336 0fba 977b 60bc 1798 94bc d552 d6bc
000003f0: c713 16bb 8869 6cbc 5bee d3bc 601e 32bc

beta f4 [64]
1.2183741 1.1595513 1.0250251 1.1470028 1.0985227 1.2592344 1.1409236 1.0310901
1.0604166 1.0906827 1.1146798 1.1498063 1.0193495 1.0158672 1.1596006 0.9968738
0.8636522 0.9782937 1.0357014 1.1056074 1.227579 1.034103 1.1951979 0.9787624
1.1777158 1.2406784 0.9270816 1.1433643 1.1137652 0.98897016 1.1900866 1.1783161
1.028128 0.98500615 1.0637902 1.1843288 1.0546277 1.0498518 0.9875038 1.0329384
1.16369 1.0873307 1.2459693 0.97231877 0.9852785 1.0613555 1.1374991 0.9732578
1.0625236 1.053411 1.2012899 1.1106111 0.9410075 0.97414213 1.1392705 0.9568222
1.0462555 1.1153643 1.2361784 1.0996909 1.1145027 1.0440568 1.138985 1.1050311
00000000: aff3 9b3f 2d6c 943f 0634 833f fdd0 923f
00000010: 649c 8c3f 982e a13f c909 923f c3fa 833f
00000020: bbbb 873f 7e9b 8b3f d4ad 8e3f da2c 933f
00000030: 0b7a 823f f007 823f cb6d 943f 1f33 7f3f
00000040: 5018 5d3f 7571 7a3f dd91 843f 8b84 8d3f
00000050: 4f21 9d3f 7d5d 843f 3ffc 983f 2c90 7a3f
00000060: 64bf 963f 8dce 9e3f 3855 6d3f c359 923f
00000070: dc8f 8e3f 262d 7d3f c254 983f 10d3 963f
00000080: b399 833f 5d29 7c3f 472a 883f 1698 973f
00000090: 0afe 863f 8b61 863f 0dcd 7c3f 5337 843f
000000a0: cbf3 943f a72d 8b3f ec7b 9f3f e2e9 783f
000000b0: 363b 7c3f 7fda 873f 9299 913f 6c27 793f
000000c0: c600 883f 2cd6 863f dec3 993f 8128 8e3f
000000d0: dee5 703f 6161 793f 9ed3 913f 4df2 743f
000000e0: b3eb 853f 42c4 8e3f 183b 9e3f acc2 8c3f
000000f0: 06a8 8e3f a7a3 853f 43ca 913f a971 8d3f

gamma f4 [64, 64]
0.13488005 -0.020147761 0.009007392 0.05488624 -0.0025405313 -0.023600835 0.091979325 -0.0013921304
-0.023183366 -0.0046328404 -0.016960382 -0.011963453 -0.021387167 -0.003344329 -8.499589e-05 -0.004210187
-0.011937273 0.21488799 -0.0023954273 -8.654452e-05 -0.025149874 0.29553115 -0.0031662597 -0.03425572
-0.0075504086 -0.019303873 -0.011060284 -0.00028833316 -0.021302091 -0.010142839 -0.025580423 0.00020257515
-0.016601684 3.7727195e-06 -0.022997692 -0.0129661085 3.833867e-06 -0.01499043 -0.017009513 0.116644695
0.00027526738 -0.027148718 -0.0025948705 -0.00086123974 -0.00011648755 -0.020389872 -0.008024802 -0.006023461
0.18746601 -0.01291302 -0.0023029025 -0.026032483 -0.026346697 -0.0008382298 0.0039742347 -0.00063495216
-0.008154663 -0.013906237 -0.005887076 -0.0012881741 -0.0033744595 -0.013371615 -0.013623031 -0.025247078
-0.024515819 0.1006077 -0.009694971 -0.010772052 -0.01046626 -0.013087165 -0.0051436904 -0.017339803
-0.022861294 0.00016637995 -0.00441415 -0.013074037 -0.023660274 -0.020504387 -0.0020912783 -0.009609794
0.073478855 -0.006230969 0.11985193 -0.0065588653 -0.029144548 -0.00079685345 -0.0189494 -0.008890574
-0.009868249 0.4172891 0.21447398 -0.016130393 0.059164863 0.00013497315 -0.009802411 -0.002297396
-0.007233696 0.30940568 0.2031117 0.2261708 -0.00060053146 -0.015630918 -0.0072797164 -0.0060840067
-0.023431782 -0.0005704683 -0.008867772 -0.014435806 -0.029662253 0.00036870205 -0.0013926413 -0.00073715154
4.0122145e-06 -0.00035564494 0.117043465 -0.01388242 -0.0008148983 -0.016469121 -0.024575926 -0.0006084729
-0.0018485185 0.00019169012 -0.021250498 0.11229101 0.10171438 0.05264862 -0.0029094531 -0.021385754
-0.0102344155 -0.0045549525 0.16050942 -0.005122673 -0.0116683915 0.14550865 -5.5907978e-05 -0.005177191
0.07490744 0.13411964 3.8072492e-06 -0.014007877 -0.0069571766 -0.009297015 -0.0025000884 -0.025767881
-0.010163855 0.113685444 -0.010897448 -0.0040690615 3.9358397e-06 -0.0011138062 -0.003322454 -0.03282801
-0.00196659 -0.0069867554 -0.016131636 -0.0008202749 -0.012499109 -0.015300889 -0.0090507325 -0.028292766
-0.005401197 -0.010606373 -0.0068628117 -0.00751432 -1.1782799e-05 -0.02097955 -0.0006586631 -0.01828723
-0.0028548017 -0.0013142375 -0.013283289 -0.01578712 -0.010276164 3.8094126e-06 -0.007868654 -0.019233374
-0.035475217 -0.001791023 -0.000483769 2.0009345e-05 -0.008050367 -3.0471083e-05 -0.0124106705 -0.001569585
0.11037777 0.05766879 0.053904835 -0.000974632 -0.019308746 -0.000588125 0.00011274046 -0.011228236
-0.020264192 -0.0033370017 -0.00041537927 0.17362717 -0.015184643 -0.0060588573 -0.012168814 -0.005188337
-0.0041754707 0.107843556 -0.008550971 -0.0005674237 -0.00065632514 0.13918735 -0.016088208 0.37979236
-0.016273804 -0.009447064 -0.018785112 -0.019107692 -0.005292275 0.00017278721 -0.0050551333 1.0079378e-06
-0.01380219 -0.027153546 0.23955074 -0.0116473595 0.21277872 -0.013897405 -0.00031782742 -0.013045324
0.0003012995 -0.018389216 -0.011936776 0.17103124 -0.00019474595 0.060882382 -0.0001365111 0.34263238
-0.007859607 -0.0014390396 -0.010967322 -0.0006620075 0.011693208 0.017457932 -0.00027209969 -0.0009446574
-0.004287418 -0.0063764276 -0.0060476856 0.060801756 -0.0023631924 0.19830352 -0.0054401015 -0.006073378
-0.03307813 -0.0100962 -0.005264457 -0.00016672676 3.782543e-06 -0.019142542 0.19930659 -0.019522283
00000000: ff1d 0a3e eb0c a5bc be93 133c 65d0 603d
00000010: 0b7f 26bb 8a56 c1bc a85f bc3d 2578 b6ba
00000020: 0beb bdbc 15cf 97bb 80f0 8abc 5c02 44bc
00000030: 2434 afbc 882c 5bbb d23f b2b8 9cf5 89bb
00000040: 8d94 43bc 990b 5c3e 9afc 1cbb 3c7f b5b8
00000050: 1c07 cebc dc4f 973e 0681 4fbb ba4f 0cbd
00000060: 6b69 f7bb 2823 9ebc 3236 35bc 6c2b 97b9
00000070: b981 aebc 262e 26bc 098e d1bc 5a6a 5439
00000080: 4100 88bc d42e 7d36 a865 bcbc cd6f 54bc
00000090: aba4 8036 6c9a 75bc 8957 8bbc 6ae3 ee3d
000000a0: c351 9039 fd66 debc b40e 2abb d2c4 61ba
000000b0: c74a f4b8 a908 a7bc 767a 03bc 7460 c5bb
000000c0: 17f7 3f3e 2291 53bc 4bec 16bb 1342 d5bc
000000d0: 07d5 d7bc a6bc 5bba 4c3a 823b eb72 26ba
000000e0: 239b 05bc fcd6 63bc 5fe8 c0bb f3d7 a8ba
000000f0: 0926 5dbb 9e14 5bbc 2233 5fbc f6d2 cebc
00000100: 66d5 c8bc 690b ce3d a8d7 1ebc 437d 30bc
00000110: ad7a 2bbc 8c6b 56bc 678c a8bb 340c 8ebc
00000120: 9c47 bbbc 4776 2e39 93a4 90bb 7c34 56bc
00000130: 31d3 c1bc d1f8 a7bc d40d 09bb 6672 1dbc
00000140: 157c 963d 282d ccbb ee74 f53d c0eb d6bb
00000150: 8cc0 eebc eee3 50ba c63b 9bbc c5a9 11bc
00000160: 70ae 21bc eba6 d53e 119f 5b3e e323 84bc
00000170: db56 723d 9487 0d39 4b9a 20bc e98f 16bb
00000180: a408 edbb 6c6a 9e3e 83fc 4f3e 5199 673e
00000190: fc6c 1dba 690c 80bc b08a eebb 595c c7bb
000001a0: 02f4 bfbc 7b8b 15ba 224a 11bc 2984 6cbc
000001b0: 41fe f2bc 5a4e c139 4a89 b6ba 673d 41ba
000001c0: a9a0 8636 db75 bab9 7cb4 ef3d 1773 63bc
000001d0: e69e 55ba 40ea 86bc 7453 c9bc ed81 1fba
000001e0: fd49 f2ba 6d00 4939 8615 aebc d4f8 e53d
000001f0: a14f d03d 14a6 573d 86ac 3ebb 2d31 afbc
00000200: 40ae 27bc b641 95bb 955c 243e 19dc a7bb
00000210: c82c 3fbc 3800 153e bc7e 6ab8 6da5 a9bb
00000220: 1269 993d a956 093e 0b80 7f36 4b81 65bc
00000230: 07f9 e3bb 8252 18bc 86d8 23bb 2a17 d3bc
00000240: 4c86 26bc ead3 e83d 368b 32bc c355 85bb
00000250: 9b10 8436 22fd 91ba 87bd 59bb aa76 06bd
00000260: e8e1 00bb 27f1 e4bb 7e26 84bc b707 57ba
00000270: 10c9 4cbc 94b0 7abc 8649 14bc 3bc6 e7bc
00000280: 86fc b0bb 5ac6 2dbc 70e1 e0bb af3a f6bb
00000290: bdae 45b7 4edd abbc 22aa 2cba 1acf 95bc
000002a0: a017 3bbb 7e42 acba 27a2 59bc fe53 81bc
000002b0: 5b5d 28bc 36a5 7f36 87eb 00bc 4f8f 9dbc
000002c0: 764e 11bd c2c0 eaba 60a2 fdb9 bed9 a737
000002d0: b0e5 03bc 279c ffb7 2056 4bbc 88ba cdba
000002e0: be0d e23d 1c36 6c3d 51cb 5c3d 727e 7fba
000002f0: 602d 9ebc 672c 1aba 136f ec38 a3f6 37bc
00000300: 1701 a6bc 99b1 5abb 43c7 d9b9 52cb 313e
00000310: 02c9 78bc 6189 c6bb b55f 47bc ed02 aabb
00000320: 63d2 88bb 15dd dc3d 5f19 0cbc 29bf 14ba
00000330: 3c0d 2cba 2187 0e3e 6bcb 83bc 2574 c23e
00000340: a450 85bc dcc7 1abc 3ce3 99bc bc87 9cbc
00000350: d26a adbb 372e 3539 88a5 a5bb 7b48 8735
00000360: 9522 62bc 1d71 debc ca4c 753e 91d4 3ebc
00000370: aae2 593e f1b1 63bc 13a2 a6b9 0ebc 55bc
00000380: bcf7 9d39 fba4 96bc 7892 43bc d022 2f3e
00000390: b834 4cb9 ce5f 793d 6b24 0fb9 836d af3e
000003a0: 95c5 00bc 289e bcba 48b0 33bc 928a 2dba
000003b0: de94 3f3c f003 8f3c 9aa8 8eb9 e3a2 77ba
000003c0: 787d 8cbb 5af1 d0bb aa2b c6bb 430b 793d
000003d0: cadf 1abb 1410 4b3e e142 b2bb 3003 c7bb
000003e0: ef7c 07bd 886a 25bc 7781 acbb 60d3 2eb9
000003f0: 98d7 7d36 d2d0 9cbc 0717 4c3e 32ed 9fbc
