models/decNet2_10_8.pkl (torch_old, 348261 bytes, 17 tensors)

weight f4 [64, 1, 1, 1]
000000 7e 65 81 3e 37 2d aa 3e 50 db ac 3e f2 da 93 bd
       0.25272745 0.3323762 0.33761072 -0.07219495
000010 aa 8f db 3e 59 49 3f 3f fd ec 1b bf be 04 c4 bd
       0.42883044 0.74721295 -0.6090849 -0.09571217
000020 ae 33 a8 3e d9 b3 c9 bf d6 fb 10 3e 48 c6 35 bf
       0.32851928 -1.575801 0.14158568 -0.7100568
000030 28 96 80 bf fb 9f b1 be 5c 60 86 be 6c 96 0a bf
       -1.0045824 -0.34692368 -0.2624539 -0.54135776
000040 53 53 d5 be 4b 2c f6 3e 7e ea 2d 3f da 51 d5 3e
       -0.41665134 0.48080668 0.6793593 0.4166401
000050 52 3d d0 be 7e b9 44 3f e8 04 89 3e 3d 0e d0 be
       -0.40671784 0.7684554 0.26761556 -0.40635863
000060 47 ea 63 3f 8d b4 45 bf 51 73 fb 3e ef 72 61 3f
       0.89029354 -0.77228624 0.49111417 0.88066
000070 c1 b2 60 3f 60 aa 7d be 31 8b c0 be 52 ec c7 bf
       0.87772757 -0.24772024 -0.37606195 -1.5618994
000080 4f 24 49 bf c4 dd ec be 0d 3b 84 be 1b 0e a3 bf
       -0.7857103 -0.46262944 -0.25826302 -1.273868
000090 83 eb ab bf d6 62 b5 be 9c d1 12 bf a9 99 03 3f
       -1.3431247 -0.35426968 -0.5735109 0.5140634
0000a0 40 46 58 3d 98 fa 6a 3e ae 04 3c 3f 7a 1e 22 bf
       0.05280137 0.22947156 0.7344464 -0.63327754
0000b0 5f 89 aa be f3 f3 24 be 8d 83 5f bf c0 71 49 3e
       -0.3330793 -0.16108684 -0.87310106 0.19672298
0000c0 62 b8 5b bf 33 f2 45 3f d3 ab 12 bf ee 0d 29 be
       -0.8582822 0.7732269 -0.5729343 -0.1650922
0000d0 d3 a1 05 bf 91 ef 52 be ff d7 b0 bf 05 95 1a bf
       -0.5220005 -0.205992 -1.3815917 -0.60383636
0000e0 f6 23 47 3e d9 1a bd be 35 b7 79 3e 83 65 2a 3e
       0.19447312 -0.36934546 0.24386294 0.16640286
0000f0 18 aa 25 be 0a 4c 0e 3e 5e 93 3a 3e 66 70 77 bf
       -0.16178167 0.13896194 0.18220279 -0.9665588

weight f4 [64, 64, 2, 2]
000000 13 74 f4 bd 68 15 05 be ab ff ac bd 24 1f a0 3c
       -0.11936202 -0.12996447 -0.08447202 0.019546099
000010 48 4b de bc 65 26 a7 bd 33 77 e6 bd ff 85 5c bc
       -0.027135506 -0.0816162 -0.11253204 -0.0134596815
000020 23 4c 08 bb f8 2c 96 bd c1 02 15 bd c1 17 3a 3d
       -0.0020797334 -0.07332796 -0.03637958 0.04543281
000030 ac 33 81 bd 68 31 50 bd e5 69 9d 3c 27 b6 4c bd
       -0.06308684 -0.050828367 0.019215534 -0.0499784
000040 48 3c 31 bc 4b b8 46 3c 4f c4 c2 39 4f cb 6a bd
       -0.010817595 0.0121289 0.00037148825 -0.057322796
000050 9b ac 40 bd 31 ae fa 3b b9 15 5c bd ee 27 3b 3d
       -0.04703961 0.0076501598 -0.053731654 0.045692377
000060 e5 56 96 bd 7b da df 3c aa e9 05 bd 6f 0e 84 bd
       -0.073407926 0.02732586 -0.032693543 -0.064480655
000070 93 64 9a 3b d7 79 4e bd 93 cc 89 bd 79 6d 07 3d
       0.0047116964 -0.050409164 -0.067284726 0.033063386
000080 f6 38 91 3d 36 55 72 3d 69 a7 c9 bb 22 c8 1c be
       0.070909426 0.059163295 -0.00615399 -0.1531072
000090 e9 4d c6 bd d2 dc cf bd 60 37 66 bd da e6 83 bd
       -0.09682829 -0.1014954 -0.056205153 -0.06440516
0000a0 aa 13 8d 3d 73 fd a1 3b 18 78 70 bd e3 ab 4b bd
       0.06888516 0.0049435436 -0.05870828 -0.04972447
0000b0 b0 57 42 bd 9a 56 1b bd d1 d6 51 3c f6 be fa 3c
       -0.047446907 -0.037924387 0.012807564 0.030608635
0000c0 77 e6 01 bc 9f 97 84 bd 92 0d 10 bd df 83 70 3b
       -0.007928482 -0.06474232 -0.03516919 0.0036699695
0000d0 08 34 f1 3b de 3e 34 3c a9 9f 23 bd 87 cb 42 bd
       0.007360939 0.011001317 -0.039947186 -0.04755738
0000e0 8a 93 d0 bd e7 a8 ee bc d7 34 81 bb 65 3b d6 3d
       -0.10184391 -0.029133273 -0.0039430666 0.10460547
0000f0 55 1e c8 3c 6a a7 6f 3d 23 8b 8b bd f9 fa 7b 3c
       0.024428526 0.058509268 -0.068136476 0.015379661
000100 dc 11 b5 3c 84 7f 7f bd 72 dd da 3b a1 2c 68 bd
       0.022103243 -0.062377468 0.0066792304 -0.056683186
000110 76 3a 34 bd 13 0a 07 bd 42 ed 1b bd 7c 3f a5 bd
       -0.044001065 -0.032968592 -0.038068064 -0.08068749
000120 ab bf 28 3c 52 cf 21 be 17 f9 c0 bc 1f a5 55 bd
       0.010299603 -0.15801743 -0.023556275 -0.052159425
000130 86 7d 83 3a 47 95 97 3d 03 e2 12 3d c1 5a 69 bd
       0.0010031916 0.07401519 0.035860073 -0.056971315
000140 48 af 94 bd fe 9c f2 bc 75 a3 da bd 81 5b 78 3c
       -0.07259995 -0.029615875 -0.10675708 0.015158535
000150 d6 cf 08 be fc f0 f0 bd 25 c5 90 3b dc 5e 99 3d
       -0.13360533 -0.11764714 0.0044180327 0.07488796
000160 08 d1 b6 bd 97 c1 1a bc 1a 35 58 be bc ea 68 3d
       -0.08926588 -0.0094455695 -0.21114007 0.056864485
000170 40 dc d1 bd cf 58 a2 3b 75 9f c5 bc d3 fd b1 bd
       -0.102470875 0.0049544345 -0.024123887 -0.08690991
000180 69 17 51 bc d9 d3 12 bd db be ae bd 5f a4 46 bd
       -0.012761929 -0.035846565 -0.085324965 -0.0484966
000190 07 cc 14 bd 48 ef ac bd 00 a4 53 bd f2 61 8d 3d
       -0.03632739 -0.08444077 -0.051670074 0.06903447
0001a0 a9 72 d9 3c 45 13 ef bd 12 d3 c9 3d c0 e1 34 3c
       0.026543932 -0.11673597 0.098547116 0.011040151
0001b0 54 9c a6 bd 5e bd 8e 3d d3 1a 93 3c 0b 6b 10 bd
       -0.08135286 0.06969713 0.017957127 -0.035258334
0001c0 10 14 b7 3a 74 36 5e 3d 96 ee 0d 3b fa 79 ac bd
       0.0013967771 0.05425115 0.00216571 -0.08421703
0001d0 cc 97 85 bc 00 72 ad bc 3c 64 ce bc ce 11 18 be
       -0.016307734 -0.021172523 -0.02519428 -0.14850542
0001e0 c1 bf 04 3c 17 c4 26 bb 11 1a 82 3c 60 c7 68 3c
       0.008102358 -0.0025446468 0.01588157 0.014207691
0001f0 8b ef 2d 3b 40 80 87 bc 73 95 1e ba b4 fc 3e 39
       0.0026540484 -0.016540647 -0.00060494913 0.00018213951
000200 01 b9 f2 3c 19 7c 10 bd 93 b8 9a bd 3d 87 72 bd
       0.029629232 -0.0352746 -0.07554736 -0.059211005
000210 ec c6 55 3d 83 84 d0 bd ec 35 14 bd cf d7 14 bd
       0.05219166 -0.101815246 -0.036184236 -0.036338624
000220 fa 3d 1f 3d 44 4d 90 bc 33 b2 43 bd 59 ac 04 be
       0.038877465 -0.017614968 -0.047777366 -0.1295637
000230 34 f6 25 bd af 9b 9c bd 7a b5 9c 3c 89 1d 5c 3d
       -0.040518 -0.07646882 0.019129504 0.053739104
000240 46 25 09 be 0f 53 33 be 0e 5d b1 bc 8a 11 43 3d
       -0.13393125 -0.17512153 -0.021650817 0.04762415
000250 26 5a c9 3c 57 48 49 3d f0 14 14 bc f2 0c 5d bd
       0.024579119 0.049141254 -0.009038195 -0.053967424
000260 e8 e2 01 be 47 16 78 3d ef 2c cb bd 2c 04 1b ba
       -0.12684214 0.06056812 -0.0992068 -0.00059134024
000270 d1 73 80 3d ca 0f e2 3b fe 0c 4b 3d d5 ba 9b bd
       0.0627209 0.006898855 0.049572937 -0.07603995
000280 bb 28 c3 bd a2 c5 3a 3d 57 db 49 3d 96 eb a9 bd
       -0.09529253 0.045598634 0.049281444 -0.082968876
000290 b6 bf a1 3d b0 8e 2b bd 7e 01 a0 bc a9 af 50 bd
       0.07897894 -0.041884124 -0.019531962 -0.050948773
0002a0 0c 63 ed bc dd 4c e1 3d eb 77 15 bd 76 0d 8a 3d
       -0.028977893 0.11000989 -0.036491316 0.06740849
0002b0 ba ea 02 bd a9 ed a9 bd 09 bd 01 bd df 13 24 bd
       -0.031962134 -0.08297283 -0.03167442 -0.040058013
0002c0 30 6c 29 3e 88 16 e7 3c c9 fb 70 3d a7 0d 25 bd
       0.16545177 0.028208986 0.05883387 -0.040296223
0002d0 02 1d 5d 3d a6 e8 88 3d 4b eb f2 3d 93 52 3d bd
       0.053982742 0.06684999 0.11861285 -0.046221327
0002e0 e6 08 43 be 5b d6 47 bd 2f 09 cd bd 03 8a 7a 3c
       -0.19046363 -0.04878841 -0.10011517 0.015291694
0002f0 cf 23 98 bd 23 1f 0c bc 36 43 0f 3d 7d 6f 13 be
       -0.07428705 -0.008552345 0.034976207 -0.14397998
000300 29 e1 3c be e4 d5 f5 3d 5d 6d b7 bb 6e 14 23 3d
       -0.18445267 0.12003687 -0.005597754 0.039814405
000310 2b c1 b5 bd b7 ce 02 3d 62 48 a9 3c 29 b6 44 bb
       -0.088747345 0.03193542 0.020664398 -0.0030015802
000320 24 24 08 bd 50 73 31 bd f9 f0 9b bd 7a 6e 51 bd
       -0.03323759 -0.04332286 -0.07614321 -0.05113075
000330 fd 0f 55 bd ce e9 54 3d 9e 57 03 be 8d dc 05 be
       -0.0520172 0.051980786 -0.12826392 -0.13072415
000340 ce cb a2 bd 65 a4 bd bc 74 9e e6 bc 54 76 27 3a
       -0.07949029 -0.023149678 -0.028151728 0.00063881767
000350 5c c8 91 bc 5b 9e 3c 3d 81 db 38 be 10 d1 b3 bd
       -0.017795734 0.046049457 -0.18052484 -0.0878011
000360 02 13 1c 3d 29 b0 19 bd 7a c4 d7 bd 67 21 ad bd
       0.038104065 -0.037521515 -0.10535522 -0.084536366
000370 a1 fb 74 3d a9 b7 7c bd db 12 7e bd 50 04 67 bc
       0.059810285 -0.06169859 -0.0620297 -0.014100149
000380 89 4e 7c 3d 95 be b5 3c 10 e0 aa bc 6b b5 39 bc
       0.061598334 0.022185603 -0.020858794 -0.011334757
000390 e8 42 f1 3d 7d 54 eb bd c1 04 20 3c 9f 4e 3d bc
       0.117803395 -0.11490724 0.009766758 -0.011554389
0003a0 7d 52 11 be a4 ba 89 bc 66 56 f8 b9 6a 46 4f bd
       -0.14191623 -0.01681263 -0.00047366618 -0.05060426
0003b0 bf 1c b3 bc 33 00 98 bb 06 d5 10 3d aa 8d d8 bc
       -0.021864293 -0.0046386956 0.035359405 -0.026434738
0003c0 d3 9f 54 bd 73 58 b2 bc 9f a6 f2 bc 8f e5 4a bc
       -0.051910233 -0.021770691 -0.029620467 -0.012383833
0003d0 d4 30 72 bc ba 24 29 bd 8b 77 2e bc 76 be 2a bc
       -0.014782149 -0.04129479 -0.010648618 -0.010421386
0003e0 bd b9 60 3d 55 f5 9e 3c ad 03 02 3e 80 2e 4a 3d
       0.054864634 0.019404093 0.12696715 0.049360752
0003f0 f1 20 7d bc cb 34 60 3d ec 91 b2 bd a7 02 bb 3c
       -0.015449748 0.054737847 -0.08719239 0.022828413

bias f4 [64]
000000 8a eb bb 3d de a7 c4 3d 83 1b cb 3d ce b1 f0 3d
       0.09175785 0.096023306 0.09917357 0.117526636
000010 af 07 34 bd 56 e3 8d 3d 89 63 3c 3d 59 72 a2 3d
       -0.04395264 0.069281265 0.04599336 0.07931966
000020 b2 6a 02 bd b5 17 f5 3c f7 c7 58 bd fe 22 30 bd
       -0.031840034 0.029918531 -0.052925076 -0.04300212
000030 24 b2 81 3d c0 6f 23 3e 25 2f 28 3d 48 d5 f5 3b
       0.06332806 0.15960598 0.041060586 0.0075022317
000040 45 76 69 3d e8 bb 1c 3e 99 00 04 3e da 49 00 3e
       0.056997556 0.15306056 0.12890853 0.12528172
000050 e1 74 89 3d 2c 16 5c 3d 55 c3 4e 3d 86 5d f0 3c
       0.06711746 0.053732082 0.050479252 0.02934147
000060 0e 34 d3 3d 12 84 65 3d bc d3 55 bc 6b 82 92 3d
       0.10312663 0.056034155 -0.01305097 0.071537815
000070 ab d4 fc 3d 85 bc d7 3b 5e 9b e7 3d fc d7 81 bc
       0.12345251 0.0065837526 0.11308931 -0.01585006
000080 f1 6e cb 3d c7 a8 94 3c 18 a3 b0 3d 8e 75 ad 3d
       0.0993327 0.018146886 0.08624858 0.084696874
000090 3c 84 02 3e 1c 93 aa bc 8c 49 fa 3c e2 09 a1 3d
       0.12745756 -0.0208221 0.030552648 0.07863213
0000a0 b1 da bd 3c 9b b2 8c bc b6 5c a4 bc c5 3c db 3d
       0.02317557 -0.01717501 -0.02006374 0.1070495
0000b0 45 1b 7a 3c 67 ef 12 3c 15 21 9e 3c e9 d2 6b 3c
       0.015265291 0.008968211 0.019302884 0.014393547
0000c0 0f a4 3d bc 8a a6 0f 3d 34 b1 26 3e 4c 08 f2 3c
       -0.011574759 0.035070933 0.16278535 0.029544972
0000d0 47 0f 5f bc 61 8e ce 3c 96 61 05 3b 38 fb ae 3d
       -0.013614482 0.025214376 0.0020352355 0.0854401
0000e0 af da 95 3d df 8a 69 bc 83 87 f3 3d 57 35 17 3e
       0.07317101 -0.014254301 0.11891081 0.14766441
0000f0 8a 68 bb 3d e7 af 71 3d fb 04 f9 bc 78 e0 82 3d
       0.091507986 0.059005644 -0.030397883 0.0639047

weight f4 [64, 64, 2, 2]
000000 6e 43 02 3d 1a 5b 51 3d 84 a7 62 3b ae 6b 27 3d
       0.031802587 0.05111227 0.003458471 0.040874176
000010 0e 3e 76 3d 4a dd 9e ba 9d 06 08 be 79 6e 80 3b
       0.060117774 -0.0012120393 -0.13283773 0.0039194194
000020 58 6b ae 3d 27 29 4a 3d d5 49 b8 bc 10 fc 3e 3d
       0.08516568 0.049355652 -0.022496143 0.046627104
000030 cf 61 5b bb 22 6a 2c 3d 59 25 33 3d e9 e1 c4 bc
       -0.0033475047 0.042093404 0.04373679 -0.024033504
000040 c2 81 95 3a e1 26 2c bd 3f a5 4c 3b 7b 13 b6 3c
       0.0011406469 -0.042029265 0.0031226424 0.022226086
000050 f2 7d 91 bd 98 d3 03 bc 52 f3 00 3d 95 b6 4e 3d
       -0.071041 -0.008046053 0.03148205 0.050467093
000060 7f 3d 75 3a 61 ed 68 bd 2d 2c 30 3d 8a 94 b6 3d
       0.0009355172 -0.056867007 0.04301088 0.0891505
000070 2e 90 5d 3d 4f e1 13 3b 30 c0 b6 3c 81 8b de 39
       0.05409258 0.0022564714 0.022308439 0.00042447078
000080 23 00 14 3c ce d5 45 bd 6c e1 20 3c d7 ab 02 3d
       0.009033236 -0.048299603 0.00981937 0.03190216
000090 5f 6e de 3c be e0 1d bd e3 3d c9 3a a8 2c 17 bd
       0.027152238 -0.03854441 0.0015353527 -0.036907822
0000a0 4d 53 94 3c 8d 5f f6 3c 00 fc b0 bb 66 69 10 3d
       0.018106127 0.030074859 -0.0054011345 0.035256766
0000b0 66 7d 68 bd 91 d4 c6 bd d5 19 98 bd e5 7a 41 3d
       -0.056760214 -0.097085126 -0.07426802 0.047236342
0000c0 4e dc 1d bd 2d ad 89 3c 94 15 1b bd eb 1a 8b 3c
       -0.038540177 0.01680621 -0.037862375 0.016980609
0000d0 22 1c 1d bc db ca ec 3c 67 aa 81 3c 81 c9 2d 3d
       -0.009589227 0.028905323 0.015828324 0.042428497
0000e0 65 6e df bc 6b 5d 85 3d ce 2f d7 3c 9d fd 12 3c
       -0.02727432 0.06511959 0.026267912 0.008971599
0000f0 0c b8 0a 3d 00 b8 9e 3d 18 cb 69 3c 62 96 b6 3c
       0.033866927 0.07749939 0.014269613 0.022288505
000100 28 03 ba bc 23 a9 b5 3c fb b4 f5 bc 85 aa 28 bd
       -0.022706583 0.022175377 -0.029993525 -0.041178245
000110 3a 84 19 ba ff d6 5b 3d 53 3c 2b 3d e4 ef fc bd
       -0.000585619 0.053671833 0.041805577 -0.12350443
000120 e7 7e 67 3d 92 97 9e 3c 96 46 c4 3a 2d 36 21 3c
       0.056517508 0.019359384 0.001497465 0.009839577
000130 8e 44 08 bd 25 85 8e bd 58 2d ee 3c ee 89 e8 3c
       -0.033268504 -0.06958989 0.029074356 0.028386083
000140 c6 bb a2 bc 5c d5 8c bd c9 48 6f 3d 2e 79 07 bd
       -0.019864928 -0.068766326 0.058419023 -0.03307455
000150 7e 22 30 3b 45 e4 86 3d 25 10 b9 3d cd 5e ff 3c
       0.0026876028 0.06586508 0.090362824 0.031173134
000160 c8 9f 42 3d 31 77 5d 3d b9 b6 2c 3d 36 80 47 bc
       0.04751566 0.054068748 0.042166445 -0.012176564
000170 a4 52 2c 3d a7 e7 9b 3d 99 b8 ad bc a6 b8 53 3d
       0.042071 0.076125436 -0.021206187 0.051689766
000180 a0 c1 da b8 aa 88 a2 bc 92 a9 6a 3d c3 81 3e 3d
       -0.000104311155 -0.019840557 0.05729062 0.04651047
000190 77 80 4c 39 ba e1 8d bd 0c c0 80 3d 5b 6a 2d 3d
       0.00019502813 -0.069278196 0.0628663 0.042337757
0001a0 e0 51 8d bd e7 aa dd bd c1 c2 f3 3c 9c 4a 12 3d
       -0.06900382 -0.10823613 0.029755952 0.035715684
0001b0 c1 f1 85 bc c2 f5 84 3d 5d f7 b5 bd d9 97 2b 3d
       -0.016350629 0.06492187 -0.088850714 0.04189286
0001c0 80 3c 0f 3d 0e 6a 0f bc 23 a2 e0 3c 53 37 be bc
       0.034969807 -0.008753313 0.027421063 -0.02321974
0001d0 5f 23 c8 bd 86 2b 05 bc 2b 7d bb 3c 93 07 66 3d
       -0.097723715 -0.008128053 0.022886833 0.056159567
0001e0 4d d6 af bd 26 e0 44 bc cf 56 f9 bd 86 bc b1 bc
       -0.085857965 -0.012016332 -0.121747606 -0.02169634
0001f0 82 68 41 bb ef 02 42 bd ef e7 84 bd 51 22 b5 3d
       -0.0029511754 -0.04736608 -0.0648955 0.08844436
000200 e2 88 9f bc 18 a0 69 3c 54 c7 a3 bd b7 ad 09 bd
       -0.01947445 0.014259361 -0.07997003 -0.033612933
000210 44 8a 11 bd e2 a4 d1 bc 99 01 da bc 12 99 01 3d
       -0.03553225 -0.025591318 -0.02661209 0.03164012
000220 46 92 40 be 2e 1b c8 bd ad 1b 01 3e d5 7a 2d 3d
       -0.18805799 -0.09770809 0.12608214 0.04235347
000230 df f9 9d bd c9 ca 34 bd ff 5f 21 bd f7 31 11 3d
       -0.07713675 -0.044138703 -0.03939819 0.03544804
000240 29 d8 ba 3c 55 e2 e3 3d b1 d8 54 3d 5f 0d bf 3c
       0.022808151 0.11127154 0.051964466 0.023321806
000250 4d cd 4b bc bd 9b 0e bd 44 91 2b bc 87 46 8e bd
       -0.012439084 -0.034816492 -0.010471646 -0.06947046
000260 d9 a5 20 3e 2a 40 99 3d c3 0d 8b bd fc 68 cf bc
       0.15688266 0.074829414 -0.06789734 -0.025318615
000270 b8 f6 c8 bd 89 69 f9 bc e1 36 77 bd 84 bb c1 bc
       -0.09812683 -0.03044583 -0.06035507 -0.023648985
000280 85 c2 bf 3d 0f 58 83 bd 0d fb f9 3c c6 3e 0f 3d
       0.093632735 -0.0641328 0.030515218 0.034971975
000290 ff e5 6c 3d 70 7d bf bc 70 3e e1 bc ee 0e 4b 3d
       0.05783653 -0.023375243 -0.027495593 0.049574785
0002a0 28 b9 30 3c 8c 42 d8 bd b4 00 ef 3c f2 32 08 b8
       0.010786332 -0.10559568 0.02917514 -3.2472373e-05
0002b0 ae d0 38 bc a5 5e 60 3d 60 e6 19 bd 84 48 91 3d
       -0.011280222 0.05477776 -0.03757322 0.070939094
0002c0 f0 d5 1e 3d af 03 1e bc 8e c4 fd bc 1a e4 14 bc
       0.038778245 -0.009644433 -0.030977514 -0.009087587
0002d0 ce e9 34 bd d7 b3 80 3b b4 8a 6c 3c 95 81 0d 3c
       -0.044168286 0.0039276886 0.014437366 0.008636852
0002e0 88 fd 0a 3d 88 43 02 3d db 59 59 3d 66 d3 f5 bc
       0.033933192 0.031802684 0.05306421 -0.03000803
0002f0 84 92 23 bd 4d 79 9b bc d4 4e 06 bc 34 f4 36 3d
       -0.03993465 -0.01897874 -0.008197505 0.044666484
000300 90 73 3f bd de e8 28 bd 86 a5 53 be bb ab ce bc
       -0.04674107 -0.041237704 -0.20668611 -0.025228372
000310 e1 b8 3d 3d 4e c1 9a 3d fe de 16 bd d1 c1 b0 3c
       0.046318892 0.07556401 -0.036833756 0.021576794
000320 16 8c 9e bd ab 3c 68 3d 1b 3e 95 bd 9b 7f 65 3c
       -0.07741563 0.056698482 -0.07287236 0.014007474
000330 41 24 00 3d b9 2e 89 3d e7 3a 04 bc bf da c9 b9
       0.031284574 0.06698365 -0.008070684 -0.00038500686
000340 5e 9b 47 3d 11 11 f1 bc 29 e4 de bc cf 5d f7 3c
       0.048732154 -0.029427083 -0.027208405 0.030196099
000350 ec 20 87 bd 8f aa 9c bc 04 93 ed 3c f4 d7 91 3a
       -0.06598076 -0.019124297 0.029000767 0.0011126981
000360 f9 69 ef 3b 79 e7 10 bd a9 22 b1 bc a3 77 60 bc
       0.007306334 -0.035377 -0.021622973 -0.013700399
000370 c3 a5 cd bc bf f0 81 3c 04 b9 4d 3d 88 da 6a 3c
       -0.025103455 0.015861867 0.050225273 0.0143343285
000380 8a 52 91 3d e5 25 1e bb d2 9c 4e 3d bd a7 b9 3c
       0.07095821 -0.0024131474 0.050442524 0.022662992
000390 3f 35 0d 3d a2 7a 9b bd 7b 8a ac bc 3c 14 88 bc
       0.034474608 -0.0759175 -0.021062126 -0.016611211
0003a0 76 68 69 3b ff 85 cb 3c 8d 29 7f 3c 12 7e 33 3b
       0.0035615242 0.024844168 0.015573871 0.0027388376
0003b0 7b ef 13 3b cf f1 35 bd 2b 3c a0 3c a0 77 98 bd
       0.0022573161 -0.04442006 0.01955994 -0.07444692
0003c0 d1 7b 19 3b c3 a0 e4 bc 03 f8 2e bd 12 54 b4 3d
       0.0023419748 -0.027908688 -0.04271699 0.08805098
0003d0 57 5d 09 3d f8 69 bd 3d c7 66 ef 3c 66 d1 a2 3d
       0.03353628 0.092487276 0.029223813 0.07950096
0003e0 1c 8a 34 3c f1 17 14 3d 3d b9 06 3d 36 a9 32 3a
       0.011019256 0.036155645 0.0328915 0.00068153755
0003f0 8f 16 58 3c 01 00 82 bb 3c 76 6a bc 25 7f d0 3c
       0.013188972 -0.0039672856 -0.014310416 0.025451252

bias f4 [64]
000000 87 40 c2 3d 05 48 f7 3d 25 cf f2 3d ad b9 a9 3d
       0.09484964 0.120742835 0.11855916 0.08287368
000010 07 9d 7c 3c 88 76 ca 3d 07 5b d6 3c 65 62 ca 3d
       0.015418298 0.09885889 0.026166452 0.098820485
000020 f5 e2 7b 3d 28 3b 47 3d e3 36 00 bd ad e1 ff 3c
       0.06149574 0.0486404 -0.031302344 0.03123554
000030 f6 69 f3 bd 02 d6 5f bc e5 12 18 bd 1b 26 22 3e
       -0.11885445 -0.013661863 -0.037127394 0.15834849
000040 97 4e c4 3b fd b3 ae bd c0 2f b6 bd ac 4e cc bc
       0.005990814 -0.08530424 -0.08895826 -0.024939857
000050 a0 29 dd 3c 87 75 83 3c 1d f2 47 bd 88 ca 4d 3d
       0.026997387 0.016047252 -0.04881488 0.050241977
000060 27 1f ca bb d1 e3 a6 3d 6d 3e a3 bc 5a 17 41 bc
       -0.0061682644 0.08148921 -0.019927228 -0.011785353
000070 bb 3f 81 3b dc 1b 80 3d d2 7a 13 bd 9d 03 25 bd
       0.003944365 0.06255314 -0.036005802 -0.04028665
000080 27 5a bc 3d 89 12 eb 3d b8 ec 5a 3d 80 7c 1b 3d
       0.09196883 0.11478145 0.05344841 0.03796053
000090 13 e6 a4 3d 12 1a af bd 84 95 98 3d 98 06 20 bd
       0.08051696 -0.085498944 0.07450393 -0.03906879
0000a0 40 2a be 3d aa 3b 3d bc bc 86 27 3c 94 1a a1 3d
       0.09285402 -0.01154987 0.010224994 0.078663975
0000b0 d8 86 8a 3d 26 b5 c5 bc d7 5d d9 3d 58 a0 9e 3b
       0.06764001 -0.02413423 0.10613602 0.004840892
0000c0 10 7c b3 3c 90 d2 9c 3a 7b f5 c9 3c fc 05 04 3e
       0.021909744 0.0011964608 0.024653187 0.12892908
0000d0 ec 62 ca bc 5b 74 5c 3d d2 97 5b 3d b1 dd 0d 3e
       -0.024705373 0.053821903 0.053611584 0.138541
0000e0 38 c6 cb 3c ed 9c dd 3c 29 86 ae 3d 84 6a 85 3d
       0.024874792 0.027052367 0.08521683 0.06514457
0000f0 fe 52 d8 bd ec 5d 4e 3c 0d ce a3 bc f0 3a 35 3d
       -0.105627045 0.012595635 -0.019995714 0.04424566

weight f4 [64, 64, 2, 2]
000000 a0 a0 10 bd f6 e4 bf bc 3b 02 d2 bc 45 86 57 3c
       -0.035309434 -0.023424607 -0.02563583 0.013154571
000010 34 d9 0a 3d 81 f7 ec bc 80 40 81 bd 7e 16 be 3c
       0.033898547 -0.028926613 -0.063111305 0.023204084
000020 e4 b8 68 bd 8d 91 6c 3d 28 7d db 3c b3 95 61 3d
       -0.05681695 0.057755996 0.026793078 0.055074405
000030 9a 8d 22 bd 3b ee d1 3d 1a 21 82 3c b6 47 7a 3d
       -0.039685823 0.10250517 0.015884925 0.061103545
000040 07 ae c2 bc ee bb c6 bc 67 02 09 bc f9 a8 85 bd
       -0.023764623 -0.024259534 -0.008362389 -0.065263696
000050 12 33 49 3c a2 e4 24 bc 1f 6f 00 be 48 c8 ff bc
       0.0122802425 -0.010064276 -0.1254239 -0.031223431
000060 c0 d1 e7 bb 5f 4c f6 3b 18 ce 76 bd 2b 82 14 bc
       -0.0070745647 0.0075164284 -0.06025514 -0.009064238
000070 07 25 ca bc b0 6c c9 3a 0e 66 43 bc 4d 29 88 3d
       -0.02467586 0.0015367474 -0.011926187 0.066485025
000080 0d da 97 bd b9 b5 4c 3b d8 5e 78 3c 1f 90 c8 bb
       -0.07414637 0.0031236245 0.015159331 -0.006120696
000090 28 1a c2 bc f7 ca 02 be 7d bb 36 be 70 9c 96 bd
       -0.023694113 -0.12772737 -0.17844959 -0.07354057
0000a0 03 71 49 3d 84 20 be 3c 94 64 99 bd be 2a 91 3d
       0.049180042 0.023208864 -0.07489887 0.070882306
0000b0 c5 c1 4f 3d d0 b7 dc bc b1 6c b8 3c 1d 44 31 3c
       0.050721902 -0.026943117 0.022512766 0.010819462
0000c0 5c b1 6b bc 00 3a a4 3c 3e d6 5f bd 73 a0 71 3d
       -0.0143855475 0.020047188 -0.054647677 0.058990907
0000d0 05 36 8a bb 48 9f f5 3d ad f9 a3 3c 05 49 b8 3d
       -0.0042178654 0.11993271 0.020016516 0.08998302
0000e0 18 33 58 3d 91 eb 5b 3c 9d cb 96 bd fb 9c 14 bd
       0.0527831 0.013422863 -0.07363055 -0.03628252
0000f0 85 cc 35 bd 27 36 8d 3d 1d c5 9b 3c e0 87 bc bc
       -0.0443845 0.06895094 0.01901489 -0.023014009
000100 8b cb 8c bc 07 54 1d 3d 73 6e 06 bd f3 ef 64 bd
       -0.0171869 0.038410213 -0.032820176 -0.055892896
000110 28 f3 c2 bc 2e f5 51 3d e5 a3 c5 3c a8 bb 51 3d
       -0.023797587 0.051259212 0.024126003 0.051204354
000120 93 45 4c 3d 5e c1 06 3d 0f d3 99 bd 15 7f 2c 3c
       0.04987104 0.032899253 -0.07510959 0.010528346
000130 ef c6 2e bc 9b a6 1d bc b5 00 01 bd da a7 f7 bc
       -0.010667547 -0.009622241 -0.031494815 -0.030231405
000140 c4 51 71 bb 1d a0 87 3d ad a9 10 bd 3a 3b 6c 3b
       -0.0036822418 0.06622336 -0.035318065 0.0036046044
000150 b1 18 3e bd 58 c5 ad bd fc 3c ce bd 7d 9b df bb
       -0.046410266 -0.08484906 -0.100702256 -0.0068239556
000160 2b c2 8b 3c 3b cb 82 bc 24 b1 7e bc 8c a1 19 3c
       0.01706036 -0.015966048 -0.015545163 0.009376895
000170 67 40 9e 3d c7 79 04 be 94 84 cf bd 82 10 14 bd
       0.077271275 -0.1293708 -0.10132709 -0.036148556
000180 b7 c7 72 bc 7f ea 8a bc e2 9b d6 bc 00 f1 ba bc
       -0.014818124 -0.01695752 -0.026197378 -0.022819996
000190 a4 ff a2 bd 1d 96 8c bd c6 f1 80 bd bb 7c 18 bd
       -0.07958916 -0.06864569 -0.062961146 -0.037228327
0001a0 93 45 b4 bd 82 3f e2 3c 89 70 8f 3d 9d 48 ef bc
       -0.08802333 0.027618174 0.07003886 -0.02920943
0001b0 38 1f f2 bc 09 13 83 3d 03 ef 24 bb de 24 45 bc
       -0.029555902 0.06400115 -0.0025166876 -0.012032716
0001c0 43 b1 89 bd 65 9f ee bc 9c 70 b1 3d a2 41 cf 3c
       -0.06723263 -0.02912874 0.08664057 0.02529985
0001d0 63 4a a6 bc 6f df 48 bd 23 f1 40 bc c2 b2 29 3d
       -0.020299142 -0.049041208 -0.0117762415 0.041430242
0001e0 57 66 d1 3c 60 cd b3 3d 79 b8 80 bc 40 f0 3f bb
       0.025561495 0.087794065 -0.015712963 -0.0029287487
0001f0 09 b9 80 bd e9 e9 5a bd b5 16 75 bd 5c 8d 34 3d
       -0.06285293 -0.05344573 -0.05983611 0.044080123
000200 b2 75 b1 3c cc c3 a6 3c b9 77 ef 3a 0c 1c 6d bc
       0.021662567 0.020357035 0.0018269933 -0.014472019
000210 da e7 8e 3d 0e 97 8e bd 8f c2 43 3d 32 a0 d8 bc
       0.06977816 -0.06962405 0.047792967 -0.026443575
000220 3a da d1 bc 06 e6 d3 bc de d9 92 3c dd 12 32 be
       -0.025616754 -0.02586652 0.017926153 -0.17390008
000230 c3 3b 37 3d 5e 63 1f 3d 86 0e e4 bc ff c6 70 3d
       0.044734728 0.038913123 -0.027838957 0.058783527
000240 fb 94 b4 bc fd eb 8f bc bb e1 2b bd 2e 50 8e 3c
       -0.022043696 -0.017568583 -0.04196332 0.017372217
000250 a7 3e 69 bd 3e 34 c6 bd 92 59 64 bc 74 f8 ad bd
       -0.056944516 -0.09677933 -0.013937371 -0.08494654
000260 62 42 d7 bb c6 46 38 3d a1 8b 18 be c7 9b 17 bd
       -0.0065691927 0.04498937 -0.14897014 -0.037013795
000270 59 49 17 3d d7 79 ba 3d 32 fa e8 3c 67 ca ad 3d
       0.036935184 0.0910527 0.028439615 0.08485871
000280 3f 93 94 3d 6c 07 b9 bc df 5b 2d 3d b6 2a fa 3c
       0.072546475 -0.022586547 0.042323943 0.030537944
000290 b0 19 57 3d 0d 93 7f 3c e1 e5 aa 3d 94 0c 70 3c
       0.052514732 0.0155990245 0.08344627 0.014651436
0002a0 a7 df 3d bd 80 c3 e0 bc 75 b2 ae 3a 55 18 be bd
       -0.04635587 -0.027436972 0.0013328331 -0.09281985
0002b0 63 39 54 bd 83 b3 03 3c eb cb 03 bd 91 38 85 3c
       -0.05181254 0.008038404 -0.032176893 0.016262325
0002c0 5c 7d 09 bd 3c 77 83 3c 80 ca 85 bd a8 fe dc 3d
       -0.033566818 0.016048066 -0.065327644 0.10790759
0002d0 de c4 ce bb c4 c3 f5 bc 4d 73 d2 bd fc 32 04 3e
       -0.0063100895 -0.030000575 -0.10275898 0.12910074
0002e0 3c a9 4a 3d fa d2 e0 bc a6 f7 80 3c 74 16 54 bd
       0.0494778 -0.027444351 0.015743088 -0.051779225
0002f0 59 dc 2b bb 80 9e d8 bb d0 ec b3 bd f0 64 a4 3b
       -0.0026223867 -0.0066106915 -0.08785403 0.0050169155
000300 14 b7 c8 bc 89 b7 cb bd 9f 10 a0 bd 84 a1 c7 bc
       -0.024501361 -0.09947116 -0.0781567 -0.024369009
000310 d8 87 8d bc 4d 26 38 bd 98 b3 01 3d 49 c8 78 bd
       -0.01727669 -0.0449584 0.031665415 -0.06073788
000320 14 02 33 3d 9c 20 e4 3c 18 b5 aa bd e3 11 ff bb
       0.043703154 0.02784758 -0.08335322 -0.0077841147
000330 60 f0 c9 bd cf f9 55 3d a2 bb 51 bd 84 1e d8 3d
       -0.09860301 0.05224019 -0.05120433 0.105526954
000340 eb d5 89 be 50 f3 a4 bb 6e 5a 8b 3c ee 93 29 bb
       -0.2692102 -0.005033888 0.017010894 -0.0025875526
000350 d6 73 bb 3c 90 fd c1 bd fe 19 99 bc 7b 4e 12 bd
       0.022882383 -0.09472191 -0.018689152 -0.035719376
000360 a6 d8 78 3d 68 12 14 3b f9 16 37 bd 20 1b d7 bb
       0.060753487 0.0022593979 -0.044699643 -0.006564513
000370 e2 4b 2b 3d 2d 08 a3 3c 47 50 0a bd 7e cd a4 3c
       0.041820414 0.01990136 -0.033767965 0.020117518
000380 27 30 19 3d aa b8 23 bd d8 ed f5 bc 0c 86 6d bd
       0.037399437 -0.03997103 -0.03002064 -0.057989165
000390 03 ad c0 bd 55 f8 ba 3d cd 88 06 3d 85 79 83 bd
       -0.09407999 0.09129397 0.032845307 -0.064196624
0003a0 99 bd 03 3d 92 cd 8b 3d 79 c7 04 3b 02 7a 0b 3d
       0.032163236 0.06826319 0.0020260497 0.034051903
0003b0 5b 12 a8 bd 1c 50 5b bd 0c ed 1c be 8a 52 1a 3d
       -0.08206626 -0.053543195 -0.15324801 0.03767637
0003c0 e0 76 1c bd ea 40 b9 3d d6 29 6d bd 03 4f e1 3d
       -0.038199306 0.090455845 -0.057901226 0.110013984
0003d0 df 0f 01 3c b6 72 9e 3d 0f 15 a3 bd 01 54 7d 3d
       0.007877319 0.07736723 -0.07963001 0.06184769
0003e0 b6 78 f0 3c bd 99 3c 3d ac ad ff 3c b6 10 b2 3c
       0.029354434 0.046045054 0.031210743 0.021736484
0003f0 ed f1 b4 3d 1b 14 89 3d 2d 2e 3a bb 7f 68 25 3c
       0.08835206 0.06693288 -0.002840887 0.010095715

bias f4 [64]
000000 1f ef 78 3d 57 ca 87 3c c0 4b dd 3d f4 39 99 3d
       0.06077492 0.016575975 0.10805464 0.07481757
000010 48 e3 a2 bd 33 fe 88 3d 88 ed 56 bd ed 7a 1a 3d
       -0.07953507 0.0668911 -0.05247262 0.037714887
000020 4a a4 5d 3d d9 20 d2 bc 02 3c a7 3d b5 52 9b 3d
       0.054111756 -0.025650429 0.081657425 0.075841345
000030 30 5f 15 3e ff 11 9e bd d2 66 82 bd 90 b4 84 3d
       0.14587092 -0.07718276 -0.06367268 0.06479752
000040 25 5c 96 bd e6 44 9a 3d 26 9e 3c bd f0 14 a9 3d
       -0.07341794 0.075326726 -0.04604926 0.08255947
000050 a8 c9 4d 3d 30 b4 97 bd d7 da e4 3d ef fe 6b 3d
       0.050241143 -0.07407415 0.11174553 0.05761617
000060 5f 87 57 3d 7c 1b 04 be 6d cd 26 3e 8d 57 b0 3d
       0.052619334 -0.1290111 0.16289301 0.08610449
000070 3c 86 83 3d f2 a0 ac 3d 37 82 d5 3d 3b 0d d8 bd
       0.064220876 0.084291354 0.10425227 -0.105493985
000080 85 3b 84 bc b5 b7 08 3e 80 1f 3f bd 27 7d c3 3d
       -0.016141662 0.13351329 -0.0466609 0.09545355
000090 c9 61 24 3e 90 44 18 3e 8a d4 59 bd e1 d4 dc 3d
       0.16052927 0.14869905 -0.05318121 0.10782791
0000a0 06 48 c1 3c fe 0c 9a ba 3b ae 3e 3c 5a 20 d2 3d
       0.023593914 -0.001175314 0.0116382195 0.10260077
0000b0 96 38 24 3d 5f f1 e4 bd 14 c6 8d 3c 19 64 27 be
       0.040093027 -0.111788504 0.017306365 -0.16346778
0000c0 7b c8 65 3d fd 21 b8 3d c2 8b aa 3d 7b 53 0a 3e
       0.056099396 0.08990858 0.08327438 0.13508408
0000d0 13 ca 90 3c 5a 79 57 bd 0f 45 0d be 29 a3 ab 3d
       0.017674481 -0.052605964 -0.13795875 0.0838073
0000e0 e2 09 81 bd c6 21 17 3e 8a 6e 5f 3d 2f 7e e4 3c
       -0.06300713 0.14758977 0.054548778 0.0278922
0000f0 63 da e2 3d 6f 5c 6b 3d 8e 85 9e 3d 5c c0 29 3e
       0.1107681 0.0574612 0.07740317 0.16577286

weight f4 [64, 64, 2, 2]
000000 12 cc 92 bd d0 7e 02 3e bf 86 e0 3d 75 72 61 3d
       -0.071678296 0.12743688 0.10963201 0.055040795
000010 ef 00 5b bd 50 49 cc 3d 4b fd ca bc 15 e5 05 3d
       -0.053467687 0.09974921 -0.024778983 0.032689173
000020 7f bd 74 bb 0b e0 2b 3d 4f 05 b5 3d 54 b5 9e bd
       -0.0037344394 0.04196171 0.08838903 -0.07749429
000030 3a a8 03 bd fb 86 6b bd ae 78 78 bd 21 83 1a be
       -0.032142855 -0.057501774 -0.060661964 -0.15089084
000040 fd 08 ef 3c 9c 56 15 3e 65 92 d0 3d 9a 9c 40 3d
       0.02917909 0.1458382 0.101841725 0.047024347
000050 14 9b 4b bb 29 da b4 bc a3 53 64 bc b1 11 2f bc
       -0.0031067776 -0.022076683 -0.013935956 -0.01068537
000060 33 fa 3f bd b2 95 02 bd 75 da 60 be 2b 22 0b be
       -0.046869468 -0.03188104 -0.21958335 -0.13587253
000070 5d 53 59 bd 6f 97 98 bd 23 d3 9d bb 0d d3 28 bc
       -0.053058017 -0.07450759 -0.004816429 -0.010304225
000080 35 cd 6c 3b 0e f8 51 bd 71 85 de ba 41 74 34 3c
       0.0036133055 -0.051261954 -0.0016977024 0.011014045
000090 ef be 9d 3b a5 a2 b5 3c 95 b4 72 bd d7 cd b0 bd
       0.004814021 0.022172282 -0.059254248 -0.08633011
0000a0 d9 67 64 3d d3 93 e7 39 70 d6 27 3d 49 ff c4 3c
       0.0557631 0.0004416989 0.040975988 0.02404751
0000b0 32 93 6d bd fa c0 55 bd ce a3 ba bd c1 4c b7 ba
       -0.058001705 -0.05218599 -0.091132745 -0.0013984666
0000c0 a5 d6 e4 bd 80 a2 84 bd 51 e6 0b be ca 7c 69 bd
       -0.11173753 -0.06476307 -0.13662077 -0.057003774
0000d0 53 6c e5 bc fa e9 3c bd aa 26 ff bd 84 c0 db bd
       -0.028005755 -0.046121575 -0.124585465 -0.10730079
0000e0 ec 93 75 3d 2b 03 8d bd 5b 24 f4 bd 00 77 db bd
       0.059955522 -0.0688537 -0.11920997 -0.10716057
0000f0 ca 0c 0f be df 01 84 bc 53 7b f0 3b be 47 33 bd
       -0.13969722 -0.016114173 0.00733892 -0.04376959
000100 d7 a2 1b 3d 7e 05 bc bd b8 6a 62 bd 52 9b af bd
       0.037997093 -0.09180735 -0.055277556 -0.08574547
000110 18 1f d4 bc a0 ff 38 bc 17 a5 2a 3d 01 6a 9a 3c
       -0.025893733 -0.0112914145 0.04166135 0.018849375
000120 0f c1 b5 3c 50 b3 10 3c 90 6e 81 bd 8e 9b cd 3d
       0.022186784 0.008831814 -0.06319916 0.10039435
000130 c5 57 11 3e 1c c7 61 3d 58 18 15 3a 4b 66 0e 3d
       0.14193638 0.055121526 0.00056875264 0.034765523
000140 72 59 0b 3d a2 b8 29 bd ee a9 d2 bd 1d db b0 bd
       0.03402085 -0.041435845 -0.10286318 -0.086355425
000150 02 74 91 3c e6 73 28 3e 0a 33 82 3d 8e ba 3a 3b
       0.017755512 0.16450462 0.06357391 0.0028492543
000160 be 78 c4 3c e3 44 0f 3e 47 1b fd bc 08 8f 8a 3d
       0.023983356 0.13991122 -0.030896796 0.06765562
000170 73 b7 22 be 45 cd 80 3d d0 c0 de bd c1 32 22 bc
       -0.15890293 0.06289152 -0.1087662 -0.009899796
000180 83 12 1d 3d 37 4b b7 3d 81 8b 29 3d f3 4f 05 3d
       0.038347732 0.08949893 0.041392807 0.03254695
000190 f1 c0 49 bd 7d 81 cc 3c ec 92 bb 3b 81 06 61 bc
       -0.04925627 0.024964089 0.0057243016 -0.013734461
0001a0 f7 f0 4d 3d 89 f7 8f 3d 76 db 57 bd 49 0c 63 3d
       0.05027863 0.070296355 -0.05269953 0.055431638
0001b0 26 45 29 bc f5 e6 aa 3d 64 e7 b9 bb c2 31 c3 bb
       -0.010331428 0.08344833 -0.005673336 -0.0059568593
0001c0 ba ef 02 be c7 31 82 3d 87 16 af bd c5 88 a2 3d
       -0.12786761 0.063571505 -0.085492186 0.07936243
0001d0 dc 3a 62 bd 24 94 0a 3e 90 01 1a 3d 6d e0 a5 bc
       -0.055231914 0.13533074 0.037599146 -0.020248616
0001e0 ad 40 03 3d 64 f0 7d 3a dc ed c9 3c ef be 2e be
       0.0320441 0.0009687005 0.024649553 -0.17065023
0001f0 63 a1 cf 3c fa 9b e4 bb 49 09 35 3d d6 d2 39 bd
       0.02534551 -0.0069766017 0.04419831 -0.045367084
000200 d5 75 74 bd c3 58 f7 bc 41 34 8a 3b d0 37 66 bd
       -0.059682686 -0.030193692 0.004217655 -0.05620557
000210 fd fc 95 ba 99 a5 21 3c 6e 20 82 bc ae 71 8a bd
       -0.0011443194 0.009866142 -0.015884604 -0.06759964
000220 71 7f c5 3c b1 65 44 bd 8b c4 3b bd 87 c4 cd bc
       0.02410862 -0.047948543 -0.045841735 -0.025118126
000230 36 b0 32 3c ff de cf 3b de 1f bf 3c 8f 7d 68 bd
       0.01090627 0.006343722 0.023330625 -0.056760367
000240 0a 21 f0 bd fd 8b bb bd 0f 36 2b bd bf 95 1e be
       -0.11725052 -0.0915756 -0.0417996 -0.15486811
000250 65 ab ac 3c f7 85 94 bc c9 64 63 bd 5e f3 a9 bd
       0.021077821 -0.018130286 -0.055516038 -0.08298372
000260 9c 01 0b bc b8 9d 0f bd 67 69 57 bd c3 c3 53 bc
       -0.00848427 -0.03506252 -0.052590754 -0.012925091
000270 a2 28 a6 3d 9a 4e 25 3e e4 e2 a4 3d 1a 58 23 3d
       0.08113219 0.16143265 0.080510885 0.039878942
000280 53 b8 6e bd c7 fe de 3c 68 ee 4a bd bf 1c bf 3d
       -0.058281254 0.027221097 -0.04954377 0.09331655
000290 d4 a8 a1 bc ea 90 cd 3d 04 31 51 3d 46 8a 11 3e
       -0.019733824 0.10037406 0.051072136 0.14212903
0002a0 8f 13 17 bc a3 b9 e5 3d 32 68 28 3c b3 33 df 3a
       -0.009220972 0.11217048 0.010278748 0.0017028957
0002b0 24 ec 7f bc 37 e0 c8 bd 7b 18 c1 bd 23 df 86 bc
       -0.015620265 -0.098083906 -0.094284974 -0.016463822
0002c0 aa 17 85 ba 22 15 19 bd 79 8e f7 bd 77 65 92 bd
       -0.0010154147 -0.03737367 -0.120877214 -0.07148259
0002d0 54 c7 57 39 03 de 54 bb 78 c2 8a bb 96 d6 a1 bd
       0.00020578253 -0.0032480962 -0.0042346083 -0.07902257
0002e0 71 d3 97 bc b8 c5 d8 3c e2 80 5d bd c2 3f ca bd
       -0.01853344 0.026461467 -0.05407799 -0.09875442
0002f0 17 6f 34 3d 27 ee d9 bc 90 0a 16 3d e5 09 c7 3d
       0.044051256 -0.026602818 0.036631167 0.09718684
000300 af 09 64 3d 41 75 d2 3b 1e 47 3d bc f9 69 6a be
       0.055673297 0.006422669 -0.0115526 -0.22891988
000310 b0 bd 47 bc d3 59 ad bc f1 70 b5 bd c2 11 62 3d
       -0.012191221 -0.021160996 -0.088594325 0.055192716
000320 fe 1e a9 bc 08 ad 0b bd dc 1d 45 be fe 9f 82 3c
       -0.020644661 -0.034100562 -0.19249672 0.01594543
000330 e6 99 eb bd dc e2 72 3c 65 61 a7 bd 1f d3 87 bd
       -0.11503963 0.014824595 -0.081728734 -0.06632065
000340 c9 95 99 bd d8 54 a7 bc ac 53 cd bc 2b 8a ad bd
       -0.074992724 -0.020426199 -0.025064312 -0.08473619
000350 13 9d b5 3a db 03 07 3d cd 68 26 be b1 e4 02 be
       0.0013856016 0.03296266 -0.16250916 -0.12782551
000360 9f 14 aa 3c bc 6d 8f 3c 77 4c 8f bc 08 73 f1 bd
       0.020761786 0.01750838 -0.017492516 -0.117895186
000370 b4 b6 6d be 8a aa d3 bd 9b 39 d6 bc 90 57 0b be
       -0.23214227 -0.10335262 -0.026150515 -0.13607621
000380 f8 bc 1d 3d 5a 8c c1 3d c1 9d 06 3d 28 77 10 3d
       0.038510293 0.09450598 0.03286529 0.035269886
000390 a5 80 4e 3c e3 17 35 bd 0b f2 de bc a1 0b b5 bd
       0.012603913 -0.044212233 -0.027215024 -0.08840109
0003a0 86 76 c9 3c d2 8e 7f 3d 1c 7a b9 3d d4 79 b1 3b
       0.02459265 0.062392063 0.09056494 0.0054161344
0003b0 3b 44 8c 3b 19 d9 4d 3e e1 56 d9 bd b1 af 84 bd
       0.0042805946 0.20102347 -0.10612274 -0.06478823
0003c0 f1 05 ba bd 6a 5d 91 bd 4e ba 25 3e 0e 01 c1 3b
       -0.090831645 -0.070978954 0.16184351 0.0058900183
0003d0 a8 b5 45 3d 71 48 0a 3e 65 b6 ed 3b 4f d7 90 3d
       0.048268944 0.13504197 0.007254409 0.07072317
0003e0 7d a5 a3 bd d0 a1 39 3d 13 ad 28 3d 79 93 9f bc
       -0.07990549 0.045320332 0.04118068 -0.0194795
0003f0 5a 73 93 bd eb c2 58 be 8a 68 18 be 59 77 2e bd
       -0.07199736 -0.21168105 -0.14883628 -0.042594288

bias f4 [64]
000000 70 bc 82 3d ea b2 0c be 42 ea 82 bd e0 2d 63 3e
       0.06383598 -0.13740125 -0.063923374 0.22185469
000010 e2 e1 88 bc 8f e5 2b be c8 ca 2b be 4a 6d 6f 3e
       -0.016709272 -0.16786788 -0.16776574 0.23381534
000020 d6 62 ba bd dd a4 4c bd 4e 1f 0e be 74 9a 2f 3e
       -0.09100883 -0.049961913 -0.1387913 0.17148763
000030 d0 6f f5 bd 80 e5 df 3c ce 2f 56 3e 0d 05 26 3e
       -0.11984217 0.027331114 0.20916674 0.16212864
000040 ce 59 ab 3e d2 c2 d4 bc 1b b4 10 be c9 ee c8 bd
       0.33466953 -0.025971804 -0.14131205 -0.0981117
000050 84 ec 0f 3c 96 dc d4 bb d5 ef 3a 3c d3 1d ae bd
       0.008784417 -0.0064960225 0.0114097195 -0.08501782
000060 5d 83 5e 3d 7a 9b c8 3d 85 ae db bd 6f 0f b1 bd
       0.054324497 0.0979528 -0.10726646 -0.08645522
000070 ff fc 9d bd 24 f0 34 3d 56 8a 2b bd 81 b5 08 be
       -0.07714271 0.04417433 -0.041879974 -0.13350488
000080 d0 cb 1a 3e 42 eb 28 3e 6d 00 6d 3e 61 69 28 3d
       0.15116811 0.16495994 0.23144694 0.041116122
000090 89 c1 8f 3d 30 97 f1 3d 80 c1 5c 3e bb 8b d5 bd
       0.07019336 0.11796415 0.2155819 -0.10427042
0000a0 d0 e3 50 be 74 46 e6 bd 04 2c 3a be e1 3b 87 3e
       -0.20399404 -0.112439066 -0.18180853 0.2641287
0000b0 d3 12 48 3e 89 18 39 3e d9 14 83 bc ec f5 1d be
       0.19538431 0.18075766 -0.016001152 -0.15425843
0000c0 55 4f 96 3e 28 70 86 3b 59 ff 2c bd 79 cf 21 be
       0.293574 0.0041027255 -0.042235706 -0.15801801
0000d0 81 df 1a 3d f0 a7 ce 3d 0d f3 0b be 60 d4 05 be
       0.037810806 0.10090625 -0.13666935 -0.13069296
0000e0 df ce ff bd c7 4e 57 bd 5b 95 a2 3c 01 78 1b be
       -0.124906294 -0.052565362 0.019846609 -0.15182497
0000f0 f9 6d ee 3e b7 2c 36 be 49 1f 3b be 25 7a 25 3d
       0.46568277 -0.17790495 -0.18273653 0.04039969

beta f4 [64]
000000 0c 03 7f 3f 92 65 75 3f 5c ce 94 3f b9 77 7d 3f
       0.99614024 0.9585811 1.1625476 0.9901081
000010 a2 e4 8d 3f 44 d5 89 3f 24 82 91 3f 94 d0 91 3f
       1.1085398 1.0768209 1.1367841 1.1391778
000020 39 c2 82 3f d6 d7 8e 3f 90 a8 a1 3e b8 16 7e 3f
       1.0215522 1.1159618 0.31573915 0.99253416
000030 20 64 7b 3f d7 52 88 3f 12 9a 95 3f 51 70 90 3f
       0.98199654 1.0650281 1.1687644 1.1284276
000040 a6 57 8c 3f 7e 3d 5b 3f ef b9 6d 3f 9e 33 92 3f
       1.0964248 0.85640705 0.9286184 1.1422002
000050 ad 39 87 3f 7e 92 8f 3f 82 d3 3f 3f 11 67 6e 3f
       1.0564476 1.1216581 0.7493211 0.93126017
000060 fc 3c 97 3f 7d 33 89 3f 54 e9 8d 3f 26 60 92 3f
       1.1815486 1.0718838 1.1086831 1.1435592
000070 a1 e4 8e 3f 1d 67 91 3f 49 20 7b 3f ce 39 92 3f
       1.1163522 1.1359593 0.9809614 1.142389
000080 a1 42 8e 3f da ed 7f 3f e4 3f 4b 3f b1 bf 98 3f
       1.1114084 0.9997231 0.79394364 1.19335
000090 3a bc 6d 3f 17 54 45 3f 98 0d 92 3f fb bb 91 3f
       0.92865336 0.77081436 1.1410398 1.1385492
0000a0 55 20 63 3f 5c 0f 94 3f 00 4e 56 3f fc d3 77 3f
       0.8872121 1.1567187 0.8371277 0.9680784
0000b0 d9 47 82 3f b4 61 83 3f 76 b3 8f 3f 38 8e 93 3f
       1.0178176 1.0264192 1.1226642 1.1527777
0000c0 38 fa 90 3f 25 86 8b 3f 4e 1e 7e 3f cb 8c 92 3f
       1.1326361 1.0900313 0.9926499 1.1449217
0000d0 54 80 84 3f 82 85 73 3f 53 3d 80 3f 6b aa 82 3f
       1.0351663 0.9512559 1.0018715 1.0208257
0000e0 6a 01 54 3f f6 29 8b 3f c0 81 74 3f 83 d6 1f 3f
       0.8281466 1.087218 0.9551048 0.62436694
0000f0 db aa 8e 3f 3e bd 89 3f d4 34 78 3f 29 ff 47 3f
       1.1145891 1.0760877 0.9695561 0.7812372

gamma f4 [64, 64]
000000 61 ac 9b 3e e0 82 04 3c 60 63 c3 3b e7 7c 48 3c
       0.30404952 0.008087844 0.005962774 0.01223681
000010 c0 45 a6 3c 24 29 61 36 bf c0 88 3c 4b 94 c5 36
       0.020296931 3.355156e-06 0.016693471 5.888321e-06
000020 3d 6f f9 36 89 03 cf 3a 77 c7 84 3b 2d 36 92 3c
       7.433728e-06 0.00157939 0.0040520984 0.017848099
000030 85 d4 97 3c 22 8f 34 3c 7b 6a 8e 3c d6 fe 92 3b
       0.018533954 0.011020454 0.017384758 0.004485945
000040 2b 9f 76 3c 20 b9 f6 36 31 75 27 3a fa 3c 4e 3c
       0.015052597 7.3529227e-06 0.00063880073 0.01258778
000050 cd e1 65 3c 19 46 d3 3c 94 76 1c 3c 3e 36 83 b6
       0.014030886 0.025790261 0.009549756 -3.910419e-06
000060 83 be 3a 3c 09 88 b3 3c 00 7d 46 3c bd df d2 3b
       0.011397961 0.021915453 0.012114763 0.006435363
000070 22 27 8a 3c 3f 3f 98 3c 6b d3 b8 35 5c 62 ef 3c
       0.016864363 0.018584846 1.3770599e-06 0.029221706
000080 7d 92 a1 3c 10 70 8a 3c 16 41 c3 3c 92 c4 c1 3d
       0.019723171 0.016899139 0.023834746 0.09461321
000090 61 1f 7f 3c 6f 7f cf 3c 24 61 ce 3b 71 23 4a 3d
       0.015571446 0.02532932 0.006298201 0.049350206
0000a0 b7 91 42 ba e0 18 4c 3c 30 52 71 3c 44 bf ea 3b
       -0.0007422226 0.012457103 0.014729068 0.007163914
0000b0 67 10 b9 3c b1 a6 0e 3c e6 dc 92 3c d1 54 23 3e
       0.022590829 0.0087067345 0.017927598 0.15950324
0000c0 0f 4f 3c 3c 0a 79 08 3c 06 3b f3 3c a6 8d 8c 3c
       0.011493458 0.008329639 0.02969123 0.017157387
0000d0 5c 9e 90 3b 4c 74 13 3c 61 70 79 3a 4e f1 98 3c
       0.004413409 0.008999895 0.0009515342 0.01866975
0000e0 f9 1e 2a 3c 54 79 4e 3b 32 46 cb 3c 2c 35 c8 3c
       0.010383361 0.0031505423 0.024813745 0.024439417
0000f0 3e 5d b2 3c 0e 59 23 3d c8 34 0b 3d a4 f6 eb 3d
       0.021772977 0.03987985 0.033985883 0.11521652
000100 7f 8e c4 bb d5 16 8f 3e 1d df 82 36 25 03 17 3d
       -0.005998432 0.27947107 3.9002757e-06 0.036868233
000110 5f 71 f6 3c 78 f3 b3 3d f3 b9 cc 3c a2 09 b6 37
       0.030083356 0.08786672 0.024991011 2.1700576e-05
000120 22 87 2e 3d d7 0e a5 3d 27 9a 4e 39 74 13 f5 36
       0.04260934 0.08059471 0.00019703117 7.3038336e-06
000130 91 18 37 bc 1b be 9e 36 60 83 41 37 a7 f9 8d 3d
       -0.011175291 4.730898e-06 1.1534285e-05 0.06932383
000140 7a e7 cf b6 db 64 51 bc 34 75 5b 39 ae e3 15 3d
       -6.196028e-06 -0.0127803935 0.00020929129 0.036594085
000150 2a ec 18 3c 8c 05 bd 3d 7f fd 93 bb fb 18 62 b9
       0.00933365 0.092295736 -0.004516303 -0.00021562346
000160 43 7d 7d 3d 82 91 31 3e 14 5e be 36 ae 34 85 37
       0.061887037 0.17340663 5.6733934e-06 1.5879366e-05
000170 63 57 47 3c fd 30 65 3d a3 62 e5 3d b6 4a 90 b8
       0.012166831 0.055954922 0.11200454 -6.880371e-05
000180 74 fd 5d 3d a8 84 bb 36 67 12 ac 3c c4 ab 43 b7
       0.05419679 5.5884775e-06 0.021004869 -1.1662898e-05
000190 4b 87 47 bb a2 5a 62 3c a4 00 06 3a 67 16 4d 3c
       -0.003044563 0.013815554 0.000511179 0.012517548
0001a0 b8 af 10 3d e5 2e e6 3d 4b a7 69 37 c9 be 00 37
       0.03532383 0.11239413 1.3926833e-05 7.673815e-06
0001b0 82 96 4b 3d fb ce 07 37 13 43 2a 3d 9d d3 4c 36
       0.049704082 8.094818e-06 0.041567873 3.0521544e-06
0001c0 89 8c ab 3d 17 03 bb 3a 60 8a 0b 3e 38 89 d5 3c
       0.08376414 0.0014267889 0.13627005 0.026066408
0001d0 13 e4 50 3d e0 da f2 3c ac 28 f3 3b 0b c7 1f 3e
       0.05099876 0.029645383 0.00742062 0.15603273
0001e0 2e b4 15 3e a5 53 a6 3c fd 05 ef 36 e9 fc b1 3b
       0.14619514 0.020303557 7.123452e-06 0.0054317606
0001f0 ca e6 c5 37 96 68 86 3d 17 c0 a1 36 73 d0 43 37
       2.35917e-05 0.06562917 4.820536e-06 1.1671439e-05
000200 f8 24 1c 3c a3 cc cb 3d a9 80 ad 3e f8 a0 28 37
       0.009530298 0.09951141 0.33887222 1.0051059e-05
000210 2c 34 f7 3d 7f aa c2 3d b5 88 25 3e 44 a5 49 3e
       0.12070498 0.09505176 0.16165431 0.1969195
000220 6e ba 03 3c e2 08 70 3d 3e 16 ac 3c c2 dc 30 3d
       0.008040054 0.05860222 0.0210067 0.04317928
000230 db eb 9f 3b 3f dd 8f 36 f7 e0 69 36 50 81 68 3b
       0.004880411 4.2874885e-06 3.4850652e-06 0.0035477467
000240 ce c8 c0 3d d8 14 85 36 d2 b0 87 3b 87 ac 2c 3e
       0.094133005 3.9661354e-06 0.0041409517 0.16862689
000250 f6 b3 26 3e 6b ed 08 3c 56 33 6f 36 71 9e 6b 37
       0.16279587 0.008357386 3.5643657e-06 1.40439815e-05
000260 53 9a bc 3c 50 2b 54 3e a9 5d 1c 3d f6 c0 84 3d
       0.023022806 0.20719647 0.03817526 0.06482117
000270 ab 8d d1 3d 89 2e 14 3e 3f b7 2f 3d c6 21 68 3c
       0.10232099 0.14470877 0.042899366 0.014168208
000280 d9 39 0f 3e 85 e5 ae 3c 8c 4f c6 3d 02 78 b3 3d
       0.13986911 0.021349678 0.09683141 0.08763124
000290 a9 3c 9f 3c 9b 6f 43 3d ea 86 57 3d d8 2b 8a 3d
       0.019438105 0.047713857 0.0526189 0.06746644
0002a0 b4 66 57 36 83 95 1a 3e f0 92 a6 3d 6d 11 44 3d
       3.2097278e-06 0.15096097 0.08133495 0.04786818
0002b0 6f 3d 2a 3e 82 d6 b6 3d 25 1d 22 3e 24 8f de 3d
       0.16624998 0.08927633 0.1583143 0.10867146
0002c0 9b 28 5c 3e 5b f3 95 3d 12 7f 42 3d 28 64 2d 3e
       0.21499865 0.07321807 0.047484465 0.16932738
0002d0 6f 1d e3 3d cf 80 02 3c 3d bc d1 3c 24 b1 09 3d
       0.110895984 0.007965281 0.025602454 0.0336162
0002e0 c3 ab 50 3d c2 39 bc 3c bc e2 6a 3c 2e 29 e1 3d
       0.050945055 0.02297676 0.014336284 0.109941825
0002f0 26 f3 23 3e f9 0c 36 3e e9 2d 41 38 a5 05 07 35
       0.16010723 0.17778386 4.6057543e-05 5.0299633e-07
000300 27 40 a8 3c db 5b 91 36 d4 42 60 3d f1 33 9e 3e
       0.020538403 4.33203e-06 0.054751232 0.30899003
000310 32 75 2d 3d d6 5e 77 3d 85 67 00 3d 42 e3 d4 35
       0.042348094 0.060393177 0.031348724 1.5861372e-06
000320 ca 49 f8 3d 91 74 26 36 3f 6c 8b b6 db 78 d1 36
       0.12123449 2.4803778e-06 -4.1551243e-06 6.242755e-06
000330 91 64 65 bc e4 7d 0d 3e 5d 6f 39 3d 14 86 61 3b
       -0.014001028 0.13817555 0.04527222 0.0034412192
000340 60 5d 56 3d ae 30 71 bc a6 b6 ff 3d ab 09 f7 3c
       0.052335143 -0.014721079 0.12486009 0.030155977
000350 4e 49 e3 3c 97 e8 b2 3d e2 f6 af 36 69 94 42 3d
       0.027744915 0.08735769 5.2441474e-06 0.047504816
000360 fb ae 89 3d 10 a2 99 3b 53 5b 89 b5 89 a0 d0 3b
       0.06722828 0.004688509 -1.0233874e-06 0.0063667935
000370 d0 ea bc 3b cd 17 2b 3d 89 c9 33 3c f7 7c d6 3c
       0.0057652965 0.041770745 0.010973343 0.026182635
000380 53 d8 50 3d 02 4d fd 34 33 39 a5 3d 95 d5 12 38
       0.050987553 4.7180953e-07 0.080675505 3.5008026e-05
000390 a8 4f 37 bb 3d e8 14 3d d3 cb b0 3d 94 21 fe 36
       -0.0027971063 0.036354292 0.086326264 7.573699e-06
0003a0 1c 15 84 3c f5 d9 54 3c bc 9d 6f 35 bf 4f 6a 3d
       0.016123347 0.012991418 8.926397e-07 0.057204958
0003b0 43 78 00 3a 26 1f 32 3c df 12 01 3d 6f 13 f2 b6
       0.0004900733 0.010871684 0.031512138 -7.2144244e-06
0003c0 bb c3 80 b8 12 e5 5c 3d 5f 54 ff 36 78 c2 f6 3c
       -6.139973e-05 0.053929396 7.6094143e-06 0.030122027
0003d0 84 81 13 36 97 f5 c8 3c cf 57 f0 3a 20 f9 46 3c
       2.1980095e-06 0.024531169 0.0018336716 0.012144357
0003e0 57 4f 6a b8 9e 73 c1 3d 55 b5 02 36 ec 57 62 3d
       -5.586384e-05 0.0944588 1.9477059e-06 0.05525963
0003f0 d3 64 f9 3a ed 86 c2 3c 27 2c 8b 35 bb 4b 84 3d
       0.001902724 0.023745978 1.0369157e-06 0.06459757

beta f4 [64]
000000 a5 41 94 3f c7 17 8f 3f f2 df 96 3f 74 4f 93 3f
       1.1582533 1.1179131 1.1787093 1.1508622
000010 29 fe 7c 3f fd 5c 95 3f fc 17 8d 3f 64 75 8e 3f
       0.9882532 1.1669003 1.1022944 1.1129575
000020 2f 63 6c 3f 29 b7 8f 3f af 92 73 3f 77 55 87 3f
       0.9233884 1.1227771 0.95145696 1.0572957
000030 df d9 81 3f 75 cc 94 3f 16 d2 83 3f 68 f8 90 3f
       1.0144614 1.1624895 1.0298488 1.1325808
000040 7a a6 87 3f 25 43 90 3f ab ab 8d 3f 5e c6 90 3f
       1.059768 1.1270491 1.1068014 1.1310537
000050 86 10 95 3f fb 0c 8e 3f 43 57 8b 3f 37 39 80 3f
       1.1645668 1.1097711 1.0886005 1.001746
000060 1b 67 8f 3f 4c e4 8d 3f 3d 2c 88 3f c6 61 8d 3f
       1.120334 1.1085296 1.06385 1.1045463
000070 c9 dd 8f 3f ae 65 82 3f 27 b0 8b 3f 87 f9 88 3f
       1.1239558 1.018728 1.0913132 1.070115
000080 57 b6 89 3f c8 7f 88 3f 9d da 8c 3f f5 b5 8a 3f
       1.0758771 1.0663996 1.1004215 1.0836779
000090 48 48 8e 3f a5 72 8d 3f b5 69 87 3f 1a 0c 89 3f
       1.1115808 1.1050612 1.0579134 1.0706818
0000a0 17 75 8b 3f 34 d1 82 3f 54 e0 85 3f 38 6c 93 3f
       1.0895108 1.0220094 1.0459085 1.1517401
0000b0 3a 4e 84 3f 4f dd 7e 3f c4 b7 8b 3f 6e 08 8a 3f
       1.0336373 0.9955644 1.0915456 1.0783823
0000c0 7d c1 84 3f 95 f5 81 3f cd c9 90 3f f3 eb 8c 3f
       1.0371548 1.0153071 1.1311585 1.1009506
0000d0 bf 80 8a 3f 17 35 89 3f 21 22 8b 3f 6d 40 8d 3f
       1.082054 1.0719327 1.086979 1.1035286
0000e0 19 42 8a 3f f5 20 80 3f 4f cf 93 3f 1f 88 92 3f
       1.0801421 1.0010058 1.154764 1.1447791
0000f0 ed bd 8c 3f 9f 53 88 3f f8 3c 88 3f 00 85 87 3f
       1.0995461 1.0650519 1.0643606 1.0587463
