models/decNet_16.pkl (torch_old, 104282 bytes, 17 tensors)

weight f4 [32, 1, 5, 5]
00000000: 0831 c2ba ea84 53bc 3e81 e33a e6de 843c
00000010: 0d7e 5a3c e1e3 213c 0208 f8bb 07bf 33bd
00000020: 2cc3 35bd fdaf bc3a f895 073d 5e03 01bc
00000030: dc7f a9bd 2f09 e0bd a4dd fcbc fbb2 a63c
00000040: 7cf3 5abc bebd 98bd 83fa b6bd 1040 0ebd
00000050: 3c45 853b cbfe 843b cb61 00bd 52ca 00bd
00000060: efb2 52bb b456 a23c 0cc0 2c3d ae0c 93bd
00000070: 5768 c6bb ceb0 963c 09fc 223d d9a7 38bd
00000080: 62bb 58be a1ff 993d f952 353e f347 a5bb
00000090: cd49 e4bd e501 5fbe 06a5 ef3d 9a96 7e3e
000000a0: cdf8 79bc 66a5 7abd 1dc8 35be fdf8 243d
000000b0: 2e0b 3c3e 94f2 22bb a465 09bd c1cd 8dbd
000000c0: 23a2 d23c 771c 523d 8116 11bc 00ec 5bbd
000000d0: 9703 8abd b91f a73c c2ea 803c 6d61 06bd
000000e0: 3c5b e7bd 9c4f d9bd 39e9 103d 8b24 ba3c
000000f0: f240 383b a148 86bd 8eb0 c8bd fbad 6a3d
00000100: 5442 b73d d38b 1e3d d080 2ebb 8bce 86bd
00000110: b2db fe3c bbf3 503d a225 273d 836f fd3c
00000120: 6e93 7dbc ad0f 283c 9d10 cb3b ae61 873a
00000130: 504f 513d c306 a43d 2aa4 073d 5761 76bc
00000140: 6e84 cb3c b9d8 b73d 9fb8 ca3d 72b6 423d
00000150: 1fe2 333c ff23 653a 04de d33c dc68 aa3c
00000160: 522a e7bc 6289 583b 9b90 39bd a2f2 89bd
00000170: 223d bbbd d7e9 b8bd 047c e5bc e459 63bc
00000180: cdd2 4cbd 1c88 78bd 2433 2ebd 7b36 c93a
00000190: 5c01 2a3c e465 2bbd 22fe edbd 1f3e bbbd
000001a0: d363 2ebc 0117 9cbc f964 2cbd a88b 0abc
000001b0: 9aeb 42bd af9e 93bd 6054 bdbc 40c2 b83d
000001c0: 2b85 793e fd13 3b3e 716c b03c f6de 15bd
000001d0: 2ec3 bc3a f716 8c3d 51ed 183d 172a 97bc
000001e0: 6ba2 13bc f70f a2bb cc4f 1dbd ead0 53bd
000001f0: 38d2 70bc 827f 20bd 4935 2a3d d111 883d
00000200: 0a74 293d 0856 c83c 7cdf 0c3e 31ff dbbb
00000210: 0848 003d 87dd f53d de1f 3cbd e253 043d
00000220: 5590 113e 04c1 363e b77c 3d3e ddba d73c
00000230: 0255 fdbc cdda 313e f863 733d 9006 62bd
00000240: 7aad a6bd 5876 27bd 1007 903d d422 b63c
00000250: d2e6 a03c 7bd4 31bc 0e26 f63a 87a2 afbc
00000260: 8761 32bd f100 1dbd 60c7 9abc 36b1 83bc
00000270: 0caa cdbd 05fd 05be 384c e6bd 34bd 56bd
00000280: b695 c9bc 87a9 04be 267c 4fbe 323a 36be
00000290: 92fe bbbd 7780 89bd f9a2 f3bd 0e42 40be
000002a0: 5ec4 22be d725 76bd 63ae 81bd 4891 91bd
000002b0: 111a bdbd 3214 a1bd 850f 75bc d86b 26bd
000002c0: f76c 053d 4f64 9f3d b7d0 f5bb c903 0cbd
000002d0: a345 ccbc c21e 3d3b c115 453e 33ae 4a3d
000002e0: 4e25 01bd 1b90 31bd fc36 0cbd 26d2 4b3e
000002f0: 023f 453d 1f60 4fbd 2fa8 7dbd 70e6 c0bd
00000300: f8c8 a83d ebae 92bd 818e 01be 28ce 40bd
00000310: cb7e 8dbd 7baa b73d 3d87 ebbb f2a1 61bd
00000320: 36fa 96bd f2d7 ddbd ac4b b0bd f72e 8a3d
00000330: 3510 b13d 7668 a7ba 0ea6 0ebb d682 14be
00000340: 499e 8fbd 192e cf3c c41c 393e 7eb7 303e
00000350: 680a 10be 9b0b 45be ff9c 81bd 4bf2 193e
00000360: 26f8 433e 9d6f 34bd f7fc c0bd 1bab 49bd
00000370: 59d3 aa39 6a99 d83d a1bd 673d 168b cabc
00000380: c4f0 10bc dcdd c5bb 3f65 f0bb bdc0 febc
00000390: f8ff 17bd 607e 34bd da60 5abd ee44 d6bd
000003a0: 4eb0 c9bd 4255 e7bd d5c9 94bd b17b 4dbd
000003b0: e806 f3bd dd1a 9ebd ed88 e8bd 6167 0ebd
000003c0: dd49 c9bc 40c7 74bd 9486 e8bc 79ba 90bd
000003d0: 684d e0bc d0ae f9bc 1cd0 2cbd bdbb 733b
000003e0: 3c80 51bc 253d 00bc fad6 e73b 8cb5 293d
000003f0: 7387 973d 3d40 683d fd7e 573c 98d4 d93c
-0.0014815638 -0.012910107 0.0017357243 0.016219568 0.013335717 0.009880991 -0.007569314 -0.04388335
-0.044375584 0.001439571 0.033102006 -0.007874338 -0.0827634 -0.10939252 -0.030867405 0.020349016
-0.013363715 -0.074580655 -0.089345 -0.034729064 0.0040670913 0.004058694 -0.031343263 -0.031442948
-0.003215011 0.019816734 0.042175338 -0.07180153 -0.0060549187 0.018394854 0.03979114 -0.045081947
-0.21165231 0.075194605 0.17707433 -0.0050439774 -0.11146889 -0.21778066 0.117013976 0.24862137
-0.015257073 -0.061192892 -0.17752118 0.040276516 0.1836364 -0.0024863826 -0.033544198 -0.0692401
0.025712078 0.051296677 -0.008855463 -0.053691864 -0.06738966 0.020400869 0.015736941 -0.032807756
-0.112966985 -0.106108874 0.03537867 0.022722503 0.0028114882 -0.065568216 -0.097993 0.057294827
0.08948198 0.038707566 -0.0026627071 -0.06582364 0.031110618 0.05101369 0.040807374 0.030936962
-0.0154770445 0.010257644 0.006197049 0.0010328793 0.05110103 0.08009102 0.033115543 -0.015037856
0.02484342 0.089768834 0.09898495 0.047537275 0.010979204 0.00087410206 0.025862701 0.020801954
-0.028218422 0.003304087 -0.045303922 -0.06735732 -0.091425195 -0.090289764 -0.028013237 -0.013876412
-0.050005723 -0.06067668 -0.04252924 0.001535132 0.010376301 -0.041845217 -0.116207376 -0.09142708
-0.010643917 -0.019053938 -0.042088483 -0.008456148 -0.04758797 -0.07208001 -0.023111522 0.09021425
0.24367206 0.18269344 0.021536084 -0.036589585 0.001440143 0.06840318 0.037335698 -0.018452687
-0.009010891 -0.004945751 -0.03840618 -0.051712908 -0.014698558 -0.0391841 0.041554723 0.06644023
0.04137043 0.024455085 0.13757128 -0.006713771 0.031318694 0.120051436 -0.04592883 0.03230656
0.14215215 0.17847067 0.18504606 0.02633422 -0.030924324 0.17368622 0.05942151 -0.05518204
-0.08138557 -0.040884346 0.07032597 0.022233404 0.019641314 -0.010853882 0.0018779652 -0.021439804
-0.04355004 -0.038330976 -0.018893898 -0.016075712 -0.100421995 -0.130848 -0.11245006 -0.052426532
-0.02460752 -0.12955295 -0.20262203 -0.17795637 -0.09179415 -0.06713956 -0.11896319 -0.18775198
-0.1589522 -0.06009468 -0.0633209 -0.07107788 -0.092334874 -0.0786518 -0.014957313 -0.04063019
0.03257462 0.07782804 -0.0075016874 -0.034183297 -0.02493555 0.0028857444 0.1924658 0.049482536
-0.031529717 -0.04335032 -0.034232125 0.19904384 0.048155792 -0.050628778 -0.06192797 -0.094189525
0.08241457 -0.07162269 -0.12652017 -0.047071606 -0.069089495 0.089680634 -0.0071877525 -0.055086084
-0.07371943 -0.10832204 -0.08608183 0.06747239 0.08645669 -0.0012772221 -0.0021766457 -0.14503035
-0.070126124 0.025290536 0.1807738 0.17257497 -0.1406647 -0.19242708 -0.06328773 0.15033834
0.1913763 -0.044051755 -0.09423249 -0.049235445 0.00032582393 0.105761364 0.05657733 -0.024724524
-0.0088464655 -0.0060384106 -0.007336288 -0.031097764 -0.037109345 -0.044065833 -0.05331502 -0.10462366
-0.098480806 -0.112955585 -0.07265059 -0.05016679 -0.11866552 -0.077199675 -0.113542415 -0.03476656
-0.024571354 -0.059760332 -0.028384484 -0.07066817 -0.02738066 -0.030478865 -0.042190656 0.0037190758
-0.012786921 -0.007827078 0.0070751878 0.041432902 0.07398882 0.056701887 0.013152835 0.02659063

weight f4 [32, 32, 2, 2]
00000000: 797b 013e fe2f 62bc a02d 8fbd d256 b63c
00000010: 3cbf 73bd bcf5 bfbd 0f4b 0e3d 520d 0aba
00000020: 833c 81bd 7685 073e b82f 213d 1aab d63c
00000030: 34b9 8e3e edc5 9ebd dd5b 1cbd bde2 2b3e
00000040: 3e63 5b3d efd0 d93d 1ebc c43d 8bec 223e
00000050: a506 2e3e bf53 0b3d 51e0 b03d be36 a13d
00000060: 2311 1cbd 1ab3 063e 80c9 843d cb34 ea3d
00000070: 26a6 383d 0222 bf3d 7871 b93c 0aca 803d
00000080: 7b8e 0d3d 0a55 88bd 87f5 1dbe ed04 523e
00000090: 9fb4 513d 37b2 aabc 063c 04be 2c46 903d
000000a0: 461b 5ebe 1a9c 6d3e 4924 473d 00ed 38be
000000b0: de31 92bc b662 5c3d 1b6c aa3d 0db9 87bd
000000c0: a89e 5a3e caed 6c3e 9dea a23c 6b91 cdb8
000000d0: dc9a 31be 86bd 833e de1f a73d bb68 abbc
000000e0: 90d1 3e3c fa1a 90be 3bf2 a3bd 18df f73a
000000f0: 9789 dcbd cb44 083b b2b1 25bc 12f8 6d3d
00000100: d3a8 3d3e 136e be3c ef39 e4bc 348c 043c
00000110: 632c 7bbe 55fe 123e 6f29 7a3d 082a e5b7
00000120: 6f4a adbc dba7 abbc ecec 5a3c 12c6 f13c
00000130: aeb8 b4bc 0d79 0abd 8d67 cdbd 8097 103e
00000140: f657 833e 2765 cbbd d6ac 29be 3eef 9a3d
00000150: 7c9f 4c3e a01f a4bd ac0e ac3d a74e ab3b
00000160: 5d5e 69be 0af5 ad3d f43f ab3d 1c08 023d
00000170: ca66 d4bd 099d e5bd f2a3 36be 5d6e bd3d
00000180: 91b9 febb 1b6c 583e 56ae 5bbc 15c2 e13d
00000190: afad 43bd b76f 933d a054 61bd 1921 f9bc
000001a0: ac33 1b3e 0c98 653e c509 b23d 35a4 143e
000001b0: fac8 8dbb 7290 5d3e bf3c 073e 2887 093a
000001c0: 4b6f f6bd f02b 2a3e 5a6f d9bc 9d18 6f3d
000001d0: c255 93bd ff7c 86bc e100 17bb 3844 4ebd
000001e0: 1b9f 043e dd1e 523d 55ce a23d 12d8 ae3c
000001f0: d496 0b3d 7798 b5bd 17f2 59bd f10e 223e
00000200: d4ce 06be 2618 be3d 0589 ba3c 0ef3 a1bd
00000210: a412 963e b64b 203d fe7e 7b3d 5d82 73bd
00000220: 3e7d ab3e 9b6a 733b cff6 7fbd 6f5b 713d
00000230: fb3d eabd bde3 e43d 532c fbbb 4323 8abd
00000240: 7d4c 8d3d d76a c63d 3187 d23d 8345 c93b
00000250: d44d 163e 65ac a93d 59ec aa3c 2809 5c3d
00000260: b44f 013e 36e0 d3ba 22bb 00bb 35a8 9cbc
00000270: d142 123d 2728 3a3d e9f4 96bc 9cd9 ffbc
00000280: 0262 eebd c099 e53d 4a3d b93c 96b0 59bd
00000290: bfd2 88bd 6b79 ed3d fd37 1d3d 3d90 4e3c
000002a0: c099 d83e 66b3 113d f131 af3c bd04 063e
000002b0: 58e4 e83d f02d adbd fceb 553d 528d 953d
000002c0: 2160 1b3b 15dc db3c 9e31 17bd f44a 233d
000002d0: 9693 153e e91d 513d 19b2 7d3c 2cf3 813d
000002e0: e061 fabd bc1d ad3c b41e f5bc 3b3b 20bc
000002f0: 2c32 0a3e a75a cf3d 482d d33b 3e7f adbc
00000300: e764 fb3d 5753 b5bb 7dc8 8bbc 1f4d e7bc
00000310: b9ad a7be 1786 123e 3373 e8bd 16a9 a23d
00000320: 684c 263e 11cb 69bd b4dd 9a3d d93c efbc
00000330: faa0 633d 1c3a 093e c6f0 16bd a8b3 3b3d
00000340: 2ef1 3bbd 8b51 303e 94b3 813d 7852 61bb
00000350: 3dcf eb3d cb3c 5bbd dcdf 47bd 8eb1 2a3d
00000360: 35c3 68be 27df b33d 97c3 7f3b 8683 db3d
00000370: 2b89 1b3e 1f97 7ebe 9a38 07bd 4399 0abe
00000380: c5a5 573d f1e8 b73e 3053 57bd d55c 89bd
00000390: 044d 8cbe 6a34 dcbd a389 74bb dd69 6f3d
000003a0: cd9e febb bdd3 5c3e 6c70 ac3d e034 adbc
000003b0: af46 2b3e a3c3 ecbd 0924 6abc 13f5 2ebd
000003c0: 34f4 0d3d 3fc0 b8bd 614f 873d 3857 65bd
000003d0: fd0c ebbc 68d8 de3d 5302 933d de2c fdbd
000003e0: f585 903e 27d4 7d3e ecee 8f3d 8d8f 36bd
000003f0: dd47 0cc0 92f3 863c ade8 963d 36e0 03bd
0.12644757 -0.013805388 -0.06991124 0.022258196 -0.059508547 -0.09373042 0.03473955 -0.0005266267
-0.0631037 0.13234505 0.03935215 0.026204634 0.27875674 -0.07752595 -0.038173545 0.16785713
0.05356144 0.10635554 0.09606193 0.15910546 0.16994722 0.034015413 0.08636535 0.07871769
-0.03810228 0.1315426 0.064837456 0.11435851 0.045080326 0.09332658 0.022637114 0.06288536
0.034559708 -0.06656845 -0.15425692 0.20509692 0.051197644 -0.020836933 -0.12913522 0.07044634
-0.21690091 0.2320408 0.04861859 -0.18059158 -0.017846044 0.053805076 0.08321401 -0.066270925
0.21349585 0.23137584 0.019887263 -9.802248e-05 -0.1734423 0.25730532 0.08160375 -0.020923963
0.011646643 -0.2814558 -0.08005186 0.0018911092 -0.10768431 0.0020792957 -0.010113167 0.058097906
0.18521433 0.023245847 -0.027859656 0.008090068 -0.24528651 0.14354832 0.06107467 -2.73185e-05
-0.021153657 -0.020954063 0.013362151 0.029513393 -0.022060718 -0.03380685 -0.10029516 0.14120293
0.25653046 -0.09931403 -0.16569838 0.07565163 0.19982713 -0.080138445 0.08401236 0.005227882
-0.22789903 0.08494003 0.083618075 0.031746015 -0.10371168 -0.11211593 -0.17835978 0.09249566
-0.007773586 0.21134989 -0.013408264 0.11023346 -0.04777306 0.07199042 -0.055012345 -0.03041129
0.1515643 0.22421283 0.0869327 0.14515765 -0.004326937 0.21637133 0.13206767 0.0005246275
-0.12032946 0.16618323 -0.026542354 0.058373082 -0.071940914 -0.016417025 -0.0023041295 -0.050358027
0.12951319 0.051298965 0.07949511 0.021343265 0.034079388 -0.08866971 -0.05320939 0.15826012
-0.13164836 0.0928195 0.022770414 -0.07907687 0.29311097 0.039134704 0.061400406 -0.059450496
0.3349399 0.00371424 -0.062491234 0.05892509 -0.11437603 0.1117625 -0.007665196 -0.06745007
0.068993546 0.09688347 0.10279692 0.0061423196 0.14678127 0.08284835 0.020864652 0.05371967
0.1262806 -0.0016164843 -0.001964279 -0.019123176 0.035708252 0.04544845 -0.01842733 -0.031231694
-0.11639787 0.11210966 0.022612233 -0.05314692 -0.066808216 0.11595424 0.038383473 0.012607631
0.42304802 0.03557148 0.021386119 0.13087745 0.11371678 -0.084560275 0.052227005 0.07302345
0.002370842 0.026838342 -0.036912553 0.039866403 0.14607081 0.051053915 0.015484356 0.063452095
-0.122256994 0.021132343 -0.029921867 -0.009779747 0.13495702 0.101247124 0.006444607 -0.021178838
0.12275105 -0.0055336165 -0.017063374 -0.028235016 -0.32749727 0.14308964 -0.113500975 0.07942407
0.16240084 -0.057078425 0.07561818 -0.02920382 0.05557344 0.13401073 -0.036850713 0.04582563
-0.045884304 0.17218606 0.0633308 -0.003438143 0.11514137 -0.053524774 -0.048797473 0.041673236
-0.22730716 0.08782797 0.0039026493 0.107184455 0.15189044 -0.24862336 -0.033012964 -0.13535027
0.052648325 0.35919908 -0.05256957 -0.067071594 -0.27402508 -0.10752185 -0.0037313483 0.05845057
-0.0077703954 0.21565147 0.0841988 -0.021143377 0.16726182 -0.11560752 -0.014290818 -0.04271419
0.03465672 -0.09021043 0.06606937 -0.05599138 -0.028692717 0.1088112 0.07178178 -0.12362073
0.282272 0.24787961 0.070279926 -0.044570494 -2.1918862 0.016473565 0.07368598 -0.032196246

bias f4 [32]
00000000: 98fd 55bd c1a6 623b 8e25 a8bd 5f71 853d
00000010: 7a6b 32bc b92e a23d 231e 943d 03ef de3a
00000020: a011 e3bd 4c6e 07bd ce2b 133c ef6f bb3d
00000030: 9130 42bd 12cc ae3c aa91 a33c 4fc1 d8bd
00000040: c5eb 9abc 5584 373d 3225 efbc 7b8e 87bc
00000050: acd8 73bc 034c 60bd 652e 7e3d eddc bcbc
00000060: d537 2ebd b8ab b0bd 8f9d d2bc d3ab 96bc
00000070: 02c6 b03b 221f 74bd e9c9 94bc 828a 093d
-0.0522438 0.0034584256 -0.08210288 0.065157644 -0.010889882 0.07919068 0.072323106 0.0017008487
-0.11087346 -0.03306417 0.008982612 0.09152209 -0.047409598 0.021337543 0.019966919 -0.10583746
-0.018911252 0.044803936 -0.02919254 -0.016547432 -0.014883202 -0.05475999 0.062055964 -0.023054564
-0.042533714 -0.08626503 -0.025709895 -0.018392479 0.005394698 -0.059600003 -0.018162685 0.033579357

weight f4 [32, 32, 2, 2]
00000000: bb38 42be 60a8 43be 52a9 da3d 57ba bf3e
00000010: 9ba0 8b3e 0dbe d4bc de6f ee3d c629 dbbd
00000020: ba4e eb3d 8905 553d 3d01 50bd b466 4fbd
00000030: 0dec 1fbc f31a e53d 5f85 16bd f1c7 d53d
00000040: 198a adbd aa0d 45bd c3fb dc3c 9aea c03c
00000050: 012f 983d fa43 143e fd33 cf3e bdbc 7d3e
00000060: 5a40 1a3e 4f98 103e 1010 323d 7728 5fbd
00000070: cc34 f9be 47ee 3bbe b0dc f4bc 14d5 543e
00000080: daf4 993d 8a2e 463c 59e5 17be fbea 4c3b
00000090: d3cb 09be 5621 5bbe af38 ad3e b0dc 76be
000000a0: 17a3 033d 4891 50bd 58d8 bb3d 5c06 813d
000000b0: 873b 993d d29e 3b3e da48 23bd 58a0 8d3e
000000c0: 0a69 5c3e 31d6 183d edf2 cdbd 6518 49be
000000d0: dce1 38be dee5 74be e22b c63c 49db 5f3d
000000e0: fab0 51be 0cfe a0be 181f 213e cfa2 7d3d
000000f0: 6097 b13d 6b3a a9be 33bc d83d 1778 83be
00000100: a805 15be 441a 613c 0807 503d a4b4 133e
00000110: ceae 81be a856 9d3e b129 6cbe 07f7 d1bd
00000120: d996 873e 5985 153e 28d8 4a3e 1c57 fabd
00000130: 58c9 763d 2aab 203e a06f 0abd 18a5 3f3e
00000140: 45a3 4c3d 19ff 1cbe 41bf b6bc c8a4 fa3c
00000150: 3517 e3bd 7bb2 a53d 60c8 55bd 9c6d 4c3e
00000160: 5545 23be 6fcf 38bd 156a 4d3e ba33 a3bd
00000170: 11ca 333d ea65 58bd a2f5 53bd 35ee b3bc
00000180: 3fdc ef3d d63b 503d c291 a5be 028f 163d
00000190: addc 50be 40f4 063d 382b dabd 2ee9 423e
000001a0: e242 0ebe fb09 ab3c 478e 733d 730f 1c3e
000001b0: 90eb 8a3e 057b 9a3e 2847 9ebd 1ec0 d73c
000001c0: 3a17 113b 275e 2a3d 8807 543e c681 143e
000001d0: 5bea 07bd c177 d33d c375 ce3b 6564 d83c
000001e0: 5ae2 1ebe dbf5 4ebd e57d 92bd fab1 c63c
000001f0: 5159 0e3e 78a9 eabd a762 8e3d 4522 19be
00000200: 7b71 9d3c 7e11 733b a0e7 f53d bba2 de3d
00000210: 8007 febd fcda 443e 1d03 30be c8a0 0cbe
00000220: a87f babd 04e9 abbd af97 71bd 45d5 c0bd
00000230: f837 833e 32b0 e33d ce3f 5f3e 6698 4c3e
00000240: 3c11 5dbe da06 c6be 81f0 7dbe 8a87 b3be
00000250: 3689 153e 50b4 ac3c 1285 233e 050d 163e
00000260: 22cb afbc b908 443d e6d0 49bd 926b 323c
00000270: 91ef f63d 6056 7e3d bedb 613d 186b 0b3e
00000280: 4d27 653d 9817 363e fd5e 4abe 4bb5 fc3d
00000290: ddc6 f7bb ead4 d7bd ee38 a23d 69cc 2d3c
000002a0: 9c25 a6bd 331d 983b 60ff 20be aa1f 28be
000002b0: 8a53 813d 5ab2 46be e26e e33c 12a0 2dbc
000002c0: 29f6 8fbd 5870 a4bc a56c 82bb 3ce3 3b3d
000002d0: 7771 56bc 8fa1 833e 3ef7 3b3c 0830 b33e
000002e0: 1a45 2b3c f166 023e 791e 413e 04cd 2f3e
000002f0: d669 4a3d 4e1f 0dba ebd7 e2bd 7450 fdba
00000300: b853 b33d 4c5f 08be 5bf5 00bc e028 b2bd
00000310: 6a22 8b3e 3b7c 9e3d ea66 a53d c2df f73d
00000320: cae6 8fbc cbbb 9e3d 90ba 1fbd 5ecb 7ebd
00000330: e807 043e 7570 6d3e 9b2e 283e 30a5 4b3e
00000340: 8669 183e cd3c 653e cf20 533d ab87 bd3d
00000350: da5a 2f3e e0d5 6d3d 6120 603e 52f2 463e
00000360: a312 01bd 45d1 48be 18a8 a53d c512 4a3d
00000370: 2fb8 d6bd f5a0 733e 7b42 37be 3006 f53d
00000380: 3646 0abe 8489 e0bc 2f58 82bd d50b afbc
00000390: 9fa3 023e 0e52 1cbe 039c 0e3e 15b6 293e
000003a0: 01de 243e d0ee 123e 7b72 433e 708b 4d3e
000003b0: a7b5 38bd 430b f2bd fc3d 62bd 4c47 87be
000003c0: 9729 653e dc59 143e 5b28 683e 2aca 423e
000003d0: c26a 4b3e 1049 1c3e c16b 803e 2869 173e
000003e0: 49d8 583c e3dd 663e 5057 b73d a4a5 6e3e
000003f0: f77d 8fbd 7755 543d 4f5f ddbd 8aa1 37bc
-0.18966953 -0.19107199 0.106768265 0.37446854 0.2727097 -0.02596953 0.11642431 -0.10701327
0.11489625 0.05200723 -0.05078243 -0.050635055 -0.009760869 0.11186781 -0.036748286 0.104385264
-0.08473606 -0.048108734 0.026975518 0.023549367 0.0743084 0.14479056 0.4046935 0.24779029
0.1506361 0.14120601 0.04347235 -0.05448195 -0.48673093 -0.18352614 -0.029890388 0.20784408
0.07517405 0.012096057 -0.14833583 0.003126799 -0.13456659 -0.21399435 0.3383231 -0.24107623
0.032137956 -0.0509198 0.09172124 0.06300041 0.07482057 0.18322304 -0.0398644 0.27661395
0.21524444 0.037313644 -0.100561 -0.19638212 -0.18054909 -0.23915812 0.024190847 0.054652486
-0.20477667 -0.31443822 0.15734518 0.061922844 0.086714506 -0.33052382 0.10582771 -0.2567756
-0.14552939 0.013739172 0.050787956 0.14424378 -0.25328678 0.30730176 -0.23062779 -0.10252195
0.26482275 0.1460165 0.1980902 -0.12223646 0.06025061 0.15690294 -0.03379786 0.18715322
0.049960393 -0.15331687 -0.022307994 0.030596152 -0.11088411 0.08090683 -0.052193046 0.19963688
-0.15944417 -0.0451197 0.20059998 -0.079688504 0.043893877 -0.052831568 -0.051747926 -0.021964172
0.117119305 0.050838314 -0.32337767 0.036757477 -0.20396681 0.03294778 -0.106527746 0.19034263
-0.13892701 0.020878782 0.059461858 0.15240268 0.27132845 0.3017198 -0.07728416 0.026336726
0.0022139088 0.041593697 0.20705998 0.1450263 -0.033182483 0.103255756 0.0063006594 0.02641506
-0.15516034 -0.050527435 -0.07152919 0.024254788 0.13901259 -0.11458105 0.0695241 -0.14954479
0.01921915 0.0037089284 0.120070696 0.10870882 -0.12403774 0.19224161 -0.17188688 -0.13733208
-0.0910638 -0.083940536 -0.058982547 -0.09415678 0.25628638 0.11117591 0.21801683 0.1998001
-0.21588606 -0.38677102 -0.24798776 -0.35064346 0.14603123 0.021082073 0.15968731 0.14653404
-0.021459166 0.04785988 -0.049271487 0.010889905 0.120574124 0.062094092 0.055141203 0.13615072
0.055945683 0.17782438 -0.19762798 0.123392664 -0.007561548 -0.10538657 0.07921015 0.010607817
-0.08112642 0.0046421527 -0.15722418 -0.16418329 0.06314762 -0.19403973 0.027762834 -0.010597246
-0.07029373 -0.0200731 -0.0039802366 0.045871004 -0.013088576 0.25709197 0.011472521 0.34997582
0.010453487 0.12734582 0.1885928 0.17168051 0.04941734 -0.0005383388 -0.11076339 -0.0019326345
0.087562025 -0.13317603 -0.007870997 -0.086992025 0.27174693 0.07738539 0.0807627 0.12103225
-0.017566103 0.077506624 -0.03899628 -0.062205665 0.12893641 0.2318743 0.16424029 0.19887233
0.14884004 0.22386475 0.05154496 0.09254392 0.17124501 0.058065295 0.21887352 0.19428375
-0.031511914 -0.1961108 0.08088702 0.049334306 -0.10484349 0.23791869 -0.17896454 0.11964071
-0.13503346 -0.027409323 -0.06364476 -0.021367947 0.12757729 -0.15265676 0.13926701 0.16573365
0.16100313 0.14348912 0.1908664 0.20072722 -0.045095112 -0.11818554 -0.055234894 -0.26421583
0.22379147 0.14487404 0.22671644 0.19022432 0.19864944 0.15262246 0.2508221 0.14786208
0.01323516 0.2254558 0.089522004 0.23305374 -0.07006448 0.051839318 -0.10809194 -0.0112079475

bias f4 [32]
00000000: b7ba ef3c b1b4 06bd b8b3 75bd f73f 1ebc
00000010: bbfd c4bc 8412 993b 284a b8bd ca27 b93d
00000020: 1da3 90bd 5927 d4bc 87e6 2cbd e30e 27bd
00000030: 70a4 54bc ef85 50bd 81a4 0cbd 563a 5a39
00000040: 62b7 8b3d 72ec 4e3c 77fd cbbd 0f0d 13bd
00000050: ec6b 33be 3c5a 653d 1213 3c3b a35b c7bc
00000060: 0b3d 883c e99b 1839 e6c5 563e c015 723d
00000070: 5a6d df3d 7f0f bd3d dac5 e03d 1c96 163d
0.029263837 -0.032887165 -0.059985846 -0.009658805 -0.02404677 0.0046713967 -0.08998519 0.09040792
-0.070623614 -0.025897669 -0.042212036 -0.04078568 -0.012978658 -0.05090898 -0.03433657 0.00020811832
0.06822087 0.012629615 -0.09960454 -0.035901126 -0.17521638 0.055994257 0.002869789 -0.024335688
0.01663067 0.0001455393 0.2097393 0.059102774 0.10909529 0.09231471 0.10975237 0.03676425

weight f4 [32, 32, 2, 2]
00000000: 37e6 663e 9c11 f73c 0e0a d63d da24 1ebe
00000010: d83a 8c3c 5f16 bd3b 53ae c33c 82cd b0bd
00000020: a6bc d5bd db3f 593d 7496 2a3e 1ceb 4b3c
00000030: 9b1d 833c b9a7 da3c 2548 f13c ccc6 4e3c
00000040: e4ae e23c ee17 6bbe 755b f6bd 2d38 4ebd
00000050: e021 c9bd 2e33 77bd 39d7 713e 93a4 f2bc
00000060: 445a 28bc 9a33 e03c 0021 76be ef08 863c
00000070: eda7 4fbd 6ed2 abbd 1bb7 643d dd52 5cbe
00000080: f3c0 babd 32e7 9c3d 34d1 ab3d 1fce 08bf
00000090: 5c8a 02bc b8dc 94bc d9c6 013d 0b76 463e
000000a0: 20ed 563d 431e 10be f4c0 183e cac1 9dbd
000000b0: f0d6 74bd c577 fabd e4cb 3fbe 5f0c 803d
000000c0: 0bb8 083e a711 79bd 9fe4 08be eb76 123f
000000d0: f6e6 553c 4b04 91bc 0d0e babe 0b98 32be
000000e0: 1519 d53d bb3c dabd e826 17bc c956 3d3d
000000f0: ea38 e0bc 958c 0f3d d82a f2bd afb8 473c
00000100: d722 183d 010b 44bd 3223 cb3d c6a5 6b3e
00000110: c5e3 aabc 56e9 113c 45af c3bc dac6 acbb
00000120: 0430 043d 264c 37bd ae47 fd3d 3d35 d83c
00000130: 7160 523d 473a d73d 1ce8 43be 2cc4 673e
00000140: de57 af3d 5e8a febb 8fce cdbd 1cb8 07bd
00000150: 8bb4 0f3e c904 05be aa35 873e 77f7 693e
00000160: 6000 44bc cdf4 d4bd 9c54 e53d 01e9 8ebe
00000170: bb58 37be fd99 30be dfef a03b 4cc0 f6be
00000180: 8496 bcbd 1d19 0abd 4377 a83c f921 b5bb
00000190: 5407 39bf fb25 6cbe 78e9 7dbd 4dc5 25be
000001a0: 3e46 713d d473 6d3d f59b e8bc 3250 d73d
000001b0: 7ea4 0ebd 6670 3e3e 9f36 003e 65d3 e5bc
000001c0: 8a29 f63d 1c9a 04bd 612c 653e 515f d33d
000001d0: b8e4 5d3d e541 e3bd 35a3 72be 7417 c9bd
000001e0: 3f43 74bd 76a3 c53d da7a 0d3e 2142 0a3e
000001f0: b536 b1be 93ec e5bd d7e2 3b3e cf9a c53e
00000200: eee0 a43d 42fd 3a3e 2c28 7e3d cb36 353e
00000210: c0dc d33d 3d03 c73c 2671 923d 4983 333c
00000220: bc6b e8bd bc67 01bd 141e 05be 41e1 ce3c
00000230: 2a7c 703d e650 a73c cfb3 903d ba35 973c
00000240: a225 563e 7ac6 a73d 7581 8c3d f4ea b83b
00000250: 051f c5bd cd6d ddbd b41a 123e 9921 463e
00000260: e7bf 5c3c 1324 1cbe 59b6 9bbc 524e 5e3c
00000270: 3702 723d c60d 89bc 8fd4 143e 1895 b9bd
00000280: 4ca4 74bd 135c 6abe 4ce5 64be 21dd a83d
00000290: 4ae5 2c3d ae03 80bc 21a9 3dbd 6eb7 ef3d
000002a0: 5efe abbd 0db2 96bd f041 333c 8323 29bc
000002b0: 69b5 993d fb00 5fbc f746 e8bc 1568 61bd
000002c0: 8690 053e 7594 d53d e924 dcbc 3887 9b3d
000002d0: 7248 9fba 27f2 343c 7869 263d c6ea 3bba
000002e0: 13bf d33e b928 bdbe 0a66 6fbe e953 943e
000002f0: 6d0c 00bf 4c8c 76bd 541c e53d 8b78 fc3d
00000300: 2f97 a53d 97bf 31bd dff0 72bd 0136 c7bd
00000310: c03f 463a 1387 ea3c b7cf 00bd f697 59bc
00000320: 19ec a7bd e462 c6bd 9d25 80bd 0b1c 28be
00000330: 208f 0fbc 6fbe ae3d abc6 46be 16b7 3a3e
00000340: 0cba df3c 2f1c 47bd 94ca 393d bcc9 e73d
00000350: 63f1 1fbd 7e45 5fbe 2a24 07be 784e e9be
00000360: 8791 3cbe 6b62 193d a749 293d 0d6c c13d
00000370: 9dc5 4abe 10c5 a8bd 19df a7bc 5df7 8abd
00000380: a168 5b3d 4283 b8bd ccdd b43d 01ee ea3c
00000390: 6c9b fbbc 3e65 a0be 2c6e b33e 68ae 933d
000003a0: 086a aabd 204e 17bb 9c26 8ebd 7d6c 61bd
000003b0: bb39 9abd 5e2c a5bc 3490 1bbf 0296 07be
000003c0: 14ff 123d c9df 023e d5e8 073d 5822 a43d
000003d0: 6cc4 0abe f341 1fbd e38d 403e 629b c33d
000003e0: 8782 c33d d8e1 913e 4922 01bd 6ada 023e
000003f0: e963 65be a493 90be 3112 20be 79b4 99bd
0.22548757 0.030159764 0.104511365 -0.15443745 0.017117903 0.005770489 0.023886835 -0.086329475
-0.104363725 0.053039413 0.16658956 0.012446191 0.016005328 0.026691305 0.029453347 0.012620639
0.027671285 -0.22958347 -0.12029163 -0.050346542 -0.09820914 -0.060351543 0.23617257 -0.02961949
-0.010275427 0.027368356 -0.24036026 0.016361682 -0.050697256 -0.08389746 0.055838685 -0.21515985
-0.091188334 0.076612845 0.08389512 -0.53439516 -0.007967558 -0.018171653 0.031683777 0.19380967
0.052472234 -0.14074044 0.14917356 -0.07702978 -0.059775293 -0.122298755 -0.18730122 0.062523596
0.13351457 -0.06080785 -0.13368462 0.57212704 0.013055554 -0.017702242 -0.36338845 -0.17440812
0.10405175 -0.10656115 -0.009225585 0.046225343 -0.027370889 0.03504618 -0.11824578 0.012190028
0.0371426 -0.047862057 0.09918822 0.23012456 -0.020860562 0.008905729 -0.023887286 -0.0052727284
0.032272354 -0.044750355 0.123671874 0.026392573 0.051361505 0.105091624 -0.19131511 0.22633427
0.08561681 -0.0077679595 -0.100491636 -0.033134565 0.14033715 -0.12990107 0.2640813 0.22848307
-0.01196298 -0.103982545 0.111977786 -0.27912143 -0.17904942 -0.17246242 0.0049114074 -0.48193586
-0.09208396 -0.033715356 0.02056468 -0.0055277315 -0.72276807 -0.23061363 -0.06199023 -0.16188546
0.05890488 0.05797179 -0.028394679 0.10513343 -0.03482484 0.18597564 0.12520836 -0.028054902
0.12019642 -0.032373533 0.2238021 0.103209145 0.0541732 -0.11096553 -0.23695071 -0.098189265
-0.059634443 0.09650318 0.13816395 0.13501789 -0.3461205 -0.112267636 0.18348251 0.38594672
0.080507144 0.18260673 0.06205003 0.17696683 0.10344839 0.024293536 0.071504876 0.010956594
-0.11348674 -0.03159307 -0.12999755 0.025253894 0.058712162 0.020424318 0.07065546 0.018458236
0.20912793 0.08192153 0.068606295 0.005643243 -0.09625057 -0.108119585 0.14267999 0.19348754
0.013473487 -0.15248136 -0.019007849 0.013568478 0.059084143 -0.0167302 0.1453421 -0.090616405
-0.059727 -0.22886686 -0.22353095 0.08245302 0.042210855 -0.015626755 -0.046303872 0.11704908
-0.08398126 -0.07358179 0.010941014 -0.010323408 0.07505304 -0.013611074 -0.028354151 -0.0550309
0.13043413 0.104287066 -0.026873069 0.0759415 -0.0012152328 0.011044062 0.040627927 -0.0007168468
0.41356716 -0.3694513 -0.23378769 0.28970268 -0.5001896 -0.06019239 0.11187044 0.12327679
0.080854766 -0.043395605 -0.059311744 -0.09727097 0.00075626 0.028628862 -0.031448092 -0.013280859
-0.08199329 -0.09686831 -0.06257174 -0.16416948 -0.008762151 0.08532416 -0.19411723 0.18233904
0.027310394 -0.048610862 0.04535921 0.11317775 -0.039048564 -0.21803853 -0.13197389 -0.4556768
-0.1841489 0.037447374 0.041330006 0.09444437 -0.19801946 -0.08240712 -0.020492123 -0.06785462
0.05356658 -0.090094104 0.08831367 0.028677942 -0.03071376 -0.31327242 0.35044992 0.07211
-0.08321005 -0.0023087338 -0.06940958 -0.055035103 -0.075305425 -0.020162757 -0.6076691 -0.13240817
0.035887793 0.1278068 0.03318103 0.08014363 -0.13551491 -0.038881253 0.18804125 0.09551121
0.095463805 0.28492618 -0.031526837 0.12778631 -0.22401394 -0.2823764 -0.1563194 -0.075051256

bias f4 [32]
00000000: b61c cdbd 0a2b 343c c592 16ba 8452 b0bc
00000010: 41c6 15be 9966 953d 0b02 ff3a e6ff 903d
00000020: 861b 7ebd b66e bf3d 64e8 493d 6e45 563e
00000030: 50bb 803c 97bc 0c3d b87e 94bd 10fb 5dbd
00000040: 26ae ba3c 1105 553d 38a9 9fbd f319 393e
00000050: 8d44 63bd e2bd 7dbd a3b3 6c3e 41d1 633d
00000060: 8873 b33d 190a c33d 54c0 043d ded2 b7bd
00000070: 0970 b1bc 67ba 593d ec64 82bc ef2e 57bd
-0.10015242 0.010996589 -0.0005743916 -0.021523722 -0.14626409 0.072949596 0.0019455565 0.07080059
-0.062037967 0.09347288 0.04929389 0.20924923 0.015714318 0.03435954 -0.07250732 -0.05419451
0.022788119 0.052006785 -0.07795948 0.18076305 -0.055485297 -0.061948664 0.23115401 0.055619482
0.0876227 0.0952341 0.03240998 -0.089757666 -0.021659868 0.053156283 -0.015917264 -0.052534994

weight f4 [32, 32, 2, 2]
00000000: 39d6 2dbe f761 3b3e 38ca a13d 31c7 b9be
00000010: 1905 8dbf 6b6a 39be 1de8 4cbd c6be 013d
00000020: 4664 2fbe b96e 3ebe 551f 1ebf 1b3d b1be
00000030: edc4 35bf 07aa 69bf cce0 de3b 52fa aa3c
00000040: 61fc 19bf c582 6dbf b561 44bf 7dc2 5cbe
00000050: a1c9 00bd 3366 983c f858 013d 2e50 df3b
00000060: 4737 403d 5bc6 803e 32db 91be fef9 043d
00000070: 1741 9f3d 7ce5 0d3c 18cf 57bc 68ad 35be
00000080: 5f6b 58be 0d30 b9be 9ac7 1ebe 35d0 43bf
00000090: c9d4 72be 01e4 493e f25e fbbc 8614 03be
000000a0: 8060 6f3d 1784 3bbe ec31 8ebe c845 0abc
000000b0: 97a3 a0be 2266 193b 9c52 e6bc 4e3d 48bd
000000c0: d5d2 943d 749c 493d 2bac d43a 090f e5bc
000000d0: 9335 84bf 93d1 8bbf b5dd 32bf 22ee 5bbf
000000e0: cbdf a6be a2f7 07bf 481d f9be c666 a7bf
000000f0: 3d33 29be 4dc1 783d 8abe 003d c20a 3f3d
00000100: 1639 3fbf 4545 02bf 4325 863d d8fb d1be
00000110: 979e 03bd 694f d9bc 3c79 dcb9 5160 12bc
00000120: bdff abbe 2118 acbd 8359 9cbe fd85 06be
00000130: c829 e3bd cb98 d7bd f3bc 28bd 4290 91bd
00000140: e231 00bd b371 6dbd a85d 2abd 8d4b 743d
00000150: 08bc 6cbd c69b 30bc 854a 13be b664 f3bc
00000160: 665e b13d bd8e 033d 680d d43d de88 6a3d
00000170: 6956 1dbf f9b0 50be d295 9fbe 370f adbe
00000180: a1b1 833d 35a3 97bd da50 03bf a01d d83d
00000190: 596d 2abe 82eb d9bc 0621 5ebb 1e5a d63e
000001a0: 0f27 00bf dd0e eabc 0d96 9fbe 2aac 3ebf
000001b0: a291 82be ef35 f8be 112f 55be 0d7e 23be
000001c0: cf64 5ebe 3575 893c 6e86 4ebd 535b ab3d
000001d0: 590a d2bf c877 4fbe 9e5c 833c c183 ddbd
000001e0: 40bb 143d 509f 253d ea10 a93d 3156 403d
000001f0: f9df 84bd 37ea 85bc f5ba f9bd e592 1ebe
00000200: 6744 0e3e 65a6 9cbe 37a2 613d 067c d03a
00000210: 2f60 e53d 26f6 7dbd 80d6 0ebc 30f1 e3bc
00000220: 16b2 863d 81c8 803d 6cf3 d9bd d10e d03d
00000230: 3e5a 5a3e 0906 833d d086 21be 7a92 623d
00000240: 51ed 8e3d 7270 7dbd 27bf 7c3c d1fd db3d
00000250: 0804 c13d de8b a73d 7229 963d 9933 ca3d
00000260: 176d 193e 3bf4 bebd 50c2 79be d704 753e
00000270: 8a1c e43c b862 d63c ac02 d83c bdc2 95bd
00000280: 877b c93d f169 493d 51f3 be3d 6f62 36bd
00000290: a7bc 3e3d 56fc a3bd c9cc 1e3d 02ae d8bc
000002a0: e874 823d 9c46 7a3b ea1b 713d a36b 7fbc
000002b0: 52e7 9a3d 464e df3b 0272 1f3d ad15 ea3c
000002c0: 799f 48bb 04ef 3b3d de72 3c3c f2cc 713d
000002d0: 0a61 113e 67f9 8a3d 777c a8bd 512c 35be
000002e0: 2713 e13d 4998 e93d 12d0 55bd 9d19 0e3e
000002f0: b273 9a3d e876 d0bd f1b2 8b3d 3662 98bd
00000300: f1e2 1f3e e45a e3be 09c6 913d 4ede f3be
00000310: 2ef6 ca3d f70c aa3d 3915 cd3d 9dd0 e93d
00000320: 3205 6dbd 208f 08bd 4a49 bf3d 9f26 f13c
00000330: b25d 1f3d f21d fdbc 2458 3fbd dafc 033d
00000340: 1926 ea3d 1c26 1f3e 8905 ab3d f804 853d
00000350: 4360 20bd 4f82 1cbd 7540 e43c ca1d 8cbc
00000360: 89f5 f63c 1f18 86bc 3ba6 343c c1c1 d53b
00000370: 4bdd a43d e7c3 dc3b 77cf ad3d a8a5 d33b
00000380: 225d d839 e875 cf3d 12ba b9bc ffc5 dcba
00000390: dc19 743d a3cd 03bc 0bb4 bd3c c538 b53d
000003a0: 1005 ff3c c7b9 1c3e 4196 d3bd b44f d53d
000003b0: 4947 c03d 3a00 0bbd f6aa 52bb e50a 283d
000003c0: e282 ae3d 2720 e23d e747 7e3d a440 d4bd
000003d0: af9f 2e3e d67c 4cbd 58bb a83d b5ed efbc
000003e0: 5ca8 b23c c947 013d 1769 f53d 8985 813c
000003f0: 9d30 2fbe 92c0 413e bf09 51bc 2fce 53be
-0.1697625 0.1829909 0.07899898 -0.36284783 -1.1017181 -0.18107001 -0.050026048 0.031676076
-0.17128095 -0.18596925 -0.6176656 -0.34616932 -0.7100361 -0.91275066 0.0068017 0.020871315
-0.60150725 -0.92777663 -0.7671159 -0.21558566 -0.03144229 0.01860342 0.031578988 0.006814978
0.046927717 0.25151333 -0.28487545 0.032464974 0.07776087 0.00866067 -0.013171934 -0.1774193
-0.21134709 -0.36169472 -0.1550583 -0.76489574 -0.23713984 0.19715883 -0.030684922 -0.12800798
0.05844164 -0.18312107 -0.27772462 -0.008439489 -0.3137481 0.0023406823 -0.028115563 -0.04888659
0.072667755 0.04922147 0.0016225626 -0.02796127 -1.032885 -1.0923332 -0.6986955 -0.85910237
-0.32592615 -0.5311223 -0.48655152 -1.3078239 -0.16523452 0.06073122 0.031431712 0.04664112
-0.7469648 -0.50886947 0.06550076 -0.41012454 -0.032133665 -0.026527124 -0.00042051997 -0.008934096
-0.3359355 -0.0840304 -0.30537042 -0.1313705 -0.110919535 -0.1052719 -0.04119582 -0.07107593
-0.031297572 -0.05796976 -0.041593224 0.059642363 -0.057796508 -0.010779327 -0.14383896 -0.029711109
0.08660583 0.032118548 0.103541195 0.057259433 -0.61459976 -0.2038001 -0.3116899 -0.3380067
0.064303644 -0.07404176 -0.51295245 0.105525255 -0.16643275 -0.026601557 -0.0033894195 0.4186563
-0.500596 -0.02857154 -0.31169167 -0.7448145 -0.25501734 -0.48478648 -0.20818736 -0.15966053
-0.21718143 0.016779521 -0.05042117 0.08367028 -1.6409408 -0.20260537 0.016035374 -0.10816146
0.036311388 0.040435135 0.08255179 0.0469572 -0.06488032 -0.016347034 -0.12193862 -0.15485723
0.13893281 -0.305957 0.05508634 0.0015906102 0.11199986 -0.062002324 -0.008718133 -0.027824968
0.06576936 0.06288243 -0.10642132 0.10159076 0.21323487 0.063976355 -0.15774083 0.055315472
0.06978858 -0.061874814 0.015426434 0.10741771 0.09424597 0.081809744 0.07332124 0.09873123
0.1498302 -0.09323927 -0.2439053 0.23927628 0.02784564 0.02617012 0.026368462 -0.07312534
0.09838014 0.0491733 0.09323753 -0.044527467 0.04656663 -0.08007114 0.038769517 -0.02645016
0.06369954 0.003818906 0.05886451 -0.015589627 0.07563652 0.006814751 0.038927086 0.028574789
-0.0030612631 0.04588224 0.011501996 0.05903334 0.14197174 0.06785851 -0.08226865 -0.17692687
0.10989981 0.11405999 -0.052200384 0.13876958 0.075415984 -0.101789296 0.0682124 -0.07440607
0.15613915 -0.44405282 0.0711785 -0.47630543 0.09910236 0.08303254 0.100138135 0.11416743
-0.057866283 -0.03333962 0.09340151 0.029437361 0.038907714 -0.030898068 -0.046714917 0.03222356
0.11433048 0.15541881 0.08350665 0.06495088 -0.039154302 -0.03821021 0.027862767 -0.017104048
0.030146377 -0.016368924 0.011025961 0.0065233414 0.08050021 0.0067372206 0.084868364 0.0064589567
0.0004126812 0.10129911 -0.022671733 -0.0016843675 0.059594974 -0.008044633 0.02315714 0.088487186
0.031130344 0.15305243 -0.10331393 0.10415593 0.093885966 -0.033935763 -0.0032145358 0.041026015
0.08521058 0.11041289 0.06208029 -0.10363892 0.17053102 -0.04992374 0.08238858 -0.029288152
0.021808796 0.0315626 0.11982935 0.015810745 -0.17108388 0.18921116 -0.012758671 -0.20684122

bias f4 [32]
00000000: ee12 61bd 1021 3dbd 3897 f5bc a08e 81bc
00000010: a12f 43bd 4565 e43d 444b 8ebe d90c 813c
00000020: 37a6 06bd 83e3 793d 99b8 e83c 4aef 3e3d
00000030: b497 ba3c 7e92 61bd 293c 2bbd 55c3 223d
00000040: dbff 9ebd 080e 573d 86b4 2bbc ada4 fe3c
00000050: 5031 b13d 9bcb 8a3d 25b9 dc3c 6be4 14bc
00000060: d815 823c 14f3 333c bea3 18bd df1b b0bc
00000070: d072 53bd 514f 7fbc adc2 ae3c d5af babe
-0.054949693 -0.04617411 -0.029979333 -0.01581508 -0.047652844 0.11152128 -0.27791798 0.015753197
-0.03287336 0.061007988 0.028408336 0.046614923 0.022777416 -0.055071346 -0.04180542 0.039737064
-0.07763644 0.052503616 -0.010480052 0.031084383 0.08651984 0.06777116 0.026943753 -0.009087662
0.015879557 0.010983247 -0.03726553 -0.021497665 -0.051623166 -0.015582875 0.021333063 -0.36462274

beta f4 [32]
00000000: 14f5 443f e1a3 4b3f 9f1f 603f cb7e 453f
00000010: d118 5d3f 883b 5b3f 2d77 6e3f e91b 643f
00000020: 2006 463f 9a60 543f 18f1 6d3f 53bd 4f3f
00000030: a213 573f dc1a 523f f516 533f b55d 683f
00000040: cec7 643f b0da 563f 6b4a 453f 4975 533f
00000050: 5def 503f f959 613f d848 523f 6376 553f
00000060: a531 6d3f 6e5a 5e3f e7e6 523f 259f 653f
00000070: b5db 573f 2483 3f3f 6ecb 5f3f 615c 603f
0.7693646 0.79546934 0.8754825 0.77146596 0.8636599 0.8563771 0.931506 0.8910509
0.77353096 0.829599 0.92946005 0.8114826 0.8401433 0.82072234 0.82456905 0.90767986
0.8936738 0.8392744 0.7706668 0.8260084 0.8161524 0.8802791 0.821424 0.8338377
0.92653877 0.86856735 0.8238358 0.8969596 0.8431962 0.7480948 0.87419784 0.8764096

gamma f4 [32, 32]
00000000: cdc4 733f d694 45bc f4b1 1a3f a23b d1b9
00000010: 5c1c 9abb 6e84 e6b8 95c3 87bb 3b46 88bc
00000020: 6cbb 31bb dba6 1e3f cb29 cbba ed51 2e37
00000030: 0192 15bb 29c7 37b7 74cc 2bbc 5d32 95bb
00000040: 5310 fcba 5b92 36bb 7aab 3dbb 6287 23ba
00000050: 7711 30bc 5918 f03e 310d 4dba 1c55 0dbb
00000060: fce0 31b9 3f54 093f 8b3d dcb9 4a2d ccba
00000070: 2682 01ba c71b 96bc 1d11 8cbb 435d 2fbb
00000080: c09c 8dba c32d 803f 0ca8 d4ba 2f3b 8dbb
00000090: d9a7 a4ba 4d8f e7bb 203e d4ba 71c2 4bba
000000a0: f77e 86bc 01a8 443e 734a 4bb9 bfe6 c3bb
000000b0: 0071 aebb 1b29 a6bb 99f6 36bc ab67 c23d
000000c0: dfe9 7cbb 9e0e 90ba 98e0 8fbb 2bb7 43bb
000000d0: 9028 c9bb eab3 3e3f bd1a afba 814f b2b9
000000e0: 8a58 9cbc ef2b fe3e 2949 e4ba 73a2 02bc
000000f0: f4d5 1dba f720 54bb 104f beba c32a d7b9
00000100: f05e c9b9 6378 b8bc b0a1 6f3f 6f69 813e
00000110: 2d66 9fbc f115 41ba 2ac1 2cbb dcab 81ba
00000120: 71ab 2cbc 385b 77b8 6ced 96bb 7e27 7ab9
00000130: d00a 14bb 9e44 77bb 449a 71bc 2993 6aba
00000140: 9001 04bc 27eb 27bc 3b86 29ba 8b2f 433e
00000150: ea72 67bc 8511 c5bb ffcf 54bc 49fe ad3e
00000160: efab 91bc bc4f c8ba 55ae 613c d354 81bb
00000170: 323c 25ba 0236 2cbc 29d9 f3b9 c20f 08ba
00000180: 9098 efba da31 a7bc 367f c93a 13b9 6d3f
00000190: 167d 38b7 0d30 8bba c1d8 8ebc eb1f 9dba
000001a0: 98d0 9abb b23d a23d ce06 bd37 d406 fdb9
000001b0: f311 93b8 b6c5 3abc 3d1a 8cbb b5ce e63e
000001c0: 1853 c2ba 542e a5bc dde6 f5bb 0c1b cbbb
000001d0: a9c4 d1b9 b84d 42bc c084 93bc a628 bd36
000001e0: 9e37 6a38 9e2f 463f 2e7f feba 3002 15bb
000001f0: 841f 80bc c0f2 04ba adc8 d2b9 273d d9b9
00000200: 433b bbb9 cc54 bcbc 1c15 43bb ebaa fcbb
00000210: b37c 5e3f ccdb a4ba c154 75bc 3365 1ebb
00000220: 24c2 23bc ae3d 0eb9 b798 e2bc 2040 cbbb
00000230: 8f2c 56bb 2d0c 80bc 1397 b9bc 536e e0ba
00000240: bbae f3b9 b5da 55bc 4d54 8bbc 1525 90ba
00000250: 1f4d 3dba 578e 82bc 2913 9abc ba9a edba
00000260: 9b9d b5bc cdd6 4fbc 3303 9ebc 055a ffba
00000270: 90ae 22ba 6cce f8bb d4bf 16b7 3a87 adbb
00000280: 539d 09bb b77c bfb9 f946 8db9 0588 25bc
00000290: 7b82 3ebc 3a28 6b3f d6b9 2abb fc76 833d
000002a0: 85fd a236 a903 afb9 61eb 443e 346b 91bc
000002b0: e884 34bb 2627 50b8 7ad2 0ebc 222e 63b9
000002c0: c735 9cba 67f6 5938 9842 a4bb c2ff 8fbb
000002d0: 6922 8cbc cc0e 60bc 25cc 283e 0261 163d
000002e0: 87bb 383f a671 b8b9 a50f 16bb 17a6 84bb
000002f0: a13b a4ba 1885 0abc f348 9b36 2166 c2b9
00000300: 089d c9bb 24b8 83bb 9ff4 9c3c 07a7 9bb9
00000310: c011 a3bb 5f0e 47bb 7731 7f3f 9664 5cbc
00000320: 47af 98b9 51cb 0abc abe9 54bc 33ce 84bb
00000330: 105c aeba c547 4dbc 7f0e ccbb dea9 8fba
00000340: 35a5 16bc 1e40 78bb 171b 64bc 537b 4db9
00000350: 2d5f ebbb 5fa8 51bc 6131 10bb 0d10 0fbb
00000360: bc9c 32bb 3e11 a53a a74f d4b9 efb8 b8bc
00000370: 133c adb9 5613 33bc 3a08 9bbb 3227 b4bc
00000380: e71b c3bc 7816 d1bb 6392 69bb 7cfc 4cbb
00000390: ab4e 32ba 2ec9 c13d e55d d2bb 2e71 6a3f
000003a0: 1967 5fbb a381 6fbc 4f6d e23e 590b 12bc
000003b0: 6490 d0b9 530f 34bc 4eab 12bb 81cd 0bb8
000003c0: 6291 67ba 026c b7ba 5430 1638 9bfb d6bb
000003d0: 44c2 a137 0cab d7ba b705 83bb dd68 72bc
000003e0: 0944 583e 506d 1bbc 518c bfbb 31e4 73bb
000003f0: 7a08 23bc 0b29 b4bc 2d6c 5dba 12d0 77bc
0.9522217 -0.012059411 0.60427785 -0.00039908016 -0.0047030877 -0.000109919216 -0.0041431882 -0.016635051
-0.0027119769 0.6197335 -0.0015500126 1.0390283e-05 -0.002282262 -1.0954021e-05 -0.010485757 -0.004553123
-0.0019230939 -0.002785823 -0.002894132 -0.000623813 -0.010746351 0.46893576 -0.0007822095 -0.0021565622
-0.00016963849 0.53644174 -0.00042007523 -0.0015577462 -0.0004940353 -0.018323792 -0.004274501 -0.002675847
-0.0010804161 1.0013965 -0.0016224398 -0.0043100337 -0.001256223 -0.0070666433 -0.0016192831 -0.00077728095
-0.016417963 0.19204713 -0.00019387323 -0.005978435 -0.0053235292 -0.005070818 -0.011167192 0.09492429
-0.0038591546 -0.0010990684 -0.0043907873 -0.0029863815 -0.0061388686 0.7449328 -0.0013359409 -0.0003401004
-0.019085187 0.49642894 -0.0017416823 -0.007973301 -0.0006020956 -0.0032368281 -0.0014519412 -0.00041039856
-0.00038408441 -0.022518342 0.9360609 0.25275752 -0.0194579 -0.0007365635 -0.0026360252 -0.0009893137
-0.010538922 -5.8974343e-05 -0.0046059396 -0.0002385657 -0.0022589453 -0.0037730108 -0.014746252 -0.000894832
-0.008057013 -0.010248936 -0.000646684 0.19061105 -0.014126519 -0.0060140514 -0.012989043 0.33983067
-0.01778218 -0.0015282552 0.013774474 -0.0039468794 -0.000630322 -0.010510923 -0.0004651037 -0.00051903364
-0.001827972 -0.020409513 0.0015372995 0.92860526 -1.09963785e-05 -0.0010619179 -0.01743734 -0.0011987662
-0.0047245733 0.07921924 2.2533724e-05 -0.00048261008 -7.0128495e-05 -0.011399677 -0.004275589 0.4507958
-0.0014825789 -0.020163693 -0.0075043277 -0.0061982926 -0.0004001011 -0.01185935 -0.018007636 5.637371e-06
5.5841745e-05 0.7741641 -0.0019416565 -0.00227369 -0.015640028 -0.0005071573 -0.00040203836 -0.00041435027
-0.00035711573 -0.022989653 -0.002976722 -0.0077108047 0.86909026 -0.0012577712 -0.01497382 -0.0024169206
-0.009995017 -0.00013565153 -0.02766071 -0.0062027127 -0.0032680368 -0.015630806 -0.022655046 -0.0017122723
-0.00046478756 -0.013052632 -0.017007971 -0.001099738 -0.000722127 -0.015937014 -0.018807964 -0.0018127777
-0.022169879 -0.01268549 -0.019288635 -0.0019481784 -0.00062058214 -0.007592967 -8.98536e-06 -0.0052956613
-0.0020998314 -0.0003652328 -0.00026946494 -0.01010323 -0.011627789 0.91858256 -0.0026050708 0.06419179
4.85749e-06 -0.00033381328 0.19230415 -0.017751314 -0.0027545039 -4.9627524e-05 -0.008717174 -0.00021665593
-0.0011917882 5.196631e-05 -0.0050128214 -0.0043945024 -0.017106252 -0.013675403 0.16484125 0.036713608
0.72161144 -0.0003517989 -0.0022897508 -0.0040481198 -0.0012529978 -0.008454584 4.6278524e-06 -0.00037078655
-0.006152753 -0.004019754 0.019159613 -0.0002968835 -0.004976481 -0.0030373556 0.9968485 -0.013451716
-0.0002912229 -0.008471326 -0.012995164 -0.004052901 -0.0013302583 -0.012529318 -0.006227314 -0.0010960659
-0.009194662 -0.0037880014 -0.013922474 -0.00019596265 -0.0071829767 -0.01279649 -0.0022002088 -0.0021829635
-0.0027254065 0.001259364 -0.00040495137 -0.02254912 -0.0003304189 -0.010929903 -0.0047312053 -0.021991346
-0.023817016 -0.0063808523 -0.0035640232 -0.0031278422 -0.00068018836 0.094622 -0.0064198845 0.9157895
-0.003408855 -0.01461831 0.4422402 -0.008913838 -0.0003978043 -0.010989982 -0.0022379938 -3.3331573e-05
-0.00088336144 -0.0013993981 3.5807796e-05 -0.0065607554 1.9283158e-05 -0.0016454174 -0.003998484 -0.014795509
0.21119703 -0.009486511 -0.0058455844 -0.003721487 -0.009950751 -0.021992227 -0.00084466004 -0.015125291

beta f4 [32]
00000000: 878a 893f cb19 913f 167b 233f 9306 7c3f
00000010: c011 763e 1d69 4d3f 1956 5d3f bd99 2c3f
00000020: 7419 803f 0c6a 5c3f 4540 733f b15d 5b3f
00000030: 3a53 3c3f 645a 583f fe2e 853f 015a 5f3f
00000040: 8bfc 1f3f f02d 793f bcf3 6d3f 7144 193f
00000050: 5ab6 653f 85c7 383f 83ba 833f 142b 143f
00000060: 183a 5d3f bdc8 883f 9a52 7b3f 5f86 5b3f
00000070: 600c 603f 8322 0a3f 44d3 5c3f 5c12 493f
1.07454 1.1335996 0.6385969 0.9844753 0.24030209 0.80238515 0.864595 0.67422086
1.0007768 0.86099315 0.9501994 0.85689837 0.73564494 0.84512925 1.0404966 0.8724671
0.62494725 0.9733572 0.92950034 0.5987006 0.8973137 0.7217944 1.0291294 0.5787823
0.8641677 1.068626 0.98172915 0.8575191 0.8751888 0.5395891 0.86259866 0.7854364

gamma f4 [32, 32]
00000000: c354 253f 61f4 8836 cf10 ddb7 5fbd 50bc
00000010: c5fb 13ba 0580 54b9 f93a 25bc 0274 0d3f
00000020: a662 42bc 1910 17bc 153f 1bbc 4081 43bc
00000030: 4cca c1bc e830 bfbc 477a c7bb a362 2ebb
00000040: 10fb a2b9 0c59 26bb e010 f0b9 fe20 b83e
00000050: c6dc 2dbb 04d2 10b9 df0c acbc 2093 313e
00000060: b770 84bc d6e9 213e a890 99bc 424d 8ebc
00000070: 2203 12b9 c313 043f cdcc 24ba 4600 903e
00000080: e3da 96bc 125a ac3e a952 7dbc 6407 a4bc
00000090: 7d90 0ebc 812d 82bc eb55 1bba 9281 64b8
000000a0: 2f82 38bc 0b65 99ba f527 efbb 500d 37bc
000000b0: ec31 a7bb ef7d 9ebb ea38 723d d753 9aba
000000c0: fac9 a2bc f00d 2bbc 4bc6 b5bc 0f0f 3d3e
000000d0: 78de d03e 7fc3 82bc f285 9c3d 3b92 2bbc
000000e0: 6fce 91bb b6de 52bb 3fa3 b4ba 98c3 babb
000000f0: 561e 96bc 1ca9 99b7 fd58 a5bc 5ac4 d4bc
00000100: e012 0fbc 55af 103f 436b 053f 44ee 993e
00000110: 7bd5 e3bc 297b 67ba ad68 1dba ea24 0e3f
00000120: c630 34bc 5fe7 c2bb b101 96bc 3b62 15ba
00000130: 8dd6 71b9 0665 44bc 144d 86b9 c224 85b9
00000140: ebc3 31bc 5aec b4ba 8c5c 10bc 71ec a436
00000150: bb3f 99b8 f90f 98bb 3e72 4fb8 5b45 8fb9
00000160: cfbf 21ba 0a2e 163f 85b8 beb9 a227 38b9
00000170: 1b12 01bc 139d 2337 8f13 e2bc 3b42 edba
00000180: ce07 06bc 72d7 29b9 b125 1e3d 39ab c33e
00000190: c181 d7bb 3d27 28b8 45ca 1bbb 0416 60bc
000001a0: 4ce5 c2bb 3c6b 7f3e ec2f c43e 91af 34bb
000001b0: cf1e d0bb c212 bdbc 7482 54bc d00a dfb9
000001c0: 0fc9 3db9 214b cab9 cb03 903d 86bc 383d
000001d0: 0d47 aeb8 fb78 3fb8 6078 b83e 2d10 b73d
000001e0: 8106 2bb9 ed91 143d 89ce 14bb 8acf 1cbc
000001f0: bce5 05bb 78ec 1836 d8ff 173f 22e5 90b9
00000200: 9e75 b4bc 16cd b7ba c2e8 60bb fa8a 85bb
00000210: 6f7b fc3e 3333 6b3e 4c68 cebc 4fb3 b336
00000220: b581 403e 3cda 8c3e 3f90 14bb fdf5 023e
00000230: 5fb2 d23e 8015 c63d 15b4 153e 5b3e 14ba
00000240: 0f25 78ba 7ee8 8d39 a7b1 da3e 498e 3437
00000250: 5b71 85ba 9668 c5ba fa22 3fbb 57fc f4b8
00000260: 4883 e13d cef3 44bb 2bef c23e 5a5e 4abc
00000270: 01fa 04bb e848 bc36 aa55 223e 9763 06b9
00000280: 1768 05bc 65a7 033e 462d 8cbc d400 02bc
00000290: d943 00b8 60ad 8e3e 39db a3bc cd6c 0f3f
000002a0: 77b3 7dba a690 b5ba d862 adbb 0d80 0bbc
000002b0: d5cc 8abc bcdb 8abb d71f 32bb b386 4ebb
000002c0: b631 1cbb 2ac8 04bb f571 0dba 9ece 3d36
000002d0: bb91 1ebb f039 023f a674 b6b9 7752 033f
000002e0: b84a 92bc 48a8 263f 05c1 86bc 584c 90ba
000002f0: b269 1cbc 3a5f 2f3f 857b 45bb 4280 f23d
00000300: abb0 b0ba 5b7f a2ba 0253 40b8 42d8 b9b9
00000310: 125d 4bba d762 b7bb c7b3 483d b3fe 3dbb
00000320: 9bfc a43e 0d05 bbb9 c530 aeb9 ef77 a237
00000330: bae1 20ba f410 52ba a9b1 3dbb fab2 08ba
00000340: ab39 67ba 4a89 05bc 7c42 8bbc a23a 2337
00000350: 4eee 77bb 5097 72b9 59aa a4bb 114e e7ba
00000360: e4b3 75bb 9752 d3ba 70c3 26bb 22bf 2bbc
00000370: 0a25 46bc 9881 dc36 0af1 8bbb accb 6aba
00000380: cc61 eab8 8d83 bcb9 dc12 ffb9 02f1 f7ba
00000390: 30bb cebb 0812 23bc 326d ad37 29a8 dc3d
000003a0: 385b cb3e 7311 edbb c7f7 abbc b5a8 52b9
000003b0: acac da3d 644b 4cbc 4bda 7bbb 37f7 3337
000003c0: 7978 77bb 53ae f0ba 5c19 a1bc 3fd5 0c3f
000003d0: 661d 2e3e 63c0 013e caf8 b4b9 d89b 8bb8
000003e0: 9c62 32ba a05c 27bb 04f5 c4bc c305 6fbc
000003f0: f3fc adb9 ffeb 7036 78ca 42ba 52b0 5bb9
0.6458246 4.0815653e-06 -2.635308e-05 -0.012740462 -0.00056451216 -0.00020265586 -0.010084861 0.5525514
-0.01186434 -0.009220147 -0.009475489 -0.011932671 -0.023656033 -0.02333875 -0.0060875746 -0.0026609085
-0.00031086104 -0.0025382666 -0.0004578894 0.3596267 -0.0026529296 -0.00013811147 -0.021002231 0.1734128
-0.016167028 0.15811858 -0.018745735 -0.017370824 -0.00013924812 0.51592654 -0.0006286621 0.2812521
-0.01841492 0.33662468 -0.015461602 -0.020023055 -0.008701441 -0.015890839 -0.00059255835 -5.4480108e-05
-0.011261507 -0.0011703087 -0.0072984644 -0.011172608 -0.0051023867 -0.00483679 0.05913631 -0.0011774254
-0.0198717 -0.010440335 -0.02218928 0.18462776 0.4079473 -0.01596236 0.076427355 -0.010471876
-0.0044496576 -0.0032176203 -0.0013781561 -0.005699586 -0.018325012 -1.8317769e-05 -0.020184034 -0.025972534
-0.0087325275 0.56517535 0.52116793 0.30064595 -0.027811756 -0.0008830303 -0.00060046726 0.55525076
-0.010997957 -0.0059479917 -0.018311353 -0.00056985364 -0.00023063477 -0.0119869765 -0.000256159 -0.00025395124
-0.010849933 -0.0013803348 -0.008811127 4.9151063e-06 -7.307479e-05 -0.004640576 -4.9459042e-05 -0.0002732676
-0.00061702443 0.58664 -0.00036377102 -0.00017562372 -0.007877852 9.752129e-06 -0.027597217 -0.0018101403
-0.008180572 -0.00016197356 0.038610164 0.3821657 -0.006576747 -4.0090865e-05 -0.0023771685 -0.013677124
-0.0059477445 0.2494325 0.3831781 -0.0027570466 -0.006351329 -0.023080233 -0.012970556 -0.0004254193
-0.00018099345 -0.00038584418 0.070319735 0.045101665 -8.310201e-05 -4.565062e-05 0.3602934 0.08938632
-0.00016310254 0.03627198 -0.0022706112 -0.009570966 -0.0020431122 2.2787408e-06 0.5937476 -0.00027636538
-0.02202874 -0.0014022912 -0.0034318422 -0.004075405 0.49312922 0.2296875 -0.025196217 5.35549e-06
0.1879948 0.2751025 -0.0022668985 0.1278915 0.4115171 0.096720695 0.14619477 -0.00056550436
-0.00094659714 0.00027066836 0.42713663 1.0761964e-05 -0.0010180877 -0.0015061076 -0.0029165135 -0.000116818286
0.11011368 -0.0030052545 0.38073096 -0.012351597 -0.0020290616 5.611324e-06 0.15852991 -0.00012816336
-0.008142493 0.12856825 -0.017111432 -0.007934768 -3.0580766e-05 0.2786665 -0.020001994 0.5602539
-0.00096779264 -0.0013852313 -0.005291324 -0.008514416 -0.016943375 -0.00423762 -0.0027179623 -0.0031513392
-0.002383334 -0.0020260909 -0.0005395704 2.8283462e-06 -0.002419575 0.50869656 -0.00034800655 0.51297706
-0.017857894 0.65100527 -0.01644946 -0.001100908 -0.009546684 0.6850468 -0.0030133438 0.118408695
-0.0013480386 -0.0012397574 -4.5853674e-05 -0.00035447074 -0.0007757704 -0.0055964994 0.048999574 -0.0028990924
0.32223973 -0.00035671183 -0.00033224202 1.9367753e-05 -0.00061371515 -0.00080133905 -0.0028945005 -0.0005214658
-0.0008820544 -0.008150408 -0.016999476 9.729209e-06 -0.003783125 -0.00023135287 -0.00502519 -0.0017647167
-0.0037491256 -0.0016122636 -0.002544608 -0.010482581 -0.012093792 6.5715976e-06 -0.0042706775 -0.0008956741
-0.000111762056 -0.00035956167 -0.00048651441 -0.001891643 -0.0063089356 -0.009953029 2.0674055e-05 0.107742615
0.39718032 -0.007234746 -0.020992173 -0.00020090009 0.10677466 -0.012469146 -0.0038429673 1.0726791e-05
-0.0037761016 -0.00183625 -0.019665413 0.5501289 0.17003402 0.12671046 -0.00034517638 -6.657065e-05
-0.0006804855 -0.0025537387 -0.024042614 -0.014588776 -0.00033185593 3.5900155e-06 -0.0007430683 -0.00020951152

beta f4 [32]
00000000: a8c9 433f 1fb0 233f dfd6 413f f3d0 643f
00000010: ffec e63e 161f 7d3f bb0a 663f 768a 6b3f
00000020: 1dd0 113f 6377 0c3f cdc6 443f cff8 263f
00000030: 0ded 383f f155 323f 0b3f ed3e a14e 353f
00000040: 31e8 623f c5b3 1c3f 2bbd af3e 5547 6b3f
00000050: 24c2 653f d857 ca3e b5b6 4b3f 0d0a 7b3f
00000060: dc3a 303f 543e 473f e939 3d3f be98 6e3f
00000070: 23ab 383f 6b6d 5b3f d9f6 343f 1300 533f
0.7647958 0.63940614 0.7571849 0.8938133 0.4510269 0.9887556 0.89860123 0.9200815
0.5695818 0.5486967 0.76865846 0.652234 0.7223671 0.69662386 0.4633716 0.70823103
0.88635546 0.61211807 0.3432401 0.9190572 0.8974936 0.39520144 0.79575664 0.9806221
0.6883981 0.7782948 0.7391649 0.93201816 0.72136134 0.85713834 0.7068916 0.8242199
