models/decNet_16_2.pkl (torch_old, 124874 bytes, 21 tensors)

weight f4 [32, 1, 1, 1]
0.017903594 -0.050758872 0.16834156 0.017524295 0.11817677 -0.07057701 0.42795435 -0.6580703
-0.5404749 -0.012188988 0.41692308 -0.05474 0.12882985 0.19900331 -0.8104925 0.0564947
-1.0920646 -0.5181817 -0.50929826 0.4663806 -0.233408 -0.105223365 0.0048765684 -0.75701195
0.17793338 -0.34592515 0.34277654 -0.13581084 -0.6620884 0.11543317 -0.0012413572 0.18858491
00000000: 8faa 923c 89e8 4fbd bb61 2c3e 1c8f 8f3c
00000010: aa06 f23d ae8a 90bd d51c db3e 4c77 28bf
00000020: 905c 0abf 52b4 47bc f176 d53e 0d37 60bd
00000030: f9eb 033e 86c7 4b3e 707c 4fbf fd66 673d
00000040: c6c8 8bbf 8ea7 04bf 5f61 02bf 70c9 ee3e
00000050: 8202 6fbe 597f d7bd 9fcb 9f3b 89cb 41bf
00000060: 2b34 363e 1a1d b1be 6880 af3e ff11 0bbe
00000070: a07e 29bf 3a68 ec3d 09b5 a2ba 671c 413e

weight f4 [32, 1, 3, 3]
-0.25145093 -0.1487545 -0.2382265 -0.1298137 -0.024093516 0.22269824 0.08910146 0.17902893
0.22455302 0.17534211 -0.21557216 -0.14542472 0.03533808 0.23568809 -0.22935346 0.12565984
0.009071065 -0.06529986 0.060495883 -0.33614752 0.13976336 0.5730488 -0.053942874 -0.07934316
0.12598239 0.20623457 0.31128976 -0.1733576 0.052643288 0.1349852 -0.28568235 0.23540823
0.10954421 -0.40120244 -0.11309932 0.17567477 0.19882892 -0.1862986 0.20937143 0.10302375
-0.026595216 0.06534815 -0.680174 0.40174538 0.14192772 -0.041595593 0.022952233 -0.043934427
-0.51819694 -0.06893638 -0.324773 0.16358896 0.022918336 -0.37503052 -0.19789226 -0.24004485
-0.8358089 0.050722566 0.30723858 -0.015842082 0.4440215 -0.101210766 -0.28967705 -0.13833654
-0.13563469 -0.13224058 -0.08557118 0.063254505 -0.10326312 0.13953277 0.071781516 0.035206553
0.19160607 -0.19480611 -0.01893737 -0.3417644 -0.03267506 0.48517925 0.08347102 -0.10058862
0.04738844 0.2736172 -0.0012289212 0.021608386 -0.0889202 0.057201773 -0.03883681 -0.061936565
-0.10307834 -0.05367595 0.08630217 -0.1052872 -0.38347793 0.2394901 0.08628069 -0.08706464
0.4908321 0.022819158 0.045201957 -0.11115125 -0.3504541 -0.59885126 0.26599807 -0.0835598
-0.19977298 0.14133343 0.36944997 0.022608904 0.0012815549 0.3960322 0.044515904 -0.30562112
0.11090816 0.0808745 -0.16223319 -0.29825407 -0.007531835 -0.14925912 -0.09807662 0.104243316
-0.41570374 -0.06883185 -0.13788916 -0.6595062 -0.29699793 0.106940664 0.093420595 -0.07765078
0.093137845 0.061685856 -0.0080454005 -0.18287025 -0.052070744 0.166772 0.06786442 0.10197363
0.09297304 0.056739267 -0.07581351 -0.0008880183 0.07536172 0.10008512 -0.08228058 0.0553655
-0.28495663 0.39803275 -0.049935084 -0.063837335 0.07442476 -0.09021354 -0.2782788 -0.028533455
-0.13774525 -0.44940037 -0.022926727 -0.27115947 -0.009921662 -0.30019173 -0.108861715 -0.1885511
-0.050320696 -0.2703395 -0.40742016 -0.018870875 0.040548023 0.0043681064 -0.27828828 0.030489665
0.074337825 -0.43903378 0.037545454 0.091147676 0.13972409 -0.0068538333 -0.35265344 0.12034921
-0.20010799 -0.15737718 -0.3111444 -0.069402896 -0.17787696 0.15500084 0.0027586787 0.18418248
0.07608022 -0.09611025 0.091258235 -0.26162395 0.017215375 0.08077659 0.38439286 0.20520611
-0.4165142 0.2368219 0.19760568 -0.6438842 -0.85894424 0.04125187 0.31562695 -0.31825277
-0.12833343 0.31953174 0.2578584 -0.009497206 -0.09412043 0.1693207 -0.34808084 0.07793476
0.32867745 0.5759239 -0.0942511 -0.043765403 0.03953503 -0.2100701 0.23376633 0.06559211
0.21553925 -0.47416708 0.069735475 0.14482492 -0.07912289 -0.027930329 -0.25037548 -0.009492692
-0.09456169 -0.22818942 0.08468575 -0.3250627 0.5589232 0.20935425 -0.32526866 0.3057999
0.5402237 0.0009712167 -0.06415335 -0.14236653 0.30908126 0.2504302 0.0025111865 0.03844147
-0.31554058 -0.19421424 -0.430333 -0.24543431 -0.20806274 0.19541569 -0.20577827 -0.5666849
-0.034807794 -0.34361145 -0.42421103 -0.33049062 -0.054978073 0.044927947 -0.12121444 0.15817298
00000000: 2dbe 80be 1a53 18be a6f1 73be e2ed 04be
00000010: c45f c5bc 020b 643e d47a b63d 5c53 373e
00000020: 3af1 653e e28c 333e f3be 5cbe 38ea 14be
00000030: aabe 103d 3858 713e a2db 6abe f9ac 003e
00000040: ce9e 143c efbb 85bd 88ca 773d 871b acbe
00000050: 201e 0f3e 53b3 123f 34f3 5cbd ab7e a2bd
00000060: 8701 013e 282f 533e 5f61 9f3e a884 31be
00000070: 7da0 573d 8f39 0a3e f544 92be db0e 713e
00000080: b758 e03d 686a cdbe 9ea0 e7bd 16e4 333e
00000090: cf99 4b3e 0fc5 3ebe 7765 563e 1efe d23d
000000a0: 36de d9bc 40d5 853d e21f 2ebf 92b1 cd3e
000000b0: 8055 113e 2460 2abd 5206 bc3c 96f4 33bd
000000c0: 8ea8 04bf 842e 8dbd a648 a6be dd83 273e
000000d0: 3cbf bb3c 0004 c0be 45a4 4abe 51ce 75be
000000e0: 92f7 55bf 77c2 4f3d 604e 9d3e 41c7 81bc
000000f0: c956 e33e 9747 cfbd 8d50 94be 18a8 0dbe
00000100: d2e3 0abe 136a 07be f13f afbd 948b 813d
00000110: 9d7b d3bd aee1 0e3e 3002 933d bf34 103d
00000120: 6234 443e 417b 47be 8b22 9bbc befb aebe
00000130: 49d6 05bd 6a69 f83e dbf2 aa3d 6801 cebd
00000140: 621a 423d 8e17 8c3e c113 a1ba 1204 b13c
00000150: cb1b b6bd 684c 6a3d 5913 1fbd 32b1 7dbd
00000160: bd1a d3bd 50db 5bbd 31bf b03d d1a0 d7bd
00000170: 3857 c4be e53c 753e eeb3 b03d f24e b2bd
00000180: 584e fb3e 3eef ba3c b025 393d 44a3 e3bd
00000190: b86e b3be 514e 19bf e630 883e 6721 abbd
000001a0: 4a91 4cbe b6b9 103e 8c28 bd3e 4f36 b93c
000001b0: d9f9 a73a bcc4 ca3e 4f56 363d 5f7a 9cbe
000001c0: d123 e33d 88a1 a53d 7520 26be c2b4 98be
000001d0: 9dcd f6bb 62d7 18be 65dc c8bd 857d d53d
000001e0: 1fd7 d4be b7f7 8cbd d132 0dbe 66d5 28bf
000001f0: 1d10 98be b503 db3d 4c53 bf3d 5f07 9fbd
00000200: 0ebf be3d 4faa 7c3d dbd0 03bc 5742 3bbe
00000210: 2248 55bd 47c6 2a3e 80fc 8a3d 8dd7 d03d
00000220: a668 be3d 6f67 683d 1d44 9bbd e6c9 68ba
00000230: 3f57 9a3d 6df9 cc3d b982 a8bd efc6 623d
00000240: d6e5 91be f3ca cb3e bb88 4cbd 26bd 82bd
00000250: 026c 983d e0c1 b8bd 8f7a 8ebe febe e9bc
00000260: 170d 0dbe ce17 e6be d5d0 bbbc 6ad5 8abe
00000270: 778e 22bc bbb2 99be e4f2 debd 8a13 41be
00000280: 131d 4ebd f069 8abe 6099 d0be 1897 9abc
00000290: af15 263d 5522 8f3b cd7b 8ebe 76c5 f93c
000002a0: 6e3e 983d 09c9 e0be 43c9 193d a2ab ba3d
000002b0: d513 0f3e 1f96 e0bb fe8e b4be a679 f63d
000002c0: 1ce9 4cbe 7c27 21be 524e 9fbe 1b23 8ebd
000002d0: 6125 36be 8ab8 1e3e f3ca 343b 559a 3c3e
000002e0: f2cf 9b3d 73d5 c4bd 99e5 ba3d 93f3 85be
000002f0: 4207 8d3c 326e a53d 24cf c43e 8d21 523e
00000300: 5941 d5be 7181 723e 2559 4a3e 98d5 24bf
00000310: c5e3 5bbf b9f7 283d db99 a13e 07f2 a2be
00000320: d769 03be aa99 a33e 0406 843e 2b9a 1bbc
00000330: 36c2 c0bd 6862 2d3e a737 b2be 429c 9f3d
00000340: 6948 a83e c06f 133f b906 c1bd 5a43 33bd
00000350: 7cef 213d 9e1c 57be 7160 6f3e 2855 863d
00000360: 52b6 5c3e 07c6 f2be 79d1 8e3d fc4c 143e
00000370: 2f0b a2bd 25ce e4bc 3731 80be 3c87 1bbc
00000380: 8fa9 c1bd 7daa 69be b96f ad3d 9e6e a6be
00000390: 9715 0f3f f660 563e 9d89 a6be ce91 9c3e
000003a0: 1a4c 0a3f 4099 7e3a d562 83bd 88c8 11be
000003b0: e63f 9e3e 6338 803e b892 243b ce74 1d3d
000003c0: 898e a1be 19e0 46be 9b54 dcbe 2253 7bbe
000003d0: 660e 55be 0d1b 483e 8ab7 52be 4312 11bf
000003e0: 9e92 0ebd d7ed afbe 3032 d9be 1136 a9be
000003f0: b030 61bd 5e06 383d 473f f8bd 19f8 213e

weight f4 [32, 1, 5, 5]
-0.16265051 -0.10243843 -0.06307792 0.043517847 -0.10842603 0.12525661 0.09653225 0.116549686
0.12959243 -0.064443946 0.09276217 -0.03848589 0.054069098 0.011600134 0.018827299 0.12397617
-0.11307369 -0.11704893 -0.060328703 -0.14096883 0.035109635 0.01823805 0.08130078 0.04306411
-0.0573865 -0.03461403 -0.077198386 0.017134016 -0.09209059 -0.049979094 0.0347558 0.08655278
0.19302055 -0.0042321864 0.038351946 0.12963098 0.064168006 0.08825255 -0.16514894 -0.14525354
-0.089338906 -0.16296364 -0.058507852 -0.22940199 -0.09773832 -0.0064720996 -0.093404494 -0.025974484
0.006805728 0.09165231 0.13087685 0.15353672 0.021930333 0.15858869 0.14932708 0.22658488
0.08004996 0.319099 -0.022351215 0.056106273 0.020531949 0.11803735 -0.42040926 -0.012378372
0.101853035 -0.119907245 0.021957591 -0.18311422 0.1539133 0.04387452 0.025186904 0.016459508
0.098070264 -0.036620893 0.129324 -0.04313965 0.09329738 -0.0043596392 0.0972669 -0.024347924
0.025747508 0.030049343 -0.08375649 0.13377038 0.041482907 0.0032173416 -0.06637763 -0.20472804
0.09542505 0.15130615 -0.16858372 -0.13073608 -0.055190794 -0.0012802209 0.04987768 -0.08961294
-0.04927974 0.017340068 0.07952853 0.10009617 0.13247925 -0.03858638 -0.02070146 -0.019733137
-0.015503671 0.07656304 -0.082788505 -0.064229384 -0.24302241 -0.020309342 0.114041515 -0.07902688
-0.42350262 -0.2056395 -0.08818705 0.013888629 -0.3652331 -0.31259954 -0.2282113 -0.11524644
0.041051246 0.12599537 0.107525215 -0.059421517 0.07624177 0.21375379 0.14371562 -0.12535313
-0.0015522835 0.3584374 0.07854346 -0.19766752 -0.6625137 -0.13934493 -0.1612762 0.027042186
-0.50431424 -0.7922995 -0.8653675 -0.26159734 0.12784106 0.16601276 -0.26637697 -0.13018312
-0.12372969 0.031877518 0.21215466 0.029644739 -0.13900407 0.14822677 0.17023192 0.11031003
0.094626516 0.08457933 -0.01519168 -0.07883664 -0.06708696 0.036183883 0.24435817 -0.10256744
-0.06399484 -0.18633005 -0.018770833 0.1415574 0.16498326 0.0876984 0.06902984 0.10407849
0.104104385 0.0878231 0.18326312 0.04128936 -0.07039345 0.14470935 -0.046975575 0.032509625
0.0075033703 -0.16753209 -0.12967925 -0.09451781 0.0075738193 0.03821362 0.023323623 -0.077145115
-0.034792226 0.081313685 0.05292917 -0.04733383 -0.12561716 -0.017692972 0.062472224 -0.024067279
0.05733775 -0.0070394226 -0.04555533 0.075732656 0.020732934 0.13160335 0.07230907 0.09027569
0.08469136 0.0369176 0.0031277544 0.04490309 -0.009584276 0.03485961 -0.051902663 0.0823243
0.07716935 -0.0015867719 -0.08347317 0.0024936853 0.055913202 -0.015544102 -0.12519298 -0.00075215194
-0.12142397 -0.107646644 -0.049717173 0.020183995 -0.030589454 0.05330137 -0.029947285 -0.054998573
-0.018336182 -0.022096645 -0.028843354 0.038586844 0.020185662 0.016940508 -0.04986366 -0.10261527
0.049362358 0.04652836 0.018912906 -0.15220894 -0.044425093 0.016914796 0.008837905 -0.00035857287
-0.1282445 -0.06700626 0.15060247 0.09144711 0.03232166 -0.052250445 0.059950892 0.15376371
0.060143977 -0.03289203 -0.11915603 -0.12984441 -0.011752481 0.040275242 0.051420357 -0.1476153
00000000: db8d 26be 3dcb d1bd ff2e 81bd c53f 323d
00000010: 770e debd 4543 003e b3b2 c53d 9ab1 ee3d
00000020: e1b3 043e 30fb 83bd 18fa bd3d 61a3 1dbd
00000030: 8f77 5d3d 7d0e 3e3c b53b 9a3c 38e7 fd3d
00000040: 2e93 e7bd 59b7 efbd 3b1b 77bd 225a 10be
00000050: 1fcf 0f3d f767 953c 0681 a63d fe63 303d
00000060: 1b0e 6bbd 71c7 0dbd 301a 9ebd a35c 8c3c
00000070: fe99 bcbd e1b6 4cbd 195c 0e3d 9542 b13d
00000080: 2ea7 453e 27ae 8abb ee16 1d3d fcbd 043e
00000090: 846a 833d c1bd b43d ce1c 29be 58bd 14be
000000a0: 51f7 b6bd f1df 26be eea5 6fbd 5be8 6abe
000000b0: 072b c8bd e813 d4bb db4a bfbd 71c8 d4bc
000000c0: 9602 df3b 35b4 bb3d 9504 063e bb38 1d3e
000000d0: 3ea7 b33c 1365 223e 33e9 183e de05 683e
000000e0: 3cf1 a33d f260 a33e e519 b7bc b1cf 653d
000000f0: 9e32 a83c 91bd f13d e23f d7be a8ce 4abc
00000100: 5398 d03d ee91 f5bd 68e0 b33c 4b82 3bbe
00000110: 739b 1d3e c5b5 333d c454 ce3c 17d6 863c
00000120: 10d9 c83d caff 15bd 836d 043e 34b3 30bd
00000130: b212 bf3d 4edb 8ebb de33 c73d 4c75 c7bc
00000140: 70ec d23c 0a2a f63c 8688 abbd 1afb 083e
00000150: fbe9 293d 09da 523b fff0 87bd 3aa4 51be
00000160: 356e c33d 00f0 1a3e 36a1 2cbe aedf 05be
00000170: be0f 62bd 16cd a7ba 8a4c 4c3d fd86 b7bd
00000180: 8dd9 49bd c20c 8e3c dbdf a23d 39ff cc3d
00000190: a4a8 073e c10c 1ebd 1c96 a9bc 63a7 a1bc
000001a0: 1c03 7ebc 15cd 9c3d 058d a9bd b28a 83bd
000001b0: deda 78be c75f a6bc 998e e93d d8d8 a1bd
000001c0: 56d5 d8be 2993 52be 699b b4bd 228d 633c
000001d0: d5ff babe 0c0d a0be 39b0 69be 5306 ecbd
000001e0: 5a25 283d ee04 013e 2e36 dc3d fa63 73bd
000001f0: a524 9c3d 46e2 5a3e 302a 133e 925c 00be
00000200: fe75 cbba 1b85 b73e 65db a03d 5b69 4abe
00000210: 7f9a 29bf 70b0 0ebe 9725 25be 9387 dd3c
00000220: bd1a 01bf 24d4 4abf b988 5dbf 16f0 85be
00000230: c4e8 023e 40ff 293e 9062 88be b94e 05be
00000240: fe65 fdbd 0092 023d 123f 593e 86d9 f23c
00000250: 1557 0ebe c2c8 173e 4751 2e3e 3aea e13d
00000260: 8ccb c13d ee37 ad3d 86e6 78bc 1b75 a1bd
00000270: e364 89bd 8d35 143d 0739 7a3e e10e d2bd
00000280: ba0f 83bd 4ecd 3ebe 4ac5 99bc 6cf4 103e
00000290: 5ff1 283e 389b b33d 845f 8d3d 1a27 d53d
000002a0: ae34 d53d 99dc b33d 54a9 3b3e 081f 293d
000002b0: 712a 90bd b02e 143e 7669 40bd d028 053d
000002c0: d5de f53b 888d 2bbe a3ca 04be 8e92 c1bd
000002d0: cd2d f83b e385 1c3d 2f11 bf3c 42fe 9dbd
000002e0: 4b82 0ebd ca87 a63d 42cc 583d 1ee1 41bd
000002f0: c9a1 00be daf0 90bc e0e2 7f3d be28 c5bc
00000300: fdda 6a3d f5aa e6bb 3a98 3abd b919 9b3d
00000310: 1dd8 a93c 07c3 063e c716 943d 76e2 b83d
00000320: aa72 ad3d e936 173d 03fb 4c3b 4dec 373d
00000330: 5e07 1dbc f3c8 0e3d e397 54bd a599 a83d
00000340: f70a 9e3d 3bfb cfba fbf3 aabd 196d 233b
00000350: 3e05 653d b0ac 7ebc 9732 00be 102c 45ba
00000360: 21ad f8bd d875 dcbd 3ca4 4bbd e858 a53c
00000370: bc96 fabc 8a52 5a3d 0254 f5bc 2f46 61bd
00000380: c335 96bc 0604 b5bc e648 ecbc 3d0d 1e3d
00000390: 675c a53c d2c6 8a3c d63d 4cbd f427 d2bd
000003a0: 2f30 4a3d 8694 3e3d 3def 9a3c a9dc 1bbe
000003b0: 16f7 35bd e690 8a3c dccc 103c d6fe bbb9
000003c0: 8752 03be 943a 89bd 8937 1a3e 9f48 bb3d
000003d0: b863 043d 9004 56bd 118f 753d 3c74 1d3e
000003e0: 8859 763d cbb9 06bd 1408 f4bd eff5 04be
000003f0: 7a8d 40bc a7f7 243d 279e 523d 7728 17be

weight f4 [32, 1, 7, 7]
-0.05188791 -0.08531146 0.00709626 0.010443449 0.0483964 0.060571607 0.07055154 -0.071128264
0.0054176245 -0.03286017 -0.024797307 -0.104332045 0.09161531 0.09159143 0.005407927 -0.047477823
0.01013418 -0.010183594 -0.03643099 0.03771949 0.055294313 0.12390403 0.03009253 0.06913199
-0.029700955 -0.121915594 -0.054681186 -0.018194558 0.10814451 0.010182559 0.04664088 0.010884328
-0.111301094 0.006816093 0.024003033 0.10550413 0.094813004 -0.033925522 -0.021779105 -0.03640987
0.009995151 0.072901234 0.035603914 -0.01840422 -0.09450745 -0.05681379 -0.107347764 0.0008222337
-0.05786593 -0.010994622 -0.0355766 0.0057133893 -0.00048677993 -0.024465865 -0.01741905 0.020767946
-0.055046227 0.0060490416 0.04541061 0.06811618 0.033831514 -0.033667136 -0.033279255 -0.028462518
0.074442476 0.09027618 0.18560359 0.062409494 -0.07329899 -0.06718146 -0.0038755604 -0.05097415
0.023079526 -0.061672717 -0.01910877 -0.10574685 -0.10923925 -0.026233427 -0.0060864603 -0.0370011
-0.09044096 -0.0043625194 0.011609975 0.022606986 -0.020241477 -0.026834194 -0.043349016 -0.0019829879
0.0066552837 0.04470441 0.09374759 -0.0107465675 -0.01863035 -0.070955805 0.022981128 0.013272596
0.06787809 0.065156385 0.0032469407 0.0543853 -0.07509915 -0.046610553 0.04471066 0.022566663
-0.009006807 -0.015585195 -0.04442959 -0.08705752 -0.16597836 -0.06987626 -0.048915863 -0.013945458
0.03618022 -0.07900864 -0.113431886 -0.007133056 -0.16306327 -0.04608391 -0.028131919 0.011137397
-0.06828207 -0.1099384 -0.1342919 -0.08671969 -0.0234443 0.012663207 -0.04812447 -0.002102937
-0.1248307 0.017569343 -0.08443858 -0.066709094 0.008574865 -0.019292964 0.064075515 0.013670614
-0.050551977 0.008231333 -0.07993766 -0.082536176 -0.009084937 0.005409557 0.079161555 -0.010794635
0.0043075485 -0.08755288 -0.1237553 -0.06813569 0.015046101 0.1137101 0.08481388 0.027401792
-0.027150126 -0.1487138 0.003911204 0.09487477 -0.011833415 0.0720628 -0.07509125 -0.018805398
-0.08599146 0.021579126 -0.02128916 -0.045928482 -0.08402541 -0.06632215 0.020520171 -0.014943714
0.061452918 -0.021510469 -0.0066793673 -0.053883076 -0.0828573 0.033197403 0.12155369 0.016109122
0.09528316 -0.030426543 -0.038303144 -0.0103140315 0.014185338 0.12567773 -0.058179356 0.123783976
0.009323729 0.010206931 -0.056847215 -0.09437059 -0.08482435 0.012882978 0.063340105 0.16755736
0.09641969 0.050018605 -0.049597222 -0.11144645 -0.0065488596 0.061339524 -0.020620685 -0.014980627
-0.033732295 -0.032824576 0.010651308 0.065857284 -0.031416014 -0.0056554927 -0.09397052 -0.08209338
-0.09268298 0.004270938 0.1037052 0.045098983 -0.039320964 -0.022777358 -0.046320315 -0.006582878
0.048024762 0.096837744 -0.023084303 0.018711692 -0.065455645 -0.0038595658 -0.0019101474 0.08123505
0.00061582954 0.01475088 -0.034825824 -0.029123997 0.017812397 0.033456586 0.04790257 -0.0021364798
0.0010492185 -0.07933392 -0.04681493 0.061460868 -0.022092821 0.03996519 0.030810371 0.038656738
0.05663268 -0.0074618733 0.06934339 0.014791157 0.033842523 -0.0039126663 0.044978965 0.004014469
0.008766677 -0.05053049 0.04629994 0.006016201 0.019463815 -0.029822545 -0.01811864 0.01796895
00000000: 6b88 54bd c6b7 aebd be87 e83b 001b 2b3c
00000010: 4e3b 463d ef19 783d 537d 903d b2ab 91bd
00000020: 5486 b13b 6398 06bd b923 cbbc 0aac d5bd
00000030: cfa0 bb3d 4a94 bb3d fb34 b13b 1b78 42bd
00000040: d509 263c 17d9 26bc a938 15bd c07f 1a3d
00000050: 4a7c 623d 65c1 fd3d 9c84 f63c 1395 8d3d
00000060: 6b4f f3bc e2ae f9bd 61f9 5fbd c10c 95bc
00000070: de7a dd3d bfd4 263c 820a 3f3d 2e54 323c
00000080: d4f1 e3bd 8859 df3b 02a2 c43c 8d12 d83d
00000090: 522d c23d 7df5 0abd 186a b2bc 8422 15bd
000000a0: b4c2 233c 3e4d 953d 69d5 113d 72c4 96bc
000000b0: 1f8d c1bd 94b5 68bd 25d9 dbbd 2b8b 573a
000000c0: d304 6dbd c922 34bc c5b8 11bd 6237 bb3b
000000d0: 7f36 ffb9 a36c c8bc 65b2 8ebc 8a21 aa3c
000000e0: 2778 61bd 0a37 c63b 7a00 3a3d 7f80 8b3d
000000f0: ea92 0a3d 8de6 09bd d44f 08bd 3a2a e9bc
00000100: 4c75 983d b8e2 b83d de0e 3e3e 19a1 7f3d
00000110: c81d 96bd 6f96 89bd 1dfd 7dbb 45ca 50bd
00000120: 4611 bd3c 889c 7cbd ff89 9cbc ce91 d8bd
00000130: d4b8 dfbd 7ce7 d6bc ee70 c7bb 778e 17bd
00000140: 1c39 b9bd 77f3 8ebb c437 3e3c 4932 b93c
00000150: 74d1 a5bc 62d3 dbbc bd8e 31bd 04f5 01bb
00000160: 9114 da3b f91b 373d bdfe bf3d 5f12 30bc
00000170: ad9e 98bc 4751 91bd eb42 bc3c 4d75 593c
00000180: ab03 8b3d b670 853d a0ca 543b 1fc3 5e3d
00000190: 95cd 99bd b5ea 3ebd 8622 373d b9dd b83c
000001a0: 4991 13bc 0c59 7fbc cdfb 35bd 374b b2bd
000001b0: 3bf6 29be 491b 8fbd 005c 48bd 7e7b 64bc
000001c0: b631 143d 48cf a1bd fa4e e8bd 69bc e9bb
000001d0: 0ffa 26be 7bc2 3cbd e974 e6bc a179 363c
000001e0: 78d7 8bbd 6227 e1bd d183 09be 189a b1bd
000001f0: 430e c0bc 5779 4f3c 2a1e 45bd 6ed1 09bb
00000200: 3da7 ffbd 95ed 8f3c 22ee acbd c79e 88bd
00000210: 977d 0c3c 470c 9ebc 063a 833d b6fa 5f3c
00000220: 970f 4fbd b7dc 063c 5bb6 a3bd ba08 a9bd
00000230: fdd8 14bc a742 b13b 741f a23d fbdb 30bc
00000240: 5626 8d3b ed4e b3bd 6b73 fdbd ba8a 8bbd
00000250: ec83 763c d7e0 e83d e6b2 ad3d b979 e03c
00000260: f169 debc 6e48 18be 8f29 803b b44d c23d
00000270: f1e0 41bc a995 933d 71c9 99bd c70d 9abc
00000280: 4a1c b0bd b5c6 b03c 9b66 aebc 811f 3cbd
00000290: 8415 acbd e8d3 87bd eb19 a83c 7bd6 74bc
000002a0: 0eb6 7b3d b936 b0bc 98de dabb 80b4 5cbd
000002b0: 17b1 a9bd 00fa 073d 24f1 f83d 47f7 833c
000002c0: d123 c33d 1641 f9bc c2e3 1cbd 2ffc 28bc
000002d0: 9f69 683c aab1 003e 7a4d 6ebd 7482 fd3d
000002e0: 8ec2 183c f93a 273c a0d8 68bd 5e45 c1bd
000002f0: 64b8 adbd 2013 533c 75b8 813d 2894 2b3e
00000300: b077 c53d 4fe0 4c3d 7526 4bbd 093e e4bd
00000310: d197 d6bb 273f 7b3d b6ec a8bc 4e71 75bc
00000320: e02a 0abd 1073 06bd d382 2e3c 2fe0 863d
00000330: 14ae 00bd b651 b9bb 9e73 c0bd 9320 a8bd
00000340: 93d0 bdbd 3af3 8b3b 6463 d43d b6b9 383d
00000350: 050f 21bd 9597 babc 5fba 3dbd 2fb5 d7bb
00000360: 9db5 443d de52 c63d 4b1b bdbc 4349 993c
00000370: 9c0d 86bd c5f0 7cbb e95d faba 905e a63d
00000380: 9f6f 213a adad 713c 86a5 0ebd 7395 eebc
00000390: 4eeb 913c c609 093d 7c35 443d 2f04 0cbb
000003a0: ee85 893a d279 a2bd 03c1 3fbd 64be 7b3d
000003b0: 01fc b4bc 8ab2 233d 0866 fc3c 8756 1e3d
000003c0: abf7 673d bb82 f4bb e803 8e3d 9c56 723c
000003d0: 759e 0a3d d335 80bb dd3b 383d cf8b 833b
000003e0: 1ca2 0f3c 0ff9 4ebd 02a5 3d3d 8d23 c53b
000003f0: 9472 9f3c 694e f4bc 8b6d 94bc 9f33 933c

weight f4 [32, 1, 9, 9]
-0.051700182 0.10034499 0.046360694 -0.07939725 -0.041735716 0.024885409 0.03402082 0.11082884
-0.11094538 0.01997862 -0.016595088 -0.029036082 0.015749343 0.06598463 -0.04725998 -0.020192318
0.048616536 -0.10000539 0.06494702 0.09313182 0.035684116 -0.04314646 0.08263973 -0.09910672
0.008651748 -0.026090175 -0.04949199 0.08919967 0.10636652 0.013461798 -0.022170596 0.1106612
0.033155657 -0.06444141 0.0064669475 0.039826624 -0.04439184 0.013090067 0.036755778 0.01880353
-0.0828777 0.012884192 0.02485121 0.041958325 0.02480296 0.03202782 0.09933405 -0.10347516
0.094198845 0.033070795 -0.01869496 -0.076809034 0.005801387 0.07727886 -0.0901516 -0.08468827
0.016898148 0.08655513 0.056745537 -0.019942008 -0.030343376 -0.005717665 -0.003052935 -0.087304644
0.028037928 0.008860536 -0.027257375 -0.020073093 -0.039883137 0.043390073 -0.035774983 -0.04571882
0.056805395 0.0033397153 0.07735009 -0.001120247 0.064586855 -0.030074768 -0.08042308 0.07066394
0.044956736 -0.058978584 0.08190357 -0.0325128 -0.027081028 -0.049418226 -0.07470915 0.099768065
-0.01991982 0.008399077 -0.0357595 -0.10930202 -0.025221772 -0.10551936 0.053730614 0.047998555
-0.0461787 0.04418219 -0.057307098 -0.07969959 0.10137809 -0.04144728 -0.08757399 -0.032788664
-0.012271374 0.048541524 0.09380425 -0.0024273396 0.062542416 -0.040699415 0.020108081 -0.08275946
-0.10318206 0.0056369156 -0.03299161 0.07345999 0.08505937 0.1033367 0.01701904 0.04326337
0.07601092 -0.09537448 -0.070791736 0.06337807 -0.011676788 0.034022473 0.034898706 0.10573002
-0.092060775 -0.084360085 0.08880239 0.06444233 0.012984842 -0.034204416 -0.032381773 -0.026129574
-0.10119358 -0.072347686 0.0827354 0.09133937 -0.028942771 -0.070513174 -0.07330468 -0.011225291
-0.0041108653 0.04318998 0.09733186 -0.06330008 -0.07859414 -0.03953477 -0.048544973 0.0478865
-0.0472899 -0.04139825 0.094746165 -0.027491726 -0.08996456 0.08363923 0.09581558 0.101648204
-0.10850673 0.055090226 -0.06265335 -0.07812688 -0.024064235 -0.018891692 -0.017951779 0.026264794
0.053891934 -0.07133787 -0.03765115 0.018051274 -0.108056046 0.073159896 -0.024850927 -0.022838205
0.059126623 0.0072610006 0.035376765 0.080040924 0.03276422 -0.022857748 -0.025660597 0.10335187
-0.08181722 -0.09366168 -0.11096394 -0.005183935 -0.036281824 -0.054536752 -0.03642142 0.09563755
-0.07645171 -0.023046456 0.08239051 -0.051804543 0.09036478 -0.04706441 0.044520862 -0.07419403
-0.09685767 0.04949952 -0.058663197 -0.01626464 -0.08126305 -0.042861685 -0.06332132 0.08510602
-0.07329275 0.08412493 0.002023697 0.060630538 -0.11083007 0.037629075 -0.030009255 -0.048187986
0.026450925 0.06282004 0.016125359 0.09634001 0.006867081 0.061907835 3.4727156e-05 0.09079782
0.0317721 -0.081068926 -0.036915436 -0.038263783 0.044680007 0.0027923435 0.031475432 0.084106915
0.09877939 0.064746924 0.0046693757 -0.078967065 0.028496899 -0.07917073 0.060066022 0.0403815
-0.067531735 -0.083866745 0.09116881 -0.034384646 0.02443438 0.07111337 -0.09410267 0.10373343
-0.035784893 0.0057001263 0.010299817 -0.05247867 0.009396315 0.10774688 0.046600483 -0.081471205
00000000: 92c3 53bd ad81 cd3d b6e4 3d3d 079b a2bd
00000010: 12f3 2abd 7cdc cb3c 6a59 0b3d 3bfa e23d
00000020: 5537 e3bd 34aa a33c 6cf2 87bc 14dd edbc
00000030: c404 813c f322 873d ae93 41bd 5c6a a5bc
00000040: 2222 473d a0cf ccbd f102 853d e5bb be3d
00000050: 8229 123d 58ba 30bd 053f a93d 77f8 cabd
00000060: 10c0 0d3c 10bb d5bc 1db8 4abd 51ae b63d
00000070: b1d6 d93d e08e 5c3c 1c9f b5bc 57a2 e23d
00000080: 3ace 073d dcf9 83bd b0e8 d33b 3e21 233d
00000090: 38d4 35bd b877 563c 3a8d 163d dc09 9a3c
000000a0: c9bb a9bd 3818 533c c494 cb3c 7edc 2b3d
000000b0: 942f cb3c 9a2f 033d a76f cb3d c9ea d3bd
000000c0: 53eb c03d 3e75 073d 2c26 99bc 0e4e 9dbd
000000d0: 9019 be3b 6144 9e3d 67a1 b8bd 0b71 adbd
000000e0: fc6d 8a3c d143 b13d 026e 683d 6c5d a3bc
000000f0: ac92 f8bc 405b bbbb c013 48bb c7cc b2bd
00000100: ccaf e53c c82b 113c dc4a dfbc 5470 a4bc
00000110: 805c 23bd cab9 313d ca88 12bd a843 3bbd
00000120: c6ac 683d 20df 5a3b b969 9e3d 40d5 92ba
00000130: 1d46 843d 5c5f f6bc dbb4 a4bd 41b8 903d
00000140: 8e24 383d 8793 71bd 0fbd a73d 242c 05bd
00000150: 08d9 ddbc c46a 4abd 1c01 99bd 3353 cc3d
00000160: e42e a3bc 489c 093c 8e78 12bd bdd9 dfbd
00000170: e49d cebc 891a d8bd a214 5c3d 229a 443d
00000180: e025 3dbd 62f8 343d d9ba 6abd 8a39 a3bd
00000190: 519f cf3d a0c4 29bd fe59 b3bd 684d 06bd
000001a0: e00d 49bc 7ad3 463d 711c c03d 0014 1fbb
000001b0: 3d16 803d 6eb4 26bd b4b9 a43c cb7d a9bd
000001c0: 1e51 d3bd e0b5 b83b 3622 07bd 3172 963d
000001d0: 9b33 ae3d 31a2 d33d 846b 8b3c ee34 313d
000001e0: 9dab 9b3d b253 c3bd 42fb 90bd 5dcc 813d
000001f0: 0050 3fbc 265b 0b3d f2f1 0e3d fb88 d83d
00000200: 5c8a bcbd fbc4 acbd 07de b53d 57fa 833d
00000210: 60be 543c ee19 0cbd c0a2 04bd b00d d6bc
00000220: 943e cfbd 062b 94bd 2d71 a93d 2310 bb3d
00000230: 6419 edbc 3669 90bd c420 96bd 48ea 37bc
00000240: 70b4 86bb fae7 303d ed55 c73d 79a3 81bd
00000250: f7f5 a0bd 36ef 21bd 18d7 46bd a224 443d
00000260: 0eb3 41bd 3691 29bd 470a c23d 5436 e1bc
00000270: 573f b8bd 0b4b ab3d f53a c43d ef2c d03d
00000280: c738 debd 4aa6 613d 6650 80bd fc00 a0bd
00000290: 5c22 c5bc c0c2 9abc 9c0f 93bc 4429 d73c
000002a0: cabd 5c3d 9719 92bd 1838 1abd 44e0 933c
000002b0: 7d4c ddbd dbd4 953d 2c94 cbbc 3017 bbbc
000002c0: c22e 723d b0ed ed3b 3ae7 103d 7fec a33d
000002d0: c633 063d 2c40 bbbc 2c36 d2bc 25aa d33d
000002e0: c98f a7bd b2d1 bfbd 1041 e3bd 00de a9bb
000002f0: 409c 14bd ee61 5fbd a02e 15bd 9fdd c33d
00000300: b792 9cbd eccb bcbc 5bbc a83d 0031 54bd
00000310: 2b11 b93d 9cc6 40bd 825b 363d 0af3 97bd
00000320: 505d c6bd 02c0 4a3d d248 70bd 6c3d 85bc
00000330: 3e6d a6bd bc8f 2fbd 9cae 81bd 114c ae3d
00000340: 821a 96bd b149 ac3d 00a0 043b ba57 783d
00000350: e0fa e2bd f220 1a3d f8d5 f5bc c460 45bd
00000360: 9caf d83c cba7 803d 5419 843c e94d c53d
00000370: 4005 e13b 1293 7d3d 00a8 1138 35f4 b93d
00000380: 7623 023d 7707 a6bd a434 17bd 7cba 1cbd
00000390: 6202 373d c0ff 363b 62ec 003d 3f40 ac3d
000003a0: d94c ca3d 099a 843d 9001 993b 7cb9 a1bd
000003b0: 5472 e93c 4424 a2bd ca07 763d 1267 253d
000003c0: 144e 8abd 54c2 abbd b7b6 ba3d ead6 0cbd
000003d0: 9c2a c83c e3a3 913d e7b8 c0bd 3172 d43d
000003e0: 2e93 12bd 20c8 ba3b 90c0 283c e0f3 56bd
000003f0: 00f3 193c 65aa dc3d 26e0 3e3d 60da a6bd

weight f4 [32, 32, 2, 2]
0.04752802 -0.034094144 0.13835582 0.04951778 0.009086137 0.13503644 0.016150404 0.060205445
-0.023618883 0.046335015 0.05657223 0.09370933 -0.04624984 -0.03744118 -0.021782607 -0.057655156
-0.01513052 -0.066624194 0.09766229 0.09119154 0.0074228225 -0.013967193 -0.00842172 -0.08893114
-0.00700018 -0.0050476026 0.15372278 0.10573298 0.15342203 0.068029985 -0.15577841 0.028079832
0.0020863109 0.012571858 -0.008191481 -0.033656903 -0.035336073 -0.06688869 -0.11491987 -0.03107917
0.02184885 -0.04469706 -0.11201972 0.0301298 0.054284096 0.056944314 -0.08801756 0.03554382
0.107552 0.0050939256 -0.059478093 0.07047771 -0.060999766 -0.0038561232 0.120007396 0.1530975
-0.020965463 0.20027736 0.072358325 0.12829033 -0.052981053 -0.0066500637 -0.03456569 -0.051180754
0.02333071 0.011383582 -0.06437011 0.025103377 -0.086485445 -0.02904779 -0.0906916 0.040843956
-0.028361194 -0.09862863 0.0837522 0.0013597178 -0.0064152675 0.013240272 0.09169742 -0.109138325
0.05121897 0.019476302 -0.009510502 0.061129037 0.0747726 0.056075327 0.35463524 0.08127491
0.071473636 0.023192726 -0.090666875 -0.084162235 -0.09035178 -0.06545848 0.07937865 0.08193336
-0.018706502 0.030594757 0.046522424 -0.005081871 -0.06657357 -0.0491781 0.18915755 0.21111129
0.115966715 0.31084207 0.025560234 0.096158676 -0.012379975 0.050432112 0.11132713 0.0072046765
0.012056312 0.20841798 -0.14720674 0.083358504 0.06152931 -0.048310548 0.07747012 0.017619481
-0.013533186 0.12003136 0.13697037 0.078376055 0.018854728 -0.06448977 0.122590624 0.04654354
0.0059782085 0.18676417 -0.09247887 0.02283246 -0.014895729 0.09555583 -0.039507303 -0.024464795
0.01771661 0.062286355 -0.08340017 -0.022295766 0.07863407 -0.102042355 0.023786915 0.037228543
0.023703314 0.005632402 0.036790658 0.07535425 -0.10639869 0.104828455 -0.010874324 -0.07318067
0.12716538 0.2398051 0.073755674 0.026130116 -0.04730047 0.09866432 -0.035944663 -0.007798122
0.014881534 0.50362736 -0.07935264 0.042559814 0.02379941 -0.15135573 0.0950513 0.084244035
0.06394197 -0.07617413 0.016854353 0.048860054 0.056746878 -0.29032493 0.06891299 0.066742666
0.012556315 -0.07568093 0.14854819 0.03428001 -0.03158745 0.10441147 0.019033121 -0.05790968
-0.080675095 0.10923797 -0.019874463 -0.01993167 0.036654845 -0.07013455 0.013117012 0.023515724
0.0023521848 -0.08395561 -0.025731971 0.042003874 -0.055216774 -0.1129806 -0.22504741 0.022873033
0.09974268 0.3413632 0.009529063 -0.009474437 0.08078323 0.11124594 0.04315975 -0.054739002
-0.057434633 0.10044067 0.073969625 -0.019508595 0.011790203 -0.025419816 0.043990757 -0.020358384
-0.035770074 -0.09672431 -0.056274388 0.028160816 0.026891502 -0.033590194 -0.058372244 0.0104732085
0.019870808 0.15268229 -0.004753124 -0.0012431592 -0.010788745 -0.12230739 0.062230438 -0.051059607
0.12273977 -0.021175075 -0.22256811 0.13187355 -0.0003408955 0.2898399 -0.006407765 -0.16889125
-0.07140969 -0.12222393 0.014371882 -0.03537459 0.014820224 0.23231477 0.04602756 0.084062025
0.09000375 -0.08912267 0.02135697 -0.099564254 0.0068610734 0.0745004 0.10808354 0.068090566
00000000: beac 423d 4da6 0bbd 26ad 0d3e 28d3 4a3d
00000010: 05de 143c fe46 0a3e da4d 843c fc99 763d
00000020: 637c c1bc c9c9 3d3d 48b8 673d adea bf3d
00000030: 7970 3dbd ec5b 19bd 7071 b2bc d027 6cbd
00000040: 00e6 77bc 4472 88bd 2b03 c83d a1c2 ba3d
00000050: 263b f33b a7d6 64bc 41fb 09bc 8821 b6bd
00000060: c461 e5bb 5c66 a5bb 8169 1d3e 888a d83d
00000070: aa1a 1d3e 4e53 8b3d 6084 1fbe ad07 e63c
00000080: 7dba 083b 32fa 4d3c 9035 06bc d2db 09bd
00000090: 8fbc 10bd f0fc 88bd 1c5b ebbd be99 febc
000000a0: 5cfc b23c 4414 37bd 986a e5bd c5d2 f63c
000000b0: 0059 5e3d 713e 693d 8d42 b4bd 6696 113d
000000c0: 3944 dc3d f2ea a63b 4d9f 73bd 9e56 903d
000000d0: e4da 79bd 03b7 7cbb 70c6 f53d 97c5 1c3e
000000e0: c3bf abbc 8215 4d3e 9a30 943d 8a5e 033e
000000f0: a902 59bd c7e8 d9bb c194 0dbd e9a2 51bd
00000100: 0c20 bf3c 3482 3a3c 7ad4 83bd 99a5 cd3c
00000110: 481f b1bd a2f5 edbc 85bc b9bd fe4b 273d
00000120: bc55 e8bc cffd c9bd 4686 ab3d 8f38 b23a
00000130: 2a37 d2bb baed 583c dbcb bb3d ea83 dfbd
00000140: fcca 513d c48c 9f3c f0d1 1bbc 7162 7a3d
00000150: 6022 993d 3eaf 653d c092 b53e 7673 a63d
00000160: c560 923d acfe bd3c 8eaf b9bd 405d acbd
00000170: 5b0a b9bd 180f 86bd 4691 a23d adcc a73d
00000180: 613e 99bc dba1 fa3c 4c8e 3e3d d385 a6bb
00000190: b957 88bd fa6e 49bd 84b2 413e 8f2d 583e
000001a0: f57f ed3d b126 9f3e b263 d13c d7ee c43d
000001b0: 61d5 4abc e791 4e3d 7aff e33d 3515 ec3b
000001c0: d687 453c 866b 553e 5dbd 16be ddb7 aa3d
000001d0: 2806 7c3d 48e1 45bd a7a8 9e3d bb56 903c
000001e0: 4cba 5dbc 00d3 f53d f641 0c3e a083 a03d
000001f0: 3b75 9a3c 3613 84bd cb10 fb3d 70a4 3e3d
00000200: d9e4 c33b 1b3f 3f3e 9065 bdbd 240b bb3c
00000210: 370d 74bc c6b2 c33d 69d2 21bd 656a c8bc
00000220: 6d22 913c fa1f 7f3d b5cd aabd 9ca5 b6bc
00000230: e60a a13d 95fb d0bd c7dc c23c f57c 183d
00000240: 742d c23c 0390 b83b cdb1 163d 5453 9a3d
00000250: 8ee7 d9bd 4db0 d63d 382a 32bc bfdf 95bd
00000260: a437 023e 788f 753e 370d 973d d30e d63c
00000270: 23be 41bd 8510 ca3d b63a 13bd 6387 ffbb
00000280: add1 733c b9ed 003f a383 a2bd 3353 2e3d
00000290: fbf6 c23c fffc 1abe 42aa c23d 2388 ac3d
000002a0: 02f4 823d 2f01 9cbd 2412 8a3c 7b21 483d
000002b0: 6a6f 683d 78a5 94be 4122 8d3d 61b0 883d
000002c0: 01b9 4d3c 9afe 9abd 041d 183e 3269 0c3d
000002d0: d861 01bd aed5 d53d 59eb 9b3c b332 6dbd
000002e0: fc38 a5bd 28b8 df3d c5cf a2bc be47 a3bc
000002f0: 6423 163d b4a2 8fbd bce8 563c 0ca4 c03c
00000300: 1d27 1a3b ebf0 abbd dbcb d2bc 410c 2c3d
00000310: fc2a 62bd 5f62 e7bd d472 66be 3a60 bb3c
00000320: e445 cc3d 28c7 ae3e c91f 1c3c ab3a 1bbc
00000330: ae71 a53d e9d4 e33d 47c8 303d 0136 60bd
00000340: 9440 6bbd d7b3 cd3d 637d 973d 7dd0 9fbc
00000350: b22b 413c 383d d0bc a72f 343d a0c6 a6bc
00000360: a483 12bd 6517 c6bd f97f 66bd 83b1 e63c
00000370: 914b dc3c df95 09bd bc17 6fbd d297 2b3c
00000380: 1bc8 a23c bf58 1c3e 18c0 9bbb 80f1 a2ba
00000390: 47c3 30bc 4c7c fabd 58e5 7e3d e123 51bd
000003a0: fd5e fb3d 5a77 adbc e5e8 63be dc09 073e
000003b0: 38ba b2b9 e565 943e 3bf8 d1bb d4f1 2cbe
000003c0: 3e3f 92bd 8a50 fabd 0b78 6b3c f2e4 10bd
000003d0: 86d0 723c ece3 6d3e 6587 3c3d b628 ac3d
000003e0: e353 b83d f285 b6bd d0f4 ae3c 58e8 cbbd
000003f0: dbd2 e03b aa93 983d e75a dd3d 1173 8b3d

bias f4 [32]
-0.06112797 0.052487623 -0.026888222 -0.07644299 0.04543107 -0.060360614 0.011726073 -0.03837368
0.048025597 -0.05684577 0.0625406 -0.09192857 0.09648565 0.15363155 -0.05333089 -0.04864352
0.036465023 -0.032197714 -0.0065279254 -0.08652315 -0.01044355 -0.00089706195 0.031232907 -0.01604923
0.03224745 0.051681 0.045617815 -0.019560115 -0.028337102 0.03837854 -0.018133665 0.0061073615
00000000: 5361 7abd 43fd 563d b044 dcbc 248e 9cbd
00000010: ee15 3a3d b13c 77bd b71e 403c b82d 1dbd
00000020: 7db6 443d 1cd7 68bd 4915 803d 0c45 bcbd
00000030: 459a c53d 9751 1d3e 7e71 5abd 6d3e 47bd
00000040: 595c 153d c0e1 03bd 35e8 d5bb 0d33 b1bd
00000050: 6c1b 2bbc cf28 6bba 27dc ff3c ad79 83bc
00000060: e715 043d 75af 533d bfd9 3a3d 893c a0bc
00000070: 3623 e8bc d132 1d3d 0d8d 94bc 4320 c83b

weight f4 [32, 32, 2, 2]
0.1349466 0.044073902 0.0028910227 -0.09552431 0.03746784 0.00959275 0.020778783 -0.051459994
-0.048334546 0.040815588 -0.138619 0.2893365 -0.0020369417 0.058363326 -0.04590476 0.16222012
0.14879324 0.05930616 0.07098051 0.088839576 -0.0015001966 0.03629261 0.07680865 0.029278653
-0.027709305 0.067593165 0.12771155 -0.0067043784 0.07723984 0.019926885 -0.022721624 0.11637319
0.052542154 0.03319684 0.09430022 0.013784313 0.067461744 0.05908889 0.012295769 0.048272844
0.036197174 0.04809798 -0.10716592 -0.11528925 -0.039264526 -0.17747629 -0.046006367 -0.117003925
-0.04654086 0.041115858 -0.025500618 -0.0022943104 0.0202221 -0.004500844 0.13133599 -0.011205744
0.036723454 0.1095683 -0.05062183 -0.023981195 0.033380534 -0.5349833 0.2405084 0.20479569
0.0746659 0.17944303 0.058404908 0.08305174 0.17627743 0.053260926 0.0649144 0.00092268846
-0.027556337 0.08487634 -0.061479837 0.1718129 0.07027274 0.087957546 0.014533391 0.0047538118
0.13380903 0.09113527 0.037031274 0.053640086 -0.015664428 0.048723187 0.11210623 0.019136667
0.08481891 -0.022764478 -0.007250654 -0.013269188 0.029846467 -0.008880737 -0.049623385 -0.099899076
0.11480294 0.063481905 0.16656403 -0.028464966 0.075273804 0.03967488 -0.013073687 0.13430333
-0.06497389 0.063751444 0.06712164 0.07481633 0.034035437 0.037325557 -0.046839982 0.024927652
0.006059536 0.0519354 0.17198806 0.07782983 -0.01661682 0.040795274 -0.03459362 -0.0029278013
-0.23035796 0.0779594 -0.10995606 0.012330676 0.052509315 0.02436184 0.043238983 0.043570563
0.25944898 0.0012045178 -0.07321208 -0.07068789 -0.00965638 -0.008793005 -0.018830052 0.08770771
-0.00492334 -0.0008845937 -0.107925594 0.24788088 0.041815042 0.10168906 -0.17671114 0.11438536
0.04216827 0.06906202 0.18385231 0.047252428 0.119438305 0.2579043 -0.005962407 -0.10014072
-0.09266439 -0.061713737 0.091420755 -0.009673694 0.063037954 -0.07627058 -0.2348784 0.032329086
0.09466838 0.07554897 -0.098787114 -0.05558573 0.060410418 0.0058315033 -0.054719232 -0.042028014
0.04703194 -0.047492005 0.04027173 -0.03702882 -0.019487685 0.119178034 0.1809732 -0.15106189
0.14459078 0.11329652 0.15521453 0.051689778 0.0271814 0.029489018 0.053302553 0.04266458
0.06467892 -0.09019167 -0.22758222 0.02087941 0.07956293 -0.057631623 -0.20853503 -0.009111036
-0.088124424 0.056083158 0.020203473 -0.06638771 -0.03382989 -0.05061979 -0.10624622 0.048589725
0.06476251 0.02436828 0.09949133 -0.06457478 0.04233082 -0.122471735 0.2772033 -0.0144662205
-0.11480817 0.08126582 -0.1052789 0.054940913 0.072314024 0.005653831 -0.12035555 -0.052971505
-0.09616025 -0.011467172 -0.32248563 0.015096915 -0.10604538 -0.0061176294 0.15833212 0.1840825
0.111301176 -0.05271541 0.14845258 0.04094455 0.10976403 0.0991787 0.035208795 -0.10131604
0.06873499 0.054384373 0.08562366 0.0107859755 -0.02794212 0.02462611 -0.10197458 -0.04217022
-0.16476928 -0.023560885 -0.114574306 0.043418325 -0.08912082 0.0685408 0.030157693 -0.00799286
-0.06663289 0.00915251 0.12951598 0.03930445 -0.013689698 0.04200308 -0.045768604 0.082485884
00000000: 712f 0a3e d686 343d 5077 3d3b 40a2 c3bd
00000010: e177 193d e92a 1d3c 4438 aa3c b7c7 52bd
00000020: 72fa 45bd 3f2e 273d 24f2 0dbe ea23 943e
00000030: 367e 05bb 620e 6f3d a106 3cbd 081d 263e
00000040: 415d 183e 04eb 723d 3b5e 913d 86f1 b53d
00000050: 3fa2 c4ba 8fa7 143d da4d 9d3d c9d9 ef3c
00000060: a0fe e2bc 496e 8a3d d1c6 023e 67b0 dbbb
00000070: ec2f 9e3d b53d a33c b322 babc 1155 ee3d
00000080: 7136 573d 69f9 073d 7920 c13d 99d7 613c
00000090: 6229 8a3d 3107 723d 3174 493c bfb9 453d
000000a0: 7d43 143d 6302 453d ce79 dbbd c51c ecbd
000000b0: d7d3 20bd 58bc 35be 2c71 3cbd c19f efbd
000000c0: a1a1 3ebd 1a69 283d ace6 d0bc 245c 16bb
000000d0: d1a8 a53c d17b 93bb f17c 063e 4c98 37bc
000000e0: 556b 163d 5865 e03d d658 4fbd 3674 c4bc
000000f0: 07ba 083d aaf4 08bf d647 763e f6b5 513e
00000100: 6fea 983d eabf 373e fc39 6f3d 0817 aa3d
00000110: 1282 343e 2128 5a3d d7f1 843d 93e0 713a
00000120: d4bd e1bc a6d3 ad3d 48d2 7bbd b9ef 2f3e
00000130: 28eb 8f3d 1623 b43d 761d 6e3c ddc5 9b3b
00000140: 3c05 093e 21a5 ba3d 1bae 173d b5b5 5b3d
00000150: b052 80bc f791 473d f397 e53d 80c4 9c3c
00000160: 89b5 ad3d 927c babc e596 edbb 0267 59bc
00000170: 9480 f43c 8380 11bc e441 4bbd e397 ccbd
00000180: ce1d eb3d cd02 823d c38f 2a3e 5c2f e9bc
00000190: 2729 9a3d 2182 223d 0533 56bc d086 093e
000001a0: 0811 85bd 1e90 823d 1277 893d 4e39 993d
000001b0: be68 0b3d afe2 183d 48db 3fbd 1335 cc3c
000001c0: 128f c63b 37ba 543d a31d 303e 3f65 9f3d
000001d0: ff1f 88bc f218 273d 0ab2 0dbd 5be0 3fbb
000001e0: f5e2 6bbe 2ea9 9f3d a530 e1bd 9b06 4a3c
000001f0: 0214 573d 7b92 c73c 5c1b 313d 0c77 323d
00000200: 7fd6 843e e9e0 9d3a 37f0 95bd d0c4 90bd
00000210: cb35 1ebc 8910 10bc 7b41 9abc 1aa0 b33d
00000220: f853 a1bb 14e4 67ba 1808 ddbd 7cd4 7d3e
00000230: 4046 2b3d 5b42 d03d c4f3 34be df42 ea3d
00000240: a3b8 2c3d 6370 8d3d c843 3c3e c38b 413d
00000250: 129c f43d 080c 843e 4c60 c3bb 9416 cdbd
00000260: d4c6 bdbd 8bc7 7cbd ce3a bb3d 6a7e 1ebc
00000270: 0b1a 813d c033 9cbd f783 70be 816b 043d
00000280: 7fe1 c13d 6bb9 9a3d e650 cabd ddad 63bd
00000290: ea70 773d 3216 bf3b 4621 60bd 9125 2cbd
000002a0: 90a4 403d fa86 42bd f8f3 243d 88ab 17bd
000002b0: a3a4 9fbc 9d13 f43d 0a51 393e f8af 1abe
000002c0: 9b0f 143e 0208 e83d 8ff0 1e3e a9b8 533d
000002d0: 87ab de3c f492 f13c c753 5a3d 0ec1 2e3d
000002e0: 6276 843d 69b6 b8bd 500b 69be 4c0b ab3c
000002f0: e4f1 a23d 230f 6cbd 358a 55be 7446 15bc
00000300: 947a b4bd 74b7 653d c181 a53c 48f6 87bd
00000310: 3691 0abd b256 4fbd 9e97 d9bd 0506 473d
00000320: 35a2 843d fd9f c73c 1cc2 cb3d c83f 84bd
00000330: 1563 2d3d 76d2 fabd 97ed 8d3e ba03 6dbc
00000340: 8c20 ebbd b26e a63d 779c d7bd b909 613d
00000350: 6019 943d c643 b93b f87c f6bd a6f8 58bd
00000360: aaef c4bd cee0 3bbc d61c a5be 0d59 773c
00000370: 522e d9bd 6576 c8bb d121 223e 1f80 3c3e
00000380: dff1 e33d 1dec 57bd f403 183e 79b5 273d
00000390: f7cb e03d 341e cb3d 1937 103d c97e cfbd
000003a0: eec4 8c3d 26c2 5e3d 755b af3d a9b7 303c
000003b0: dfe6 e4bc b2bc c93c 0cd8 d0bd aeba 2cbd
000003c0: 47b9 28be c202 c1bc efa5 eabd 6ad7 313d
000003d0: fa84 b6bd 1e5f 8c3d 440d f73c 7cf4 02bc
000003e0: d376 88bd 69f4 153c d69f 043e b4fd 203d
000003f0: c14a 60bc 6c0b 2c3d dc77 3bbd 5cee a83d

bias f4 [32]
0.051715687 -0.056713156 0.0063359025 -0.03511608 0.04744393 -0.038503144 -0.027388219 0.04601749
-0.01673996 0.071894936 0.017121226 0.0046181893 0.10426372 0.045604497 -0.025258489 -0.007660803
0.011645209 0.057561643 -0.009255913 0.09397577 0.033407275 0.03243143 0.09377254 -0.014608345
-0.002972134 0.013835024 -0.012511269 0.026312642 -0.0051111877 -0.024219912 -0.0006089383 0.011274642
00000000: d4d3 533d 0e4c 68bd 679d cf3b e1d5 0fbd
00000010: 9154 423d 79b5 1dbd 425d e0bc d67c 3c3d
00000020: 3e22 89bc a73d 933d d041 8c3c 2e54 973b
00000030: 3888 d53d c8cb 3a3d e4ea cebc 7907 fbbb
00000040: 8ccb 3e3c c2c5 6b3d 1da6 17bc 5e76 c03d
00000050: 11d6 083d d2d6 043d d10b c03d d757 6fbc
00000060: 22c8 42bb 4cac 623c 11fc 4cbc 9c8d d73c
00000070: c07b a7bb d668 c6bc 28a1 1fba 47b9 383c

weight f4 [32, 32, 2, 2]
0.06545297 0.16069478 0.08790669 0.015263654 0.15263084 -0.022149254 0.0124236755 0.008514855
0.010132012 -0.07331176 0.03901639 -0.037754394 -0.013338737 -0.10041718 -0.00070158637 0.017114112
-0.15180266 -0.34146795 0.20905831 0.038274113 -0.0100771785 -0.03037695 -0.1385924 -0.23676172
-0.21686621 -0.053237528 -0.2369232 0.08694651 0.053483445 -0.045724068 -0.02996399 -0.036046643
0.17326076 0.11794878 0.049990747 -0.18477851 0.10836217 0.14655116 -0.09431983 -0.036380917
0.1421762 -0.07608874 0.13448432 0.057831272 0.0052853236 -0.05754005 0.050686978 0.12047976
-0.10799537 0.00670244 -0.014254002 -0.10880429 -0.25405163 0.054898582 -0.026054543 -0.13739696
-0.044925462 -0.0033915068 -0.0728295 -0.02477529 -0.007143925 0.06630589 -0.021351358 0.058134686
0.025769755 0.06225745 0.005790156 0.068169065 -0.049663413 -0.063208856 -0.17007904 -0.05731458
0.20006025 -0.096193545 0.05686029 -0.2418075 -0.08220697 -0.021537334 -0.011121945 -0.023983464
-0.061238892 -0.14055382 0.033769447 -0.116363816 0.056401003 -0.07185341 0.028025072 -0.02819724
0.04234582 0.0412301 -0.044213124 -0.026367279 -0.020938527 -0.017540533 -0.070192404 -0.058307823
-0.25775766 -0.22101249 -0.030964347 0.11733669 -0.15366517 -0.050510906 -0.039868716 -0.12090994
-0.03300014 -0.0474293 -0.0026200402 -0.035033233 -0.019298676 0.10478799 0.03701683 0.09231848
-0.04561187 -0.06394396 0.059024133 0.038301013 -0.013196296 -0.0330115 -0.08530324 -0.06279407
0.12051499 -0.5770611 0.02048838 0.024149649 0.16615805 0.07505709 -0.08918851 0.068828635
0.06970602 0.057673674 0.06785219 0.09401692 -0.10440884 -0.06573264 0.18073477 -0.023277568
0.07810724 0.017484793 0.051389027 0.12227401 0.055074546 -0.016073305 0.031682983 -0.06812014
-0.09573975 -0.031590622 -0.35244316 -0.09972141 -0.0953877 0.1141434 0.083378606 -0.08003435
-0.038426522 -0.023800837 -0.07992716 -0.05134101 -0.0193421 -0.006584096 0.060819156 0.014631176
0.19218397 0.17315139 0.06625763 0.025432283 0.16327381 -0.14845425 0.16827567 0.012396559
0.10090005 0.113420196 0.022225728 0.061992005 0.118968114 0.07964228 0.12970722 -0.008695666
-0.10584077 -0.04017189 0.046570066 0.019252365 -0.42966968 0.102632016 0.06681506 -0.024898743
0.09867896 0.051332757 0.10180432 0.02458223 -0.034255948 0.048436005 -0.006530328 0.043334052
-0.071234204 -0.123095274 0.020452842 -0.007149545 0.09217991 -0.05706184 0.010495021 -0.085989706
-0.26559296 0.05781684 0.25062624 0.15703171 0.07600252 0.012186944 -0.0076129124 0.09314415
-0.005716481 0.0897248 0.048702404 -0.2132666 0.13481995 0.034454856 0.15385765 -0.0338088
0.061828963 0.029419512 0.07641133 0.036150306 0.023528127 0.048432443 0.048328865 -0.02216582
0.10809689 -0.011243499 -0.0731066 0.06594046 0.053251002 0.021996954 0.001952213 0.0052684634
0.042448524 0.037320066 0.01234995 0.03643181 -0.00074624544 0.12562776 0.030655691 0.112582035
-0.15364982 0.021641815 -0.014232798 0.19410914 0.022721339 0.026164915 -0.024020769 0.03272859
-0.08550149 -0.19803673 0.11285759 -0.052475467 0.122254536 0.009917613 -0.27995822 0.07650249
00000000: 350c 863d 2c8d 243e 6c08 b43d 6814 7a3c
00000010: 424b 1c3e 5a72 b5bc ac8c 4b3c e481 0b3c
00000020: bd00 263c 7a24 96bd a6cf 1f3d 5aa4 1abd
00000030: b88a 5abc 86a7 cdbd aaea 37ba e532 8c3c
00000040: 2872 1bbe e3d4 aebe 6213 563e 51c5 1c3d
00000050: c01a 25bc 15d9 f8bc 2beb 0dbe aa71 72be
00000060: 2d12 5ebe 980f 5abd ff9b 72be 0311 b23d
00000070: 7511 5b3d 2949 3bbd 0b77 f5bc a5a5 13bd
00000080: 456b 313e 218f f13d 19c3 4c3d 9436 3dbe
00000090: fcec dd3d 8211 163e c12a c1bd 2804 15bd
000000a0: a396 113e 6ad4 9bbd 42b6 093e 7ce0 6c3d
000000b0: 8230 ad3b 1eaf 6bbd 269d 4f3d 18be f63d
000000c0: ad2c ddbd 24a0 db3b 9e89 69bc c9d4 debd
000000d0: 0e13 82be 56dd 603d 5670 d5bc cab1 0cbe
000000e0: c303 38bd 0b44 5ebb a227 95bd 8df5 cabc
000000f0: 9617 eabb 62cb 873d 0be9 aebc a31e 6e3d
00000100: 181b d33c ab01 7f3d 59bb bd3b 399c 8b3d
00000110: dd6b 4bbd a573 81bd 3329 2ebe b1c2 6abd
00000120: 98dc 4c3e 1f01 c5bd 56e6 683d 639c 77be
00000130: 215c a8bd 106f b0bc d238 36bc f878 c4bc
00000140: a2d5 7abd 57ed 0fbe d551 0a3d 2750 eebd
00000150: bd04 673d e127 93bd d694 e53c e6fd e6bc
00000160: d072 2d3d e5e0 283d d218 35bd 3100 d8bc
00000170: 4687 abbc 2ab1 8fbc 09c1 8fbd 2fd4 6ebd
00000180: d0f8 83be 1951 62be f1a8 fdbc 384e f03d
00000190: 675a 1dbe 86e4 4ebd 614d 23bd a19f f7bd
000001a0: 282b 07bd 3a45 42bd fbb4 2bbb 027f 0fbd
000001b0: 4218 9ebc 169b d63d f69e 173d 7911 bd3d
000001c0: 83d3 3abd 0df5 82bd 4ac3 713d 86e1 1c3d
000001d0: 4735 58bc 1137 07bd 77b3 aebd 2d9a 80bd
000001e0: 90d0 f63d 47ba 13bf 3fd7 a73c 7cd5 c53c
000001f0: 5625 2a3e 88b7 993d 77a8 b6bd 07f6 8c3d
00000200: 08c2 8e3d 3b3b 6c3d 17f6 8a3d f18b c03d
00000210: 4dd4 d5bd d69e 86bd 8912 393e 99b0 bebc
00000220: b0f6 9f3d 453c 8f3c 4d7d 523d cc6a fa3d
00000230: d995 613d 2aac 83bc 04c6 013d 9282 8bbd
00000240: 3413 c4bd 2b65 01bd 6e73 b4be bd3a ccbd
00000250: a05a c3bd 04c4 e93d 67c2 aa3d 0de9 a3bd
00000260: 2165 1dbd f9f9 c2bc dab0 a3bd f34a 52bd
00000270: 5373 9ebc 66bf d7bb 821d 793d 9ab7 6f3c
00000280: e0cb 443e 994e 313e 15b2 873d 5d57 d03c
00000290: 4031 273e 6404 18be 7550 2c3e f01a 4b3c
000002a0: afa4 ce3d d948 e83d bb12 b63c 54eb 7d3d
000002b0: 8ea5 f33d 7e1b a33d f8d1 043e 4478 0ebc
000002c0: 0cc3 d8bd 488b 24bd 41c0 3e3d 23b7 9d3c
000002d0: aafd dbbe bc30 d23d 56d6 883d 73f8 cbbc
000002e0: 3218 ca3d 4c42 523d c97e d03d ac60 c93c
000002f0: f74f 0cbd d564 463d 5dfc d5bb 0c7f 313d
00000300: 3de3 91bd 6019 fcbd b88c a73c bb46 eabb
00000310: d2c8 bc3d adb9 69bd 4ff3 2b3c 5f1b b0bd
00000320: cdfb 87be 5ad1 6c3d 1552 803e eccc 203e
00000330: 36a7 9b3d bfab 473c bd75 f9bb 5cc2 be3d
00000340: 5151 bbbb a3c1 b73d 2c7c 473d 8f62 5abe
00000350: 3e0e 0a3e 8920 0d3d dc8c 1d3e 197b 0abd
00000360: 5e40 7d3d 3001 f13c 8b7d 9c3d 5812 143d
00000370: 0fbe c03c 1961 463d 7df4 453d 1895 b5bc
00000380: e761 dd3d a736 38bc eab8 95bd cb0b 873d
00000390: b91d 5a3d f532 b43c 66e1 ff3a 13a3 ac3b
000003a0: 81de 2d3d eddc 183d 7257 4a3c 8639 153d
000003b0: af9f 43ba 90a4 003e a521 fb3c 6991 e63d
000003c0: 6156 1dbe 2d4a b13c ae30 69bc 8cc4 463e
000003d0: 1a22 ba3c ce57 d63c 34c7 c4bc 6a0e 063d
000003e0: 681b afbd 24ca 4abe e121 e73d 84f0 56bd
000003f0: 9660 fa3d 7c7d 223c af56 8fbe 56ad 9c3d

bias f4 [32]
0.035306748 -0.0031765508 0.058063354 -0.00927463 -0.027870389 -0.057360236 -0.009374289 0.05577655
-0.062213615 -0.02260359 0.025598513 0.0059530274 -0.0038709862 -0.011008249 -0.063907176 0.042682085
0.04699287 -0.05924452 -0.009245464 0.0091195 0.007868938 0.007385618 -0.0022042363 0.08233828
-0.00046009268 -0.019343356 0.077046275 -0.06622385 -0.021907272 0.060511284 -0.002709528 -0.025815757
00000000: cf9d 103d ae2d 50bb d7d3 6d3d 9ef4 17bc
00000010: 7150 e4bc 91f2 6abd 9e96 19bc f475 643d
00000020: b4d3 7ebd 2a2b b9bc f9b3 d13c 9d11 c33b
00000030: 5fb0 7dbb f15b 34bc c4e1 82bd 69d3 2e3d
00000040: 987b 403d 62aa 72bd 497a 17bc f569 153c
00000050: b8ec 003c 0e03 f23b f374 10bb f9a0 a83d
00000060: 9838 f1b9 f575 9ebc 70ca 9d3d 5fa0 87bd
00000070: e176 b3bc aeda 773d 5692 31bb 917b d3bc
