models/encNet_15_3.pkl (torch_old, 100833 bytes, 18 tensors)

weight f4 [32, 1, 1, 1]
-0.15125622 1.0939358 0.262161 0.43978935 -0.96635795 -0.03518728 -2.999364 -1.448277
-0.010992082 1.0017899 1.1694089 1.0764878 1.1869462 -0.35791123 -0.46401733 1.181189
0.11541952 1.086392 -0.1997115 -0.1507565 0.5891132 -0.283381 0.5171766 0.46943706
-1.9129269 -0.5219536 0.56580794 -1.00508 -0.6806207 -0.62107396 0.35039744 -0.7122627
00000000: e9e2 1abe 1706 8c3f f739 863e 122c e13e
00000010: 3c63 77bf 8a20 10bd 94f5 3fc0 2461 b9bf
00000020: 2218 34bc a73a 803f 31af 953f 5aca 893f
00000030: daed 973f 2440 b7be ae93 edbe 3331 973f
00000040: 1261 ec3d e50e 8b3f 2c81 4cbe e95f 1abe
00000050: 1fd0 163f 5017 91be b065 043f 0e5a f03e
00000060: cada f4bf c09e 05bf cad8 103f 76a6 80bf
00000070: 283d 2ebf b4fe 1ebf 4b67 b33e d956 36bf

bias f4 [32]
0.110144526 0.26704398 -0.32110208 -0.32156256 -0.10694235 -0.010566995 0.07449711 -0.011978714
-0.004139537 -0.9255344 0.3601913 0.05580246 0.29272294 0.18942207 0.46841085 0.3564592
-0.1261994 -0.029579036 0.46256697 -0.0049085272 0.0031135844 0.50847685 -0.5509897 -0.48000753
0.2114088 0.52392775 -0.57861066 -0.49471027 0.6845258 0.62418866 0.028944781 0.041941203
00000000: 7493 e13d fdb9 883e 7e67 a4be d9a3 a4be
00000010: 9704 dbbd 3021 2dbc f191 983d 5e42 44bc
00000020: f4a4 87bb d3ef 6cbf fe6a b83e 1f91 643d
00000030: c8df 953e dcf7 413e 8cd3 ef3e d281 b63e
00000040: 6a3a 01be bc4f f2bc 94d5 ec3e b6d7 a0bb
00000050: 470d 4c3b 8a2b 023f a90d 0dbf 8cc3 f5be
00000060: 8c7b 583e 2120 063f d41f 14bf aa4a fdbe
00000070: 153d 2f3f d4ca 1f3f 9b1d ed3c 8aca 2b3d

weight f4 [32, 32, 2, 2]
0.08851909 -0.026256386 0.06880153 -0.13254535 -0.1535089 0.009334581 -0.022771163 -0.023484837
0.05365478 0.01868325 0.05156582 0.038931828 0.021974532 0.41918457 0.053531706 0.50691676
0.15693891 0.03792128 -0.018607106 0.028357541 0.16491528 0.02345914 0.13627373 0.09403343
1.3546566 0.94383657 1.3272479 0.91544324 0.17997716 0.052392583 0.07724159 -0.008644487
0.010673531 -0.022543952 0.05268673 -0.0134315295 0.033158343 0.21173702 0.07049053 0.28834414
-0.16954488 0.0016400185 -0.083952226 0.069228634 -0.19655187 -0.022185624 0.081828184 0.03347502
-0.21115749 -0.0059138685 -0.0312235 -0.001954982 0.0034473967 -0.07241117 -0.023128508 -0.25754035
0.10604378 -0.09044473 -0.0078670485 -0.08581441 -0.12508416 -0.102832265 -0.13872917 0.05285418
0.016995698 0.036774136 -0.033165954 0.054032642 -0.078821585 0.27820095 0.23245114 0.21772666
-0.04053739 -0.12091229 -0.05197378 -0.14398775 0.16551438 0.14881147 0.06571459 -0.043166857
-0.12712406 0.18360421 0.09966358 0.16325685 0.041536152 0.0010901564 -0.05845315 -0.026307734
-0.029353654 0.06825015 -0.021915715 0.034040798 0.06552122 0.09014244 0.0032916225 0.034144357
0.40887895 0.042257182 0.32771334 0.10593388 -0.009429541 -0.07961347 0.018920181 0.009452616
-0.07478499 0.05756419 0.028617375 0.09390728 0.14133355 0.07108072 0.10174561 0.0003177493
0.066543706 -0.006782454 0.043308564 -0.0008393803 0.046306837 -0.098838426 -0.038524337 -0.11680029
-0.25688162 0.037251763 -0.0096194595 0.06294386 0.18631592 -0.019970344 0.15296562 -0.08261678
-0.15518148 0.049596503 -0.015640426 0.10879061 0.073309004 0.04095678 -0.08154818 -0.18208733
0.13292067 0.12286685 0.014250477 0.073646486 0.093245 -0.19029853 -0.02805428 -0.1955742
-0.053560175 0.028511543 -0.0050376337 0.08369572 0.07345347 -0.012938131 -0.025926875 0.123143464
-0.88513356 -0.6859309 -0.6786187 -0.46542704 -0.10772424 -0.043418672 -0.08849601 0.13664924
-0.0151385125 0.096158564 0.014980754 0.0826798 -0.07041625 -0.22503138 -0.11751061 -0.12868893
0.0021057278 -0.056777358 -0.032769777 -0.1826484 0.1716491 0.10528537 0.12232504 -0.030287798
0.060684375 0.042575814 0.0045407396 -0.114230454 -0.15493166 -0.2042911 -0.21984814 0.034043886
-0.14671488 -0.12405903 -0.08129367 -0.031845484 0.12590885 -0.007163275 -0.04048971 -0.12623885
0.05548133 0.10860804 0.0662279 0.054809276 0.14786814 0.10071815 0.10506267 -0.055463444
-0.12336253 -0.09321354 -0.04539341 -0.11706522 0.054919932 0.07893199 0.06494998 0.18362291
0.11727715 -0.040969443 0.047900856 -0.042963885 -0.023061922 -0.12025162 -0.14908183 -0.027133089
0.20055982 0.0004512459 0.07851035 0.034517787 0.15990636 0.085400485 0.039390154 -0.07315791
-0.40083152 -0.31741604 -0.3211244 -0.08796339 -0.023956683 -0.05534486 -0.12780845 0.036243863
0.18854654 -0.00034195415 -0.011900105 -0.035620734 -0.074032545 0.10393761 -0.06032864 0.057400726
-0.059154656 -0.1335661 -0.15627378 -0.054362047 -0.07929 -0.1138808 -0.16675673 -0.048697915
-0.021320283 0.02226662 -0.094337955 -0.07514734 -0.36317116 -0.39780766 -0.26169014 -0.22645164
00000000: 7f49 b53d a217 d7bc d1e7 8c3d f8b9 07be
00000010: 7031 1dbe 12f0 183c 978a babc 4663 c0bc
00000020: 1dc5 5b3d 9d0d 993c ae36 533d fb76 1f3d
00000030: ef03 b43c 5c9f d63e 1044 5b3d 4cc5 013f
00000040: 98b4 203e 5853 1b3d ee6d 98bc 134e e83c
00000050: 8ddf 283e 622d c03c 578b 0b3e 9994 c03d
00000060: 6365 ad3f 469f 713f 42e3 a93f 7d5a 6a3f
00000070: ef4b 383e 9b99 563d d730 9e3d 9ba1 0dbc
00000080: 09e0 2e3c 18ae b8bc 0ace 573d eb0f 5cbc
00000090: 0bd1 073d 97d1 583e 575d 903d d8a1 933e
000000a0: 2c9d 2dbe e4f5 d63a 25ef abbd bec7 8d3d
000000b0: e544 49be a0be b5bc 8995 a73d 1a1d 093d
000000c0: ab39 58be 20c9 c1bb 6dc8 ffbc 281f 00bb
000000d0: b8ed 613b 4f4c 94bd ff77 bdbc 54dc 83be
000000e0: 7b2d d93d 163b b9bd cbe4 00bc 77bf afbd
000000f0: 1016 00be b999 d2bd 050f 0ebe a07d 583d
00000100: 903a 8b3c 7aa0 163d 06d9 07bd 5551 5d3d
00000110: 366d a1bd 5b70 8e3e ac07 6e3e bdf3 5e3e
00000120: 890a 26bd dda0 f7bd 75e2 54bd 8671 13be
00000130: 9a7c 293e 0962 183e 5f95 863d bbcf 30bd
00000140: cf2c 02be be02 3c3e 6b1c cc3d ce2c 273e
00000150: d021 2a3d 94e3 8e3a 926c 6fbd 5183 d7bc
00000160: 1377 f0bc bcc6 8b3d 9688 b3bc 5d6e 0b3d
00000170: fd2f 863d 999c b83d 43b8 573b f4da 0b3d
00000180: 9558 d13e de15 2d3d 0bca a73e ddf3 d83d
00000190: 5d7e 1abc 630c a3bd 7ffe 9a3c 25df 1a3c
000001a0: df28 99bd 6ec8 6b3d fc6e ea3c 7652 c03d
000001b0: beb9 103e c592 913d 0160 d03d 9797 a639
000001c0: 1148 883d 593f debb 5264 313d dc09 5cba
000001d0: 3dac 3d3d cd6b cabd b2cb 1dbd fe34 efbd
000001e0: fd85 83be 4e95 183d f09a 1dbc b6e8 803d
000001f0: 9ac9 3e3e d998 a3bc 05a3 1c3e fd32 a9bd
00000200: e5e7 1ebe b425 4b3d 5a20 80bc 9dcd de3d
00000210: 0823 963d 4cc2 273d bb02 a7bd 1a75 3abe
00000220: 5b1c 083e 9da1 fb3d d57a 693c f8d3 963d
00000230: 3cf7 be3d 9edd 42be 17d2 e5bc 9a44 48be
00000240: ea61 5bbd 0a91 e93c bc12 a5bb a968 ab3d
00000250: c66e 963d 74fa 53bc 9964 d4bc a432 fc3d
00000260: 1d98 62bf 2b99 2fbf f5b9 2dbf 744c eebe
00000270: 879e dcbd c7d7 31bd 653d b5bd c7ed 0b3e
00000280: 8607 78bc c8ee c43d d671 753c 0754 a93d
00000290: 6536 90bd a06e 66be 67a9 f0bd 08c7 03be
000002a0: 4000 0a3b 608f 68bd 9a39 06bd 2f08 3bbe
000002b0: c8c4 2f3e db9f d73d 8d85 fa3d 1e1e f8bc
000002c0: 2e90 783d fa63 2e3d 7cca 943b a8f1 e9bd
000002d0: 68a6 1ebe b031 51be df1f 61be 9a71 0b3d
000002e0: 6d3c 16be a912 febd 4c7d a6bd 6970 02bd
000002f0: 40ee 003e e8b9 eabb 8ad8 25bd c244 01be
00000300: 6440 633d e46d de3d 7ea2 873d b17f 603d
00000310: bf6a 173e 5145 ce3d 192b d73d a32d 63bd
00000320: 7ea5 fcbd bee6 bebd 71ee 39bd e4bf efbd
00000330: b9f3 603d 18a7 a13d 7f04 853d a507 3c3e
00000340: 012f f03d 93cf 27bd b033 443d e6fa 2fbd
00000350: 5bec bcbc 7b46 f6bd e8a8 18be 3646 debc
00000360: 8e5f 4d3e 3395 ec39 09ca a03d 8662 0d3d
00000370: 7ebe 233e 73e6 ae3d 9257 213d d0d3 95bd
00000380: ca39 cdbe 5b84 a2be 6b6a a4be 2626 b4bd
00000390: ce40 c4bc 4bb1 62bd 38e0 02be 7274 143d
000003a0: 5812 413e 4f48 b3b9 a8f8 42bc 0ce7 11bd
000003b0: 609e 97bd 3edd d43d 2a1b 77bd 061d 6b3d
000003c0: 274c 72bd 8dc5 08be 3c06 20be bdaa 5ebd
000003d0: cc62 a2bd 563a e9bd 47c2 2abe 7777 47bd
000003e0: e0a7 aebc 7d68 b63c 4234 c1bd d9e6 99bd
000003f0: 92f1 b9be 72ad cbbe 40fc 85be f0e2 67be

bias f4 [32]
0.015725214 -0.023904819 -0.015345093 0.04119974 -0.06758329 -0.042392723 -0.04970634 0.003304349
-0.05516966 -0.07460005 0.014099964 -0.06471809 -0.05986726 -0.049855456 0.04286495 0.0019807874
0.0032780156 -0.024673602 0.0023824696 0.0029595015 -0.11317263 -0.012975397 0.03554812 0.06883435
0.04828857 0.028248556 0.110096194 -0.005845602 -0.038332388 0.063531466 -0.042458773 0.06927726
00000000: 2ad2 803c 0ad4 c3bc fc69 7bbc 0fc1 283d
00000010: 1c69 8abd fea3 2dbd e098 4bbd c78d 583b
00000020: 95f9 61bd e9c7 98bd 8903 673c eb8a 84bd
00000030: 5f37 75bd 3c35 4cbd 2893 2f3d 19d0 013b
00000040: fad3 563b 4b20 cabc 3523 1c3b 32f4 413b
00000050: 0dc7 e7bd c296 54bc e89a 113d 06f9 8c3d
00000060: 3cca 453d 8469 e73c 1d7a e13d 778c bfbb
00000070: 6c02 1dbd c91c 823d 40e9 2dbd 3ce1 8d3d

weight f4 [32, 32, 2, 2]
-0.33290264 -0.25801566 -0.6339211 0.19557135 -0.05945505 -0.03213626 -0.018924084 -0.080118544
-0.4769881 0.0832274 -0.113178626 0.084253155 -0.2203672 -0.13661915 -0.027450196 0.11277521
0.2663395 -0.1474788 -0.088117145 0.06606867 -0.14114188 0.009453228 -0.08086845 0.35526597
0.00011482296 0.005291696 0.09987193 0.2175723 -0.3315462 0.06728265 0.04438625 0.37013468
-0.6028332 0.050562523 -0.15273479 0.11026745 0.029857913 0.06803687 0.17738676 0.04397292
-0.22453319 0.23320493 0.27424285 0.08880419 -0.13106145 0.120056204 0.04962064 -0.1729456
0.39526388 0.6097168 0.21696638 0.42929235 -0.11956603 -0.02725161 0.017963544 -0.0762163
0.04283894 0.09971451 0.07560017 -0.0052439207 -0.55790806 -0.08444628 -0.02080408 0.17154038
-0.6976936 -0.06896364 -0.24883083 0.16168751 0.061364897 -0.031386793 0.014178737 0.11717166
-0.080254234 0.063141845 -0.008551467 -0.17726386 -0.63568175 -0.28479764 -0.36223656 -0.21737966
-0.8511519 -0.3269026 -0.406578 0.30282557 -0.07749294 0.02172057 -0.06619816 -0.06392765
-0.037227347 0.15143739 -0.017725142 -0.02757694 -0.35296276 -0.07097116 0.030123748 0.36685047
-0.15833881 -0.24283582 0.10874695 -0.20828235 -0.551184 -0.070486166 -0.22561596 -0.16592851
-0.4277821 -0.10151527 -0.04382613 0.40938544 0.037598364 -0.106510244 -0.019914787 0.14666499
0.018193092 0.022277508 0.0056738784 0.024595633 -0.15862562 0.06162924 -0.0696902 -0.08894025
-0.1781083 0.031724446 0.22098881 0.13456342 -0.762345 -0.118087925 -0.3392127 0.6538112
0.116389826 0.1939718 0.107260786 0.0050010607 0.21307394 -0.046249144 0.11256011 -0.13095231
0.12484402 0.0013762416 0.17366502 -0.00465421 0.20076542 -0.1234931 0.1419046 -0.17019798
0.060085792 0.33613214 -0.2885375 0.006195833 0.06650016 -0.054619115 -0.11839204 0.016591944
0.04056627 0.0056301346 -0.046031307 0.034047853 0.19303383 -0.0002316508 0.1499987 -0.18994962
0.13121831 -0.13450448 0.06343857 -0.0417528 -0.14989631 -0.0072096693 -0.19487286 0.19237101
-0.15705827 -0.41435072 0.10692095 -0.14906411 -0.16640705 0.15059727 0.033876516 0.21022037
0.0090994015 -0.20452954 0.164284 -0.0055625346 -0.15081409 -0.028618446 -0.05562643 0.105447724
-0.18035044 0.04834998 -0.14911394 0.083861776 -0.22095653 -0.081177585 0.0239654 0.2432263
-0.22541548 0.1742295 -0.08468141 0.21370803 0.13433506 -0.13054767 0.16264853 -0.16381375
-0.1359549 0.13030912 -0.14222726 0.18560104 -0.007921413 0.04906276 0.012612165 0.0114687355
-0.16537742 -0.3183616 -0.020326227 -0.41566452 -0.062358763 0.14747411 -0.07294092 0.22339134
-0.0887101 0.16724661 -0.1889734 0.1438391 0.15883718 -0.084322095 0.13385421 -0.22920169
-0.042161025 0.064126626 0.12923448 0.02001303 0.057924487 0.0023574696 -0.016093176 0.0001918797
-0.24843745 0.11333809 -0.09799431 0.17248899 -0.17462364 -0.047765203 -0.450171 -0.13072789
0.09169568 -0.10187562 0.04167872 -0.059199244 -0.10342179 0.10940551 -0.056902617 0.09946098
-0.24472143 -0.18294138 -0.0037921513 0.17118283 0.0496077 0.05368456 -0.046075102 -0.0077228635
00000000: 3772 aabe a11a 84be a748 22bf db43 483e
00000010: 2387 73bd 50a1 03bd ae06 9bbc 3115 a4bd
00000020: c937 f4be 2173 aa3d 32ca e7bd eb8c ac3d
00000030: f0a7 61be e4e5 0bbe 3cdf e0bc b0f6 e63d
00000040: a75d 883e af04 17be c376 b4bd 034f 873d
00000050: 7f87 10be b6e1 1a3c 5c9e a5bd 6ce5 b53e
00000060: 1bcd f038 f765 ad3b a889 cc3d 46cb 5e3e
00000070: 6cc0 a9be 7ccb 893d 5bce 353d 4b82 bd3e
00000080: 4753 1abf a61a 4f3d 8266 1cbe e7d3 e13d
00000090: 9598 f43c ea56 8b3d e0a4 353e f31c 343d
000000a0: 07ec 65be 46cd 6e3e 8f69 8c3e f9de b53d
000000b0: f934 06be 07e0 f53d 033f 4b3d a718 31be
000000c0: 0760 ca3e 6616 1c3f 6f2c 5e3e 35cc db3e
000000d0: 09df f4bd c53e dfbc 4828 933c 4b17 9cbd
000000e0: e277 2f3d 1f37 cc3d 43d4 9a3d 32d5 abbb
000000f0: 10d3 0ebf 2cf2 acbd 516d aabc 48a8 2f3e
00000100: 0c9c 32bf cf3c 8dbd 82cd 7ebe 6991 253e
00000110: c259 7b3d 708f 00bd ef4d 683c b2f7 ef3d
00000120: 555c a4bd 8350 813d 741b 0cbc a884 35be
00000130: 0abc 22bf ffd0 91be 1277 b9be c698 5ebe
00000140: 17e5 59bf c75f a7be fe2a d0be f40b 9b3e
00000150: 9eb4 9ebd 56ef b13c e792 87bd 80ec 82bd
00000160: b47b 18bd 6712 1b3e 5134 91bc 09e9 e1bc
00000170: 89b7 b4be 5459 91bd 14c6 f63c d3d3 bb3e
00000180: 9223 22be f4a9 78be b9b6 de3d f847 55be
00000190: 651a 0dbf 0d5b 90bd df07 67be 2ae9 29be
000001a0: 4106 dbbe 3de7 cfbd 0783 33bd f89a d13e
000001b0: be00 1a3d 0b22 dabd 5624 a3bc 592f 163e
000001c0: ae09 953c 527f b63c f1eb b93b c87c c93c
000001d0: c16e 22be f16e 7c3d bcb9 8ebd 4e26 b6bd
000001e0: 0662 36be 7ef1 013d e44a 623e feca 093e
000001f0: 0b29 43bf 15d8 f1bd 49ad adbe 2c60 273f
00000200: ca5d ee3d 8ba0 463e 8bab db3d f0df a33b
00000210: 0e30 5a3e be6f 3dbd ea85 e63d 5d18 06be
00000220: 39ae ff3d 0163 b43a 3ed5 313e 5882 98bb
00000230: 7395 4d3e f3e9 fcbd 714f 113e 6148 2ebe
00000240: 851c 763d 8319 ac3e 30bb 93be 6a06 cb3b
00000250: 3c31 883d 4bb8 5fbd 8777 f2bd d4eb 873c
00000260: d128 263d fe7c b83b 538b 3cbd c375 0b3d
00000270: a9aa 453e 4ae7 72b9 4299 193e 2782 42be
00000280: 185e 063e 8bbb 09be 15ec 813d fc04 2bbd
00000290: 6b7e 19be 173f ecbb c08c 47be e8fc 443e
000002a0: e2d3 20be c725 d4be 5ff9 da3d 43a4 18be
000002b0: 9c66 2abe 2c36 1a3e 1ac2 0a3d 0244 573e
000002c0: a815 153c 3170 51be 113a 283e ec45 b6bb
000002d0: 026f 1abe 3b71 eabc 8ad8 63bd faf4 d73d
000002e0: c9ad 38be a10a 463d 53b1 18be b9bf ab3d
000002f0: 6e42 62be 6f40 a6bd 1653 c43c 5110 793e
00000300: 51d3 66be 3869 323e 726d adbd 47d6 5a3e
00000310: 218f 093e 4aae 05be 568d 263e cbbe 27be
00000320: c337 0bbe c16f 053e 06a4 11be 330e 3e3e
00000330: d0c8 01bc 08f6 483d 41a3 4e3c 5de7 3b3c
00000340: b358 29be 4b00 a3be 3083 a6bc fbd1 d4be
00000350: e76b 7fbd 7403 173e 0d62 95bd b3c0 643e
00000360: a4ad b5bd b242 2b3e 3e82 41be 8f4a 133e
00000370: 37a6 223e 10b1 acbd 1411 093e d9b3 6abe
00000380: 0ab1 2cbd d254 833d 0b56 043e 5ef2 a33c
00000390: 3a42 6d3d c77f 1a3b d6d5 83bc 5133 4939
000003a0: 6366 7ebe cd1d e83d 3eb1 c8bd f4a0 303e
000003b0: 8ad0 32be 72a5 43bd d07c e6be 88dd 05be
000003c0: f2ca bb3d 2aa4 d0bd 4eb7 2a3d e87a 72bd
000003d0: cece d3bd ff0f e03d b812 69bd 33b2 cb3d
000003e0: 4198 7abe fc54 3bbe be85 78bb 8d4a 2f3e
000003f0: 7231 4b3d 57e4 5b3d 3fb9 3cbd 1310 fdbb

bias f4 [32]
-0.005481829 -0.050469402 0.03683851 0.038639873 0.16942324 0.021864397 -0.09977623 0.043994393
-0.06819258 -0.042633604 0.056950465 0.06947717 -0.04886817 0.08742824 -0.044260994 0.04053546
-0.14723079 -0.040554557 0.030528916 -0.013615411 0.03352653 -0.09746969 0.1623011 0.03435707
0.23814833 0.11622326 0.04186668 -0.10159933 -0.062043495 0.11381753 -0.10727988 -0.021757433
00000000: eaa0 b3bb 01b9 4ebd fae3 163d d844 1e3d
00000010: 497d 2d3e f71c b33c 7b57 ccbd 7733 343d
00000020: 8da8 8bbd 93a0 2ebd e444 693d 0c4a 8e3d
00000030: fd29 48bd 940d b33d 044b 35bd 8308 263d
00000040: abc3 16be 891c 26bd c717 fa3c 2c13 5fbc
00000050: 1d53 093d 309e c7bd 4232 263e 00ba 0c3d
00000060: 28dd 733e 7606 ee3d 657c 2b3d 4f13 d0bd
00000070: 5221 7ebd 2a19 e93d 8eb5 dbbd a53c b2bc

weight f4 [32, 32, 2, 2]
0.112640105 -0.5231032 0.49321833 -0.14773464 -0.46307486 -0.00019732486 0.2906327 -0.08013874
-0.018951213 0.06964208 -0.13041481 -0.06167883 -0.37025502 -0.21358494 0.12608877 -0.04676273
-0.035675354 -0.121054314 0.011525999 -0.051334772 0.14474006 -0.17372847 -0.08484301 -0.014965952
-0.34382415 0.037935887 0.22956488 -0.023409687 -0.1548363 0.042109687 0.17735949 -0.15779306
0.06450022 -0.0013386407 -0.42542377 0.013762927 0.05171108 -0.5188692 -0.11044529 -0.33782896
-0.12973115 0.018753473 0.017545464 -0.077327095 -0.0076867943 -0.2445674 0.08445207 -0.45649394
-0.14500481 -0.0060753347 0.10301071 0.0571178 0.0968714 -0.05152022 -0.023982964 0.17704199
0.18647133 -0.17980802 -0.11203006 -0.0015332229 0.0043342663 0.11637659 0.38695604 -0.033072617
0.040129393 0.07444511 0.10253639 -0.0028988742 -0.035414744 0.13334143 -0.22116013 0.03901464
-0.022643695 0.059752483 -0.16718526 -0.0057279994 0.10400279 -0.34979907 0.27176517 -0.16781299
-0.039626546 0.07014476 -0.081613116 0.04335994 -0.33895615 -0.3127319 -0.48211724 -0.43376464
0.06930294 -0.14731044 0.090893835 -0.013936335 -0.38635454 0.016798437 -0.027482249 -0.07342398
0.04209821 -0.068941236 -0.045878872 -0.011612989 -0.019316347 -0.0499487 0.081322975 -0.06234349
0.014101434 0.10952956 0.021306168 0.1472947 -0.23181239 -0.09327709 -0.040591687 0.019774253
-0.29094633 0.2876945 0.047305845 0.1060888 0.053581323 -0.109452575 0.056956135 0.01968253
-0.4249974 -0.094774574 -0.52273667 -0.35325494 -0.18105955 -0.018426366 -0.23010136 0.03263196
-0.1950699 0.029294556 -0.13583018 -0.0035933077 -0.054197565 0.055112567 0.0058798427 0.053364825
0.05878486 0.018084563 0.16966778 0.0836751 0.04959105 0.07084872 -0.0017996293 0.09440642
0.047436904 0.031300385 -0.10157512 -0.022862328 0.20812261 0.0099245645 0.08254842 -0.0066261888
-0.09819814 0.028117636 -0.0019354662 0.00047253646 -0.054949522 0.031942137 0.024954518 -0.05146393
0.14311668 0.013501934 0.02860927 0.060148485 0.18453357 0.024556307 0.062267415 -0.0024067913
0.14010204 0.08896717 0.154847 0.06290448 -0.029664183 -0.0015597737 0.064575225 -0.010602496
0.023430971 0.02353 0.03512578 0.02097074 0.07040243 -0.014405117 -0.0019036155 0.011912929
0.035170685 0.054258615 0.014221387 0.017477164 -0.14230572 0.016012345 0.027343329 -0.013299742
0.018723862 0.053754445 -0.16490346 -0.057227805 0.07864951 -0.07631657 0.17903692 0.012234346
0.06729476 0.031744517 0.12484652 -0.013362149 0.06849199 0.003685954 0.09748114 -0.022458073
0.19701108 0.17155996 0.21925502 0.066667266 0.02033174 -0.015385894 0.12330722 0.028931528
-0.01966224 0.096404545 -0.059036694 0.05757084 -0.015192508 0.06881301 -0.049114347 0.09286952
0.0002997028 0.1383954 -0.080564156 -0.017963404 -0.009010342 -0.03866856 -0.021367105 0.0056817597
-0.031356405 0.04827393 0.1430472 0.07796678 -0.0021057688 0.0043829586 0.010603385 0.0048547992
-0.0048597883 0.041988794 -0.015601576 0.04190906 0.010021495 0.022535797 -0.14628029 -0.04611108
0.028244646 0.012194733 0.10190705 0.1049076 -0.029099042 0.062951826 -0.08898078 0.09511815
00000000: dbaf e63d 17ea 05bf 1d87 fc3e c047 17be
00000010: 2618 edbe fde8 4eb9 cfcd 943e c81f a4bd
00000020: 933f 9bbc 82a0 8e3d 768b 05be f1a2 7cbd
00000030: 1192 bdbe 03b6 5abe 6a1d 013e 478a 3fbd
00000040: 5220 12bd 53eb f7bd 8bd7 3c3c 6944 52bd
00000050: bd36 143e e0e5 31be 2cc2 adbd c133 75bc
00000060: b809 b0be a962 1b3d 0e13 6b3e acc5 bfbc
00000070: 688d 1ebe 357b 2c3d ba9d 353e 8194 21be
00000080: b118 843d 5475 afba 25d1 d9be e67d 613c
00000090: ffce 533d 9dd4 04bf 2431 e2bd ebf7 acbe
000000a0: 3ed8 04be e2a0 993c 81bb 8f3c ab5d 9ebd
000000b0: 81e1 fbbb e06f 7abe 35f5 ac3d 93b9 e9be
000000c0: 247c 14be 9a13 c7bb 47f7 d23d 5bf4 693d
000000d0: 8364 c63d de06 53bd ec77 c4bc 7f4a 353e
000000e0: 57f2 3e3e 981f 38be 0470 e5bd 6cf6 c8ba
000000f0: 7606 8e3b da56 ee3d 1a1f c63e 2777 07bd
00000100: b85e 243d ae76 983d 99fe d13d 0afb 3dbb
00000110: 0d0f 11bd a88a 083e cd77 62be d1cd 1f3d
00000120: 457f b9bc 05bf 743d 9d32 2bbe f1b1 bbbb
00000130: 6aff d43d dd18 b3be ce24 8b3e 2bd7 2bbe
00000140: 724f 22bd 0ea8 8f3d c724 a7bd 319a 313d
00000150: a98b adbe 651e a0be 12d8 f6be 6616 debe
00000160: b3ee 8d3d 8cd8 16be 8c26 ba3d 3a55 64bc
00000170: 43d0 c5be e09c 893c 7422 e1bc 505f 96bd
00000180: 2c6f 2c3d 1031 8dbd 7ceb 3bbd 6844 3ebc
00000190: 513d 9ebc 0297 4cbd a98c a63d e35b 7fbd
000001a0: b309 673c 0951 e03d 468a ae3c 6cd4 163e
000001b0: 3a60 6dbe 0f08 bfbd 7843 26bd 9dfd a13c
000001c0: ebf6 94be b24c 933e c6c3 413d 1645 d93d
000001d0: 1778 5b3d ac28 e0bd d64a 693d 423d a13c
000001e0: 4299 d9be 2c19 c2bd 12d2 05bf d5dd b4be
000001f0: ad67 39be e4f2 96bc b19f 6bbe 17a9 053d
00000200: 67c0 47be 23fb ef3c 1117 0bbe b37d 6bbb
00000210: 44fe 5dbd b7bd 613d b2ab c03b 1395 5a3d
00000220: 65c8 703d 1426 943c 64bd 2d3e da5d ab3d
00000230: fc1f 4b3d 2219 913d 8ae1 ebba 2758 c13d
00000240: 334d 423d d534 003d 9e06 d0bd c749 bbbc
00000250: 181e 553e a49a 223c 250f a93d 8020 d9bb
00000260: 1b1c c9bd f556 e63c 78af fdba c5be f739
00000270: c012 61bd c2d5 023d 6b6d cc3c d8cb 52bd
00000280: 2e8d 123e 3737 5d3c fd5d ea3c 425e 763d
00000290: 5ef6 3c3e 4f2a c93c 1e0c 7f3d 42bb 1dbb
000002a0: e976 0f3e 6b34 b63d 3690 1e3e 10d4 803d
000002b0: 4d02 f3bc 5271 ccba 0440 843d 17b6 2dbc
000002c0: 4ff2 bf3c fdc1 c03c 0de0 0f3d d4ca ab3c
000002d0: 262f 903d 7103 6cbc bd82 f9ba 722e 433c
000002e0: 230f 103d 483e 5e3d d200 693c 452c 8f3c
000002f0: 97b8 11be 522c 833c 1eff df3c 29e7 59bc
00000300: c962 993c 9f2d 5c3d 74dc 28be b467 6abd
00000310: ff12 a13d dd4b 9cbd 7455 373e 9172 483c
00000320: d6d1 893d 8a06 023d 88af ff3d eaec 5abc
00000330: 8745 8c3d 0c90 713b 31a4 c73d fef9 b7bc
00000340: 46bd 493e 6aad 2f3e 6384 603e d988 883d
00000350: c08e a63c 1e15 7cbc 7f88 fc3d d001 ed3c
00000360: b512 a1bc bf6f c53d 76d0 71bd 67cf 6b3d
00000370: ffe9 78bc d6ed 8c3d 202c 49bd 6032 be3d
00000380: 6e21 9d39 86b7 0d3e d2fe a4bd fd27 93bc
00000390: 1da0 13bc ed62 1ebd 110a afbc 0e2e ba3b
000003a0: 936f 00bd e2ba 453d f77a 123e 0cad 9f3d
000003b0: f000 0abb ec9e 8f3b d2b9 2d3c 0215 9f3b
000003c0: dc3e 9fbb 71fc 2b3d c19d 7fbc d6a8 2b3d
000003d0: 3231 243c fe9c b83c 80ca 15be f9de 3cbd
000003e0: 5161 e73c 6bcc 473c a5b4 d03d ccd9 d63d
000003f0: 1d61 eebc e3ec 803d 8e3b b6bd 4ecd c23d

bias f4 [32]
-0.07128322 0.17164683 -0.018878244 -0.05138596 -0.029733049 -0.029298171 0.13570568 -0.055013977
0.043474257 0.057046868 0.12969452 -0.03740915 -0.051793423 0.009554189 -0.2371542 -0.0519008
-0.06770838 -0.052777525 0.13506505 -0.040876795 -0.09808049 0.06102199 0.04469953 -0.0625978
0.059318416 0.08969791 0.02099147 -0.12245006 0.037960812 0.074058466 -0.08340519 0.016946703
00000000: f0fc 91bd 30c4 2f3e 8ca6 9abc 167a 52bd
00000010: b992 f3bc b802 f0bc 6ef6 0a3e 5656 61bd
00000020: 1012 323d faa9 693d a4ce 043e 563a 19bd
00000030: 5725 54bd 2c89 1c3c 8dd8 72be ef95 54bd
00000040: b1aa 8abd 3f2d 58bd 7e4e 0a3e 6d6e 27bd
00000050: 6dde c8bd 32f2 793d db16 373d 4633 80bd
00000060: def7 723d 8ab3 b73d 4ef6 ab3c 19c7 fabd
00000070: cc7c 1b3d f7ab 973d 57d0 aabd d0d3 8a3c

weight f4 [32, 32, 2, 2]
0.04014105 0.015728157 0.048531495 0.086356945 0.10532675 0.06774989 -0.096266754 -0.039776757
-0.08240219 0.13993633 0.06247445 0.3333114 0.16929753 -0.0005928708 0.23940508 0.15432367
-0.09078827 -0.025093578 0.13408563 0.11003788 0.13563496 0.03252613 -0.032660853 0.015637279
0.0630533 0.02502116 0.104151934 -0.04931143 0.16972816 0.14435278 0.25022337 0.11142966
0.038647205 -0.0838201 -0.06299562 -0.015071216 -0.03678211 0.17895061 0.05596489 -0.02312405
0.0083249 0.007346971 -0.077535585 0.037794914 0.25441638 -0.098132 0.39989632 0.163594
-0.06744827 0.26715192 -0.22319601 0.039708305 0.11830113 0.11578178 0.057178706 0.019151576
-0.15645233 0.028804671 0.0364315 0.030351087 -0.17945987 -0.11868654 -0.0152539415 -0.19448985
0.09819649 0.10626462 0.06920083 0.15412886 -0.08598026 -0.04699009 -0.0077263163 0.0667786
0.0222051 0.07082431 0.06015405 -0.019832674 0.113348424 0.031839523 0.15519065 -0.0080134515
0.18074241 -0.10898728 0.1256731 0.13106324 -0.03525432 0.020234678 0.18301612 0.11468829
0.028171439 -0.016873155 -0.09796018 -0.008182408 0.004388119 -0.028888516 -0.07035117 -0.14100699
-0.028546618 0.055371985 0.011443151 -0.10025946 0.1193662 0.060249448 -0.03462014 -0.027403269
0.104707584 0.0005465085 0.078231156 0.020710144 0.06794567 0.24957868 0.15412581 -0.04356535
0.2720363 0.08325609 0.16705117 -0.13571933 0.05463002 -0.088718146 0.10510612 -0.09167011
-0.036603644 0.16479291 0.029499615 0.05469004 0.1963056 0.21824552 0.21009605 0.20657308
-0.18000373 -0.05272981 -0.062233083 0.14613216 -0.008522688 -0.042717792 -0.00058771484 -0.09405288
-0.09429045 0.27033764 0.21826103 0.12506649 -0.07900968 -0.12946814 -0.015137938 0.042828824
-0.073574714 0.04692027 0.05877137 0.07813383 0.14314464 0.0047818455 0.0015931211 0.0357739
-0.064925015 -0.011743703 -0.016108083 -0.019981375 0.17068432 -0.067323916 0.18207368 -0.0638489
-0.08193422 0.17441379 -0.06439719 0.084077865 0.10369551 -0.2108431 -0.08486515 -0.052123457
0.058601588 0.058423053 0.00489925 0.017601801 -0.0049849343 0.07934515 0.16874918 0.2073879
0.12612672 0.03305738 -0.052005462 -0.08321448 0.051836595 0.059417687 -0.025856262 0.023030015
-0.044581562 0.015010989 -0.14246343 0.031872395 -0.083183825 0.098065816 -0.24042311 0.053149812
0.1703725 0.0024774629 0.01769535 0.10741969 -0.10904546 0.080525205 0.14532422 0.057065696
-0.004998459 -0.022132335 -0.14022724 0.07905306 -0.24695846 -0.13547637 0.08406043 0.121262975
-0.013207099 0.28081524 0.20837858 0.1110568 -0.09592256 0.013118947 0.10137907 0.032185785
-0.11831057 0.20127976 -0.26895443 0.116782375 -0.10224067 0.003221826 0.028279977 -0.013278866
0.112845965 0.059462156 0.051103372 -0.082194075 -0.031913187 -0.03765672 0.06515813 -0.06252349
-0.026862424 -0.020685878 -0.052883822 0.10730889 0.14784184 -0.22863117 0.13817245 -0.097850524
0.21613652 -0.1268827 -0.063700624 -4.635837e-05 -0.26216617 -0.23586304 0.116314255 0.07657503
0.21086979 -0.1599841 -0.029745365 0.058069356 0.12186379 0.12825057 0.13040726 0.12672652
00000000: f16a 243d 56d8 803c f6c8 463d e9db b03d
00000010: 8db5 d73d 74c0 8a3d 8127 c5bd f4ec 22bd
00000020: 7bc2 a8bd 784b 0f3e 35e5 7f3d cba7 aa3e
00000030: 555c 2d3e e36a 1bba 9b26 753e 0607 1e3e
00000040: 33ef b9bd 0c91 cdbc be4d 093e 8a5b e13d
00000050: e4e3 0a3e 1f3a 053d 63c7 05bd c019 803c
00000060: 1722 813d 2df9 cc3c 9c4d d53d c8fa 49bd
00000070: 38cd 2d3e 37d1 133e 471d 803e 3c35 e43d
00000080: 884c 1e3d dfa9 abbd d903 81bd 43ed 76bc
00000090: d6a8 16bd d43e 373e 713b 653d a66e bdbc
000000a0: 2965 083c dcbe f03b faca 9ebd d7ce 1a3d
000000b0: dd42 823e 6ef9 c8bd 36bf cc3e 2f85 273e
000000c0: 5222 8abd 23c8 883e 7f8d 64be 2da5 223d
000000d0: dd47 f23d ff1e ed3d 3834 6a3d c4e3 9c3c
000000e0: 0a35 20be c6f7 eb3c 3239 153d d8a2 f83c
000000f0: 54c4 37be ee11 f3bd abeb 79bc 5928 47be
00000100: 3e1b c93d 44a1 d93d 2ab9 8d3d f5d3 1d3e
00000110: 6b16 b0bd ae78 40bd 0a2d fdbb 38c3 883d
00000120: 78e7 b53c 560c 913d 1864 763d 2278 a2bc
00000130: 3823 e83d 296a 023d 4cea 1e3e da4a 03bc
00000140: 8a14 393e b934 dfbd 73b0 003e 7135 063e
00000150: d566 10bd 32c3 a53c 9468 3b3e b2e1 ea3d
00000160: cac7 e63c 9239 8abc 599f c8bd 820f 06bc
00000170: 36ca 8f3b 9ca7 ecbc 4614 90bd 2364 10be
00000180: 99da e9bc bccd 623d 0e7c 3b3c d554 cdbd
00000190: 4476 f43d 20c8 763d d9cd 0dbd d27c e0bc
000001a0: ee70 d63d 9143 0f3a a837 a03d 52a8 a93c
000001b0: 1927 8b3d 8e91 7f3e 28d3 1d3e 9571 32bd
000001c0: 5848 8b3e 2b82 aa3d 760f 2b3e 02fa 0abe
000001d0: bac3 5f3d dcb1 b5bd e141 d73d 8abd bbbd
000001e0: b4ed 15bd 79bf 283e 2da9 f13c aa02 603d
000001f0: 5604 493e c17b 5f3e 6b23 573e e587 533e
00000200: e652 38be 37fb 57bd 1ee8 7ebd aba3 153e
00000210: bfa2 0bbc daf8 2ebd e010 1aba cc9e c0bd
00000220: 5a1b c1bd b269 8a3e d27f 5f3e 6e11 003e
00000230: d4cf a1bd 4c93 04be 1d05 78bc 476d 2f3d
00000240: 57ae 96bd 782f 403d 40ba 703d a104 a03d
00000250: 8294 123e 07b1 9c3b 46d0 d03a a787 123d
00000260: 68f7 84bd a968 40bc 19f5 83bc fbaf a3bc
00000270: dfc7 2e3e 1fe1 89bd 8671 3a3e 36c3 82bd
00000280: 21cd a7bd 8799 323e ade2 83bd 0431 ac3d
00000290: 505e d43d 41e7 57be c8cd adbd 687f 55bd
000002a0: 3808 703d 034d 6f3d e389 a03b a731 903c
000002b0: a958 a3bb b67f a23d 96cc 2c3e 7e5d 543e
000002c0: 5d27 013e 2d67 073d ae03 55bd 5a6c aabd
000002d0: 9c52 543d f65f 733d 83d0 d3bc 71a9 bc3c
000002e0: 289b 36bd a7f0 753c efe1 11be a18c 023d
000002f0: 485c aabd bbd6 c83d 7a31 76be 9eb3 593d
00000300: 2176 2e3e ee5c 223b d7f5 903c dbfe db3d
00000310: 3a53 dfbd 66ea a43d dfcf 143e b8bd 693d
00000320: 1dca a3bb df4e b5bc bb97 0fbe 92e6 a13d
00000330: aee2 7cbe 51ba 0abe e027 ac3d b958 f83d
00000340: 9762 58bc 04c7 8f3e 3261 553e bf71 e33d
00000350: 0c73 c4bd daf0 563c d49f cf3d 3ed5 033d
00000360: d04c f2bd 481c 4e3e 65b4 89be 992b ef3d
00000370: 8e63 d1bd 4525 533b 69ab e73c 9a8f 59bc
00000380: c91b e73d 978e 733d c551 513d 5e55 a8bd
00000390: 67b7 02bd ef3d 1abd a071 853d 510c 80bd
000003a0: 960e dcbc 6e75 a9bc b59c 58bd c3c4 db3d
000003b0: da63 173e 4a1e 6abe 147d 0d3e db65 c8bd
000003c0: e452 5d3e 8aed 01be 7975 82bd ec70 42b8
000003d0: a53a 86be 1586 71be 2b36 ee3d 5fd3 9c3d
000003e0: 40ee 573e dfd2 23be 8dac f3bc 22da 6d3d
000003f0: b993 f93d 1e54 033e 7b89 053e 99c4 013e

bias f4 [32]
-0.029727502 0.05381027 0.023341127 0.07688941 -0.0028148494 0.060813263 0.037872896 -0.075541906
0.06579314 0.04132287 0.04572128 0.051389273 0.0041336482 -0.01166898 0.024268726 0.0348308
0.038315315 -0.067283 -0.014683755 -0.035399113 0.06196918 0.03680367 -0.0120429555 -0.034144398
0.004507861 0.039065108 0.00067433313 0.09561666 0.088718206 0.077668324 0.16522229 -0.03667184
00000000: 1787 f3bc 2868 5c3d e435 bf3c 3278 9d3d
00000010: 5679 38bb 5417 793d 9c20 1b3d b7b5 9abd
00000020: 8ebe 863d 2b42 293d 3d46 3b3d 8f7d 523d
00000030: 8e73 873b 402f 3fbc 35cf c63c beaa 0e3d
00000040: 85f0 1c3d abcb 89bd 2294 70bc a9fe 10bd
00000050: 65d3 7d3d 72bf 163d d14f 45bc ffda 0bbd
00000060: aeb6 933b bc02 203d bbc5 303a abd2 c33d
00000070: e4b1 b53d 9210 9f3d 0830 293e 3635 16bd

beta f4 [32]
1.6587292 1.0775677 1.3593427 0.99879897 1.2591845 1.0691553 1.7655361 0.9771039
1.4921536 0.8327687 1.7697572 1.4213792 0.7262099 1.0588393 1.0559572 1.6429242
0.996709 1.030207 1.2274212 0.8806811 1.3315995 1.2185563 1.1528791 0.8166989
1.6432434 0.76954794 1.5411265 1.055831 1.0402732 1.171456 1.66071 1.4554979
00000000: 3d51 d43f bded 893f f1fe ad3f 4ab1 7f3f
00000010: f52c a13f 15da 883f 16fd e13f 7b23 7a3f
00000020: e4fe be3f 5430 553f 6787 e23f c1ef b53f
00000030: e4e8 393f 0c88 873f 9b29 873f 574b d23f
00000040: 5228 7f3f d3dd 833f 231c 9d3f 5174 613f
00000050: da71 aa3f a7f9 9b3f 8b91 933f 2e13 513f
00000060: cd55 d23f 1801 453f a243 c53f 7825 873f
00000070: ac27 853f 45f2 953f 2592 d43f c14d ba3f

gamma f4 [32, 32]
0.7338765 5.933611e-06 1.11043e-05 5.8109617e-06 4.2655342e-06 4.12549e-06 0.005959686 0.27734828
2.1687933e-05 4.8622483e-06 0.0022052615 -0.00032149555 3.816436e-06 -0.0008030726 0.0015977684 0.00057968043
-0.000549625 -6.155924e-05 -4.2068103e-05 3.8118235e-06 6.575546e-06 3.82814e-06 8.073401e-06 0.106209315
0.039747126 0.00012776689 -0.0038665421 1.8264902e-05 -5.4449905e-05 0.42335927 3.8376643e-06 0.24960127
3.046729e-06 0.40374348 3.917817e-06 7.779874e-06 3.845463e-06 3.8152143e-06 4.6584914e-06 0.77889913
4.344597e-06 4.3848213e-06 3.9519186e-06 7.6076512e-06 4.1306892e-05 3.838791e-05 1.434874e-05 7.788062e-05
-6.1134e-06 9.51904e-06 8.073589e-06 3.81817e-06 4.3343157e-06 6.63707e-06 9.31158e-06 5.665464e-06
-9.436269e-06 3.8749326e-06 5.091784e-06 2.891449e-05 -3.715685e-05 -7.713823e-05 4.3480427e-06 0.9461818
6.5220875e-06 4.7754465e-06 3.2474468 3.806717e-06 8.855206e-05 3.900007e-06 2.0961275e-05 -0.00011224143
4.541698 4.068076e-06 2.3884095e-05 1.3682233e-05 3.813469e-06 8.841557e-06 4.798735e-06 4.110706e-06
0.072851844 4.3560362e-06 5.201779e-06 0.00054320204 5.207189e-06 3.8145774e-06 4.8465663e-06 1.8137427e-05
0.00044975293 1.1510628 6.743199e-06 4.02127e-06 -0.0005002581 0.59565777 1.0119803e-05 3.861096e-06
-0.0092079295 -0.0017198911 3.50404e-06 -0.014104177 -8.764382e-05 7.949182e-05 3.8791945e-06 -0.013094975
0.25457862 3.986064e-06 -3.3549306e-06 4.233031e-06 0.115843855 4.1313842e-06 3.8418257e-06 0.20091505
2.929201e-06 -0.0022026922 3.90839e-06 4.184014e-06 4.456774e-06 3.9790198e-06 3.918979e-06 -0.010296547
-0.0052419715 -0.00030763555 -0.029030481 -0.00050506234 -0.011305719 0.75510806 3.821418e-06 -0.0045872186
4.2154834e-06 3.8357252e-06 1.0840583e-05 -0.0125888325 7.09879e-06 3.8150615e-06 4.012343e-06 0.007350155
3.7233124e-06 3.824637e-06 4.1691837e-06 4.407063e-06 1.52053735e-05 8.537464e-06 3.8233243e-06 6.810401e-06
4.747643e-06 -0.010313183 3.824464e-06 0.0027813562 3.8200014e-06 3.8209996e-06 4.890687e-06 -0.015048783
6.643653e-05 1.0807045 1.1593703 4.81289e-06 -0.016326942 0.98138845 3.3115615e-05 0.0004573278
3.5483592e-06 4.0476602e-06 3.823267e-06 0.29752675 5.6573363e-06 0.36064708 3.8692165e-06 -0.0002725089
2.6777569e-05 4.052098e-06 0.00013590962 5.8254836e-06 3.847436e-06 1.5434778e-05 7.559034e-06 4.024787e-06
-0.00015765171 0.44579023 4.290279e-06 3.815328e-06 3.816404e-06 4.579215e-06 5.7412963e-06 5.0309773e-06
0.00036131637 4.0695886e-06 -0.00026547853 5.249107e-06 0.4352496 -5.0892573e-05 3.7538555e-06 4.2930687e-06
0.0058379956 4.309933e-06 5.4655006e-06 0.501614 9.418535e-06 4.111826e-06 0.39720264 0.41595224
3.823114e-06 3.8845287e-06 0.0059049004 8.131825e-06 4.2859674e-06 6.8591744e-06 5.6467143e-06 3.8189432e-06
-0.0002603436 0.07036196 6.2270187e-06 3.8831563e-06 4.0069517e-06 3.88514e-06 3.989068e-06 0.6581804
0.0026903455 8.027437e-06 -0.0009768428 4.064487e-06 4.7796207e-06 0.00034191742 4.265462e-06 0.0034226628
0.00012649935 -0.006171417 2.4726331 -0.031977586 1.8404275 0.00015010813 0.0054346286 -0.01732387
2.1087723 3.8994326e-06 1.4369036e-05 3.8927456e-06 0.8115349 4.223936e-06 3.9137353e-06 0.0003800147
-4.4678312e-05 -0.01813774 3.857586e-06 -0.00080991164 -0.0004372885 4.077417e-06 3.960729e-06 -0.0030936452
0.09722612 2.6712081 -0.018048212 0.010046071 -0.012476239 -0.0057669496 3.978009e-06 1.9295344
00000000: 55df 3b3f 5519 c736 9b4c 3a37 c8fb c236
00000010: a920 8f36 b06d 8a36 7849 c33b 9800 8e3e
00000020: 7bee b537 6526 a336 2686 103b 678e a8b9
00000030: f00e 8036 4a85 52ba 366c d13a b2f5 173a
00000040: b614 10ba 5e19 81b8 4872 30b8 a1ce 7f36
00000050: 83a3 dc36 7973 8036 fe72 0737 4584 d93d
00000060: e2cd 223d 2af9 0539 d065 7dbb 9437 9937
00000070: 2461 64b8 8cc2 d83e 49c5 8036 7a97 7f3e
00000080: 6876 4c36 77b7 ce3e cb75 8336 4e86 0237
00000090: 4708 8136 7104 8036 2350 9c36 ef65 473f
000000a0: cec7 9136 5421 9336 b99a 8436 3a45 ff36
000000b0: f040 2d38 b402 2138 5ebb 7037 d753 a338
000000c0: b521 cdb6 f7b3 1f37 cd73 0737 d51d 8036
000000d0: 7d6f 9136 ffb3 de36 ee38 1c37 f719 be36
000000e0: 7750 1eb7 6b05 8236 17da aa36 658d f237
000000f0: ddd8 1bb8 46c5 a1b8 67e5 9136 f838 723f
00000100: 4ed8 da36 c63c a036 2bd6 4f40 e676 7f36
00000110: 06b5 b938 cedc 8236 ffd5 af37 2963 ebb8
00000120: 9755 9140 8280 8836 b45a c837 be8c 6537
00000130: e6ea 7f36 3356 1437 d204 a136 b2ee 8936
00000140: 5933 953d 112a 9236 f18a ae36 ac65 0e3a
00000150: 6ab9 ae36 f1fd 7f36 b09f a236 d425 9837
00000160: d1cc eb39 0756 933f a343 e236 72ee 8636
00000170: c123 03ba 077d 183f 39c8 2937 908e 8136
00000180: dbdc 16bc f86d e1ba f326 6b36 3515 67bc
00000190: 6bcd b7b8 d9b4 a638 072a 8236 4e8c 56bc
000001a0: 2158 823e 07c0 8536 4525 61b6 7609 8e36
000001b0: 8b3f ed3d 52a0 8a36 08e9 8036 adbc 4d3e
000001c0: 4a93 4436 0b5b 10bb d124 8336 6864 8c36
000001d0: 668b 9536 8583 8536 c67f 8336 d9b2 28bc
000001e0: d8c4 abbb 254a a1b9 55d1 edbc 2966 04ba
000001f0: 9f3b 39bc c34e 413f bb39 8036 6150 96bb
00000200: ba72 8d36 a1b4 8036 f3df 3537 6441 4ebc
00000210: 2432 ee36 2103 8036 c4a1 8636 92d9 f03b
00000220: 05de 7936 6255 8036 04e5 8b36 62e0 9336
00000230: 951a 7f37 213c 0f37 1b4a 8036 e684 e436
00000240: f14d 9f36 a0f8 28bc e553 8036 6a47 363b
00000250: 902d 8036 2336 8036 ae1a a436 2c8f 76bc
00000260: d753 8b38 8654 8a3f 3f66 943f 697e a136
00000270: 14c0 85bc 463c 7b3f 9fe5 0a38 80c5 ef39
00000280: 5920 6e36 23d1 8736 9d49 8036 6d55 983e
00000290: 26d4 bd36 bca6 b83e 51d4 8136 87df 8eb9
000002a0: 64a0 e037 42f7 8736 f682 0e39 8678 c336
000002b0: 3919 8136 ef79 8137 9ca3 fd36 a80c 8736
000002c0: 4f4f 25b9 9e3e e43e 37f5 8f36 6b05 8036
000002d0: a90e 8036 28a7 9936 5ca5 c036 c4cf a836
000002e0: 106f bd39 808d 8836 ed2f 8bb9 7c21 b036
000002f0: 09d9 de3e 7c75 55b8 bfea 7b36 2e0d 9036
00000300: a84c bf3b 0b9e 9036 4b64 b736 c669 003f
00000310: 4d04 1e37 51f8 8936 255e cb3e b1f7 d43e
00000320: 4d48 8036 d957 8236 e57d c13b ec6d 0837
00000330: 2ed0 8f36 dc27 e636 e878 bd36 7924 8036
00000340: ba7e 88b9 ee19 903d aff1 d036 0f4c 8236
00000350: 7473 8636 195d 8236 d5d9 8536 837e 283f
00000360: 8250 303b 94ad 0637 6809 80ba ad61 8836
00000370: a160 a036 6143 b339 0a20 8f36 c14e 603b
00000380: e9a4 0439 9939 cabb 9f3f 1e40 eefa 02bd
00000390: 2193 eb3f 5866 1d39 f814 b23b caea 8dbc
000003a0: 20f6 0640 dfd7 8236 8a12 7137 6e9e 8236
000003b0: c0c0 4f3f 55bb 8d36 bb52 8336 b63c c739
000003c0: f964 3bb8 9995 94bc 6970 8136 4050 54ba
000003d0: de43 e5b9 bfd0 8836 67e6 8436 c1be 4abb
000003e0: 7d1e c73d 13f5 2a40 d8d9 93bc 4798 243c
000003f0: 2469 4cbc aef8 bcbb d67a 8536 fcfa f63f

beta f4 [32]
1.7098581 0.5231833 1.0543069 0.8266446 1.0133353 0.57539934 0.6887837 0.8840281
0.5153839 0.9833408 1.2290584 0.97143734 0.65155923 0.9350979 0.6378377 0.5728926
0.79118466 1.1063408 1.3242787 0.39558923 0.9348964 1.1446652 1.1751819 0.57107717
0.9918825 1.1369559 1.2806816 0.40479535 0.9526003 1.0896925 1.1315455 0.61802095
00000000: a1dc da3f 57ef 053f 87f3 863f fb9e 533f
00000010: f9b4 813f 5f4d 133f 2154 303f aa4f 623f
00000020: 33f0 033f 39bc 7b3f c951 9d3f 1eb0 783f
00000030: 96cc 263f 9362 6f3f 5549 233f 17a9 123f
00000040: 148b 4a3f 939c 8d3f f781 a93f ac8a ca3e
00000050: 5f55 6f3f 6484 923f 5c6c 963f 1d32 123f
00000060: 03ec 7d3f c587 913f 60ed a33f 5641 cf3e
00000070: 9ddd 733f 0b7b 8b3f 7cd6 903f 9f36 1e3f

gamma f4 [32, 32]
-0.0011858513 1.528513 -0.0041570896 5.7930297e-06 0.35703728 8.715228e-06 0.0010218136 1.024243
-6.640281e-05 -0.0041500633 9.388038e-06 2.333829 4.465089e-06 0.0006941883 0.6346547 2.2322123
3.975092e-06 -0.00034340625 4.8187553e-06 0.95764923 -0.015954 -0.0055360333 9.180827e-06 1.2217913
1.2703608 0.13563356 -0.00081302697 3.7245838e-06 0.00084743707 0.5345001 -0.0035494957 0.5348824
5.934228e-06 0.14988731 -4.11248e-05 -1.5303285e-05 3.1235297e-06 0.326866 -4.3777854e-05 -0.00216954
0.58580667 -0.009741719 -0.0020863498 0.79533553 -0.0015046616 0.31331995 0.25922242 -0.0002711309
-1.8061955e-05 -0.009959654 -0.01330619 -0.00018518226 -0.0021604109 -0.015378654 -0.01609401 -1.8821738e-05
-0.003900348 -0.002349812 -0.0032839505 0.00043389652 -0.00907769 -1.5258276e-05 -0.019950598 0.7714255
-0.0025040002 -0.0002922184 -0.00052218547 -2.4848441e-05 -0.005857193 1.5353588e-05 -0.00039247645 -0.012311061
-0.014444099 4.3977116e-06 -0.004870328 0.25450075 0.051517356 -3.535578e-05 -0.001459937 0.036714885
-0.018003834 -0.0014550455 -0.011141982 -0.007916889 -0.026290134 -0.019620245 2.3086682e-06 -0.024291467
-0.00020515439 -0.00033036177 0.00010683292 2.674348e-06 0.1380201 -0.005096729 -0.026518136 -0.0019044627
0.36477047 -3.0028832e-05 -0.0009350813 4.3380605e-06 -0.0098378435 0.07504146 3.4078535e-06 1.4322934
0.6353541 3.7519621e-06 1.0127418 0.00012937133 2.9886924e-06 0.00027871688 4.632091e-06 1.3772448
4.4695034e-06 -0.0006576691 2.9241469e-06 4.1153835e-06 -0.0019275942 -0.0075399326 -6.630602e-05 -3.613002e-06
2.2416316e-06 1.3290812e-05 1.3239182 5.147901e-06 -0.00010617723 -0.0009916398 -0.0009854079 -2.6352236e-05
2.6641076e-06 0.0005220779 -0.010297322 4.390702e-05 -0.024627099 5.1541415e-06 4.169108e-06 0.14676513
2.058822e-05 2.426953e-06 -1.6009242e-05 5.0968847e-06 -0.00032842928 0.4782842 6.386724e-06 3.7368472e-06
-0.0039102314 0.46790257 2.357633e-05 -0.0006879839 -0.0001835713 -0.0018691455 -0.009898216 7.187305e-06
-0.015558078 -0.0043644356 -6.675664e-05 5.9448384e-06 0.23596144 -0.0033083123 -0.00023550943 0.7893889
0.49306113 0.7059938 -0.010973652 0.04641897 -0.00043329105 0.8587271 -0.0014030836 1.444797
-0.00031368787 1.9872812e-06 1.317154e-05 3.7284574e-06 3.7426203e-06 0.78012913 0.045142062 2.2496998
-8.5420953e-07 -0.0014441805 -0.00032206686 0.4238164 -0.0011959423 -0.005791044 -5.6458422e-05 -2.1404743e-05
-0.0072344993 -5.9902686e-05 -0.004272468 1.5809575 0.307979 -1.9438408e-05 -0.0021494592 1.7412343
0.3282077 -0.002366068 -0.008418833 -0.0073807477 -0.01910698 0.43789718 -0.0005054127 -0.0011311553
0.47890422 0.39065838 -0.003938348 -0.009811245 -4.9682392e-05 0.39968225 -0.00014427862 -3.956064e-05
0.16513067 -0.023184903 -0.011760569 -1.7571763e-05 -0.0016593739 -0.009312003 -0.008024599 -0.000116636336
-0.007682586 0.172251 2.3729777 0.10286583 -0.0003452482 0.27097514 -0.0017418535 -0.0006351899
3.87872e-06 -7.538362e-06 -0.0051060733 2.1963494e-06 -0.018672284 0.5801602 -0.0026008482 -0.00272318
3.9919883e-06 3.2593937e-06 -0.0005006091 0.04162827 3.2789758e-06 7.0505494e-06 1.8785e-06 -2.5663054e-05
5.819645e-06 -0.010395485 1.13249735e-05 0.0035032546 -0.021752542 -0.01891912 -0.00039150438 -0.00034389648
-0.006375529 -0.0061536888 6.442207e-05 0.016027449 -0.0012638503 -0.01224876 0.20852107 0.13390526
00000000: 916e 9bba 50a6 c33f 3238 88bb bf61 c236
00000010: 97cd b63e 9f37 1237 60ee 853a 651a 833f
00000020: bd41 8bb8 41fd 87bb 5181 1d37 745d 1540
00000030: d3d2 9536 30fa 353a bb78 223f 91dc 0e40
00000040: c861 8536 350b b4b9 cbb0 a136 8028 753f
00000050: f7b1 82bc 9d67 b5bb 5a07 1a37 a863 9c3f
00000060: 2f9b a23f 86e3 0a3e 5121 55ba ddf3 7936
00000070: 8a26 5e3a 00d5 083f a89e 68bb 0eee 083f
00000080: a11e c736 0f7c 193e 6b7d 2cb8 8e5f 80b7
00000090: d59d 5136 fb5a a73e 1d9e 37b8 d72e 0ebb
000000a0: 6df7 153f bb9b 1fbc 24bb 08bb 1c9b 4b3f
000000b0: 1138 c5ba 796b a03e cdb8 843e 9326 8eb9
000000c0: c183 97b7 d12d 23bc 3502 5abc 7c2d 42b9
000000d0: ae95 0dbb c0f6 7bbc 96d7 83bc 60e3 9db7
000000e0: fb9c 7fbb 4eff 19bb 8c37 57bb 9b7c e339
000000f0: 97ba 14bc ccfd 7fb7 706f a3bc 247c 453f
00000100: 271a 24bb e434 99b9 46e3 08ba 9f71 d0b7
00000110: b2ed bfbb 94cb 8037 4cc5 cdb9 55b4 49bc
00000120: f1a6 6cbc 0e90 9336 4697 9fbb ec4d 823e
00000130: dd03 533d fb4a 14b8 5b5b bfba 5962 163d
00000140: c77c 93bc 3ab7 beba dc8c 36bc d7b5 01bc
00000150: 685e d7bc a3ba a0bc 9eee 1a36 e6fe c6bc
00000160: b61e 57b9 6834 adb9 7d0b e038 f378 3336
00000170: 2455 0d3e 7602 a7bb 903c d9bc 2a9f f9ba
00000180: 32c3 ba3e 6de6 fbb7 3e20 75ba a88f 9136
00000190: e82e 21bc 56af 993d 7ab2 6436 6455 b73f
000001a0: 91a6 223f 38ca 7b36 86a1 813f daa7 0739
000001b0: 5891 4836 bf20 9239 5c6d 9b36 8f49 b03f
000001c0: bef8 9536 6d67 2cba 763c 4436 e016 8a36
000001d0: 54a7 fcba 8a11 f7bb c60d 8bb8 e776 72b6
000001e0: f06e 1636 9afb 5e37 2776 a93f 22bc ac36
000001f0: 77ab deb8 e9f9 81ba cd28 81ba ff0e ddb7
00000200: 05c9 3236 0edc 083a 19b6 28bc ce28 3838
00000210: c5be c9bc bdf1 ac36 5de4 8b36 9949 163e
00000220: deb4 ac37 bcde 2236 964b 86b7 e805 ab36
00000230: 0831 acb9 abe1 f43e 8b4d d636 8cc6 7a36
00000240: 6621 80bb ed90 ef3e c8c5 c537 d159 34ba
00000250: 0c7d 40b9 1efe f4ba 212c 22bc 7b2a f136
00000260: 4fe7 7ebc 8a03 8fbb b3ff 8bb8 c679 c736
00000270: e09f 713e 45d0 58bb 15f3 76b9 6415 4a3f
00000280: 8272 fc3e 02bc 343f d5ca 33bc d121 3e3d
00000290: 572b e3b9 8ad5 5b3f ace7 b7ba 1cef b83f
000002a0: 7976 a4b9 3b5d 0536 55fb 5c37 6936 7a36
000002b0: ba29 7b36 8bb6 473f e2e6 383d 15fb 0f40
000002c0: d54c 65b5 a84a bdba 15db a8b9 77fe d83e
000002d0: 2ac1 9cba ccc2 bdbb c5cd 6cb8 568e b3b7
000002e0: 610f edbb 0540 7bb8 0f00 8cbb d15c ca3f
000002f0: 6caf 9d3e aa0f a3b7 f1dd 0cbb c4e0 de3f
00000300: d70a a83e 0910 1bbb 25ef 09bc 33da f1bb
00000310: 3e86 9cbc 0f34 e03e ac7d 04ba 4643 94ba
00000320: ef32 f53e 6004 c83e 420d 81bb 58bf 20bc
00000330: 1062 50b8 27a3 cc3e 7f49 17b9 eaed 25b8
00000340: 0418 293e 44ee bdbc 67af 40bc 1367 93b7
00000350: 597f d9ba 5f91 18bc 9c79 03bc a89a f4b8
00000360: 34be fbbb 9162 303e dede 1740 52ab d23d
00000370: 6e02 b5b9 41bd 8a3e e84e e4ba df82 26ba
00000380: f325 8236 09f2 fcb6 d950 a7bb ff64 1336
00000390: 9ef6 98bc 6185 143f fe72 2abb 6177 32bb
000003a0: ebf2 8536 f5bb 5a36 4f3b 03ba 6882 2a3d
000003b0: 600c 5c36 c293 ec36 c520 fc35 fd46 d7b7
000003c0: 5f46 c336 d351 2abc 6400 3e37 dc96 653b
000003d0: 6332 b2bc 45fc 9abc d442 cdb9 014d b4b9
000003e0: d0e9 d0bb e2a4 c9bb 561a 8738 ff4b 833c
000003f0: c7a7 a5ba 06af 48bc 8c86 553e 761e 093e

beta f4 [32]
0.8362119 0.9937382 0.86718905 0.88894993 1.2032288 0.97012496 1.1747433 0.84711534
1.0419484 0.8092925 1.2119011 0.83211863 0.7111589 0.75016797 0.6874107 0.19545211
0.54326826 1.1399926 0.4821918 0.7578991 0.8067905 0.83216006 1.1845654 0.6334137
1.0583004 1.2778536 1.0832531 0.51131576 0.6629633 0.50048405 1.0826781 0.5045088
00000000: fc11 563f a065 7e3f 1a00 5e3f 3992 633f
00000010: 6703 9a3f 1c5a 783f fd5d 963f 8ddc 583f
00000020: 915e 853f cb2d 4f3f 931f 9b3f ba05 553f
00000030: 820e 363f 020b 403f 26fa 2f3f 9924 483e
00000040: a113 0b3f 47eb 913f d8e1 f63e ad05 423f
00000050: d289 4e3f 7108 553f d79f 973f 6627 223f
00000060: 6376 873f b590 a33f 0aa8 8a3f 97e5 023f
00000070: f6b7 293f b91f 003f 3295 8a3f 7d27 013f
