models/encNet2_10_8.pkl (torch_old, 347916 bytes, 18 tensors)

weight f4 [64, 1, 1, 1]
0	0xbe7a7c23	-0.24461417
1	0x3ee2171c	0.44158256
2	0xbf5b7cbf	-0.8573722
3	0xbe937cdb	-0.28806195
4	0x3e87d886	0.26532382
5	0x3d78d171	0.060746614
6	0x3ecb2aa0	0.39680958
7	0x3dd5a7ae	0.10432373
8	0xbedce225	-0.43141285
9	0xbdb1ba9f	-0.08678173
10	0x3d4c0a8d	0.04981475
11	0x3ed0891c	0.40729606
12	0x3f1c9496	0.61164224
13	0xbef1adfa	-0.47203046
14	0x3f44042d	0.7656887
15	0x3f1f4601	0.6221619
16	0x3dc59f74	0.09649554
17	0x3f3163ba	0.69292796
18	0xbf123fe3	-0.57128733
19	0xbd50c5f7	-0.050970044
20	0x3ecdc05c	0.4018582
21	0x3ed1055b	0.40824398
22	0x3f080efa	0.5314785
23	0xbeafa9b2	-0.34309155
24	0xbf526e93	-0.8219997
25	0x3ecb4c6d	0.39706746
26	0xbeee66a4	-0.46562684
27	0x3e855b14	0.2604605
28	0x3f7b3db1	0.9814101
29	0xbee6d65a	-0.45085412
30	0x3f4fe9ff	0.81216425
31	0xbf737f77	-0.9511637
32	0x3dcbc6e4	0.09950045
33	0x3f0b50b0	0.54419994
34	0xbcdd4708	-0.02701141
35	0x3f562622	0.83651936
36	0x3eda6c55	0.42660776
37	0xbf3bc2c3	-0.7334406
38	0x3f5da5d7	0.86581177
39	0x3f2ee6fc	0.68321204
40	0x3f3db9d9	0.74111706
41	0x3d907079	0.070527025
42	0xbd3b8cfb	-0.045788746
43	0x3f2f3f13	0.6845562
44	0x3ec4bca0	0.3842516
45	0x3f58399d	0.8446291
46	0x3f432706	0.7623142
47	0xbebaa407	-0.36453268
48	0x3e563dba	0.20921984
49	0x3f7a2759	0.9771629
50	0x3edbb3f8	0.42910743
51	0x3e8be856	0.27325696
52	0xbe057761	-0.1303382
53	0xbf60c0f4	-0.87794423
54	0x3f35ac93	0.7096645
55	0xbed13bea	-0.40866023
56	0x3ea576b0	0.32317114
57	0x3d3aaa7f	0.045572754
58	0xbf526553	-0.8218586
59	0x3f16e54f	0.5894365
60	0x3f3a742d	0.7283352
61	0x3f78b428	0.97149897
62	0xbf0ab1ef	-0.54177755
63	0x3e8f0894	0.27936232

bias f4 [64]
0	0xbf49b9da	-0.7879921
1	0x3f247bff	0.64251703
2	0xbefcafed	-0.4935297
3	0xbed87ba6	-0.42281836
4	0xbe21870a	-0.1577417
5	0xbf9ebcb8	-1.2401342
6	0xbf0c4ceb	-0.5480487
7	0xbf47327d	-0.77811414
8	0xbf8799c5	-1.0593802
9	0x3f94509a	1.1587098
10	0xbe26cfa4	-0.16290146
11	0x3f5487cc	0.8301971
12	0x3f76fb63	0.96477336
13	0x3edcee91	0.43150762
14	0x3f4ce139	0.8003116
15	0x3e5ab3f2	0.21357706
16	0x3f604f4d	0.87621003
17	0xbf83f489	-1.0309001
18	0xbf77595a	-0.96620715
19	0x3f8b4ed7	1.0883435
20	0x3f30df88	0.6909108
21	0xbeb3a871	-0.35089448
22	0x3f463d5f	0.77437395
23	0xbf31f256	-0.695104
24	0xbf4d0c75	-0.8009713
25	0x3e6c1ac5	0.23057087
26	0x3fa143df	1.2598838
27	0xbf57b8c5	-0.8426631
28	0xbf8757fb	-1.0573725
29	0x3f1ca002	0.6118165
30	0x3f2b285a	0.66858447
31	0x3f738396	0.9512266
32	0xbf4a3ce0	-0.7899914
33	0x3f884a22	1.0647624
34	0xbebab9dc	-0.36469924
35	0x3f385737	0.7200808
36	0x3f007543	0.5017893
37	0xbf649fb6	-0.893062
38	0x3f94436e	1.1583078
39	0x3f49bb6f	0.78801626
40	0xbf3349c9	-0.7003446
41	0xbfa0f5b8	-1.2574987
42	0x3f8ff7eb	1.1247534
43	0xbed2b631	-0.41154626
44	0xbf610530	-0.8789854
45	0x3f5421e4	0.82864213
46	0x3ec493d8	0.38394046
47	0x3f578b1e	0.8419665
48	0xbe83d2ef	-0.25746867
49	0x3f1388d9	0.5763069
50	0x3f615092	0.88013566
51	0x3f17c0a4	0.5927832
52	0x3f0fe607	0.5621037
53	0xbf32f549	-0.69905525
54	0xbf8627f9	-1.0480949
55	0x3f2b0bcf	0.66814893
56	0x3e844ffb	0.2584227
57	0xbf5b406c	-0.85645175
58	0xbe8f0a0b	-0.2793735
59	0xbf2ffcac	-0.6874492
60	0xbf7897e8	-0.9710679
61	0xbeef4e55	-0.4673945
62	0xbf21886c	-0.6309879
63	0x3f3729f6	0.715484

weight f4 [64, 64, 2, 2]
0	0x3cabd1bd	0.020974034
1	0x3da55773	0.0807332
2	0x3daf6d45	0.085657634
3	0xbbb0f1ef	-0.0053999345
4	0xbc10e23d	-0.008843002
5	0xba4ef885	-0.00078953087
6	0x3c52388e	0.0128308665
7	0xbd29e63b	-0.04147933
8	0x3c5db95b	0.013532962
9	0xb968d62b	-0.00022205028
10	0x3d945197	0.072421245
11	0x3dae45a3	0.08509376
12	0x3db3f050	0.0878607
13	0x3d6ab789	0.05730394
14	0x3ddb9a07	0.10722738
15	0x3ce0b7d4	0.027431406
16	0x3d189309	0.0372496
17	0xbcddd183	-0.027077442
18	0x3c06e90f	0.008234276
19	0xbd841951	-0.06450141
20	0x3dae5653	0.08512559
21	0x3dca0e30	0.09865987
22	0x3deb07ba	0.11476083
23	0x3d99da43	0.07512333
24	0x3b9b54cc	0.004740333
25	0x3d0e7fad	0.03478973
26	0xbc93c243	-0.018036967
27	0x3d781c6d	0.060573984
28	0x3d56f129	0.052476082
29	0x3cd6cc98	0.026220605
30	0x3da326a8	0.079663575
31	0xbb5386eb	-0.0032276462
32	0x3db7ada9	0.0896867
33	0x3d2e9de0	0.04263103
34	0x3da1d872	0.07902612
35	0x3d08188c	0.033226535
36	0x3ba29319	0.004961383
37	0xbd7660ba	-0.06015084
38	0xbd87a9fc	-0.06624219
39	0xbdb4f7c7	-0.08836322
40	0xbc59418d	-0.013260257
41	0xbd0f9ade	-0.035059802
42	0x3d3e22c7	0.046419885
43	0x3d516966	0.051125906
44	0xbd69a6fd	-0.057044018
45	0xbd446142	-0.047944315
46	0x3b11ea28	0.0022264812
47	0xbda297b6	-0.07939093
48	0xbda59748	-0.08085495
49	0xbdc4362e	-0.095806465
50	0xbd249334	-0.040179446
51	0xbd686194	-0.056733683
52	0xbcca52a1	-0.024697604
53	0xbd31c05a	-0.04339633
54	0x3d473257	0.048631992
55	0xbd5e1994	-0.054223612
56	0xbcc9de33	-0.024642086
57	0xbd188260	-0.03723371
58	0x3ca76e3f	0.020438312
59	0xbd7c3eee	-0.061583452
60	0x3cfe13be	0.031015273
61	0xbccaf293	-0.024773872
62	0x3b62f1c5	0.003462897
63	0xbb8438ea	-0.004035105
64	0xbd89ac97	-0.06722372
65	0xbd0f8755	-0.035041172
66	0xbd489a20	-0.04897511
67	0xbc51ea79	-0.01281225
68	0x3c4aae43	0.012370649
69	0x3d6535e6	0.055959605
70	0x3ce9af95	0.028526107
71	0x3c953a60	0.018216312
72	0x3dc01518	0.09379023
73	0x3cdc0416	0.026857417
74	0x3de6cb2a	0.11269219
75	0x3c84ee90	0.016227037
76	0xbd3dca0e	-0.046335272
77	0xbcde3b3f	-0.02712786
78	0xbce9d7b5	-0.02854524
79	0xbd9d31db	-0.07675525
80	0x3cd3048b	0.025759002
81	0xbd04d02c	-0.03242509
82	0xbdcc4e87	-0.099759154
83	0xbcdf8853	-0.027286684
84	0x3d1c4de2	0.038160212
85	0x3d01aa9b	0.031656843
86	0x3c99847d	0.018739933
87	0x3d061856	0.032738052
88	0xbd8c8962	-0.06862141
89	0xbcc3c590	-0.023897916
90	0xbbcc22f2	-0.0062297517
91	0xbda50522	-0.0805762
92	0xbc4794d7	-0.012181482
93	0x3c58692e	0.013208671
94	0x3cf23788	0.029567495
95	0x3c9150e8	0.017738774
96	0xbc19264e	-0.009347511
97	0x3db88ed5	0.09011618
98	0x3da3e27e	0.08002184
99	0x3b507897	0.0031810158
100	0xbae9e2ca	-0.0017844078
101	0xbd40970a	-0.047019042
102	0xbcd54119	-0.026032018
103	0xbd88e8b6	-0.06685011
104	0xbd9681c5	-0.0734897
105	0xbc8b3b5c	-0.016996078
106	0xbd833407	-0.06406408
107	0x3cf63b13	0.030057466
108	0x3d002413	0.031284403
109	0x3d563cec	0.052304193
110	0x3c111719	0.008855605
111	0x3c985c3f	0.018598674
112	0x3d0f6b98	0.03501472
113	0x3cfb8d00	0.030706882
114	0x3a9cf602	0.0011975172
115	0xbd084972	-0.033273168
116	0x3d6449ae	0.05573433
117	0x3d363c74	0.044491246
118	0x3c5fa7e6	0.01365087
119	0x3d88316d	0.06650052
120	0x3ca427a1	0.020038428
121	0xbda68bf4	-0.08132163
122	0x3bc31f86	0.0059546856
123	0xbd1e101a	-0.038589574
124	0xbd433f21	-0.047667626
125	0xbd61d51e	-0.055134885
126	0x3c7140d8	0.014724933
127	0xbd0c5a2f	-0.034265693
128	0x3c278b28	0.0102260485
129	0x3db67786	0.08909516
130	0x3d40fd5b	0.04711662
131	0x3d3e3ed2	0.04644663
132	0x3c558d87	0.013034231
133	0x3b18f7bb	0.0023341018
134	0x3c76c232	0.015060948
135	0xbd490a59	-0.049082134
136	0x3da48f18	0.080351055
137	0x3b7977d0	0.0038065799
138	0x3ddfff4b	0.10937365
139	0x3cb7064b	0.022341868
140	0xbd4e8afb	-0.05042551
141	0xbcce8e15	-0.025214234
142	0xbb9e8977	-0.0048381644
143	0xbda2cd86	-0.07949357
144	0xbdac347d	-0.08408449
145	0xbd0d6988	-0.03452447
146	0xbdc4bbb0	-0.09606111
147	0x3bb5a3ca	0.005543207
148	0x3d8c6424	0.06855038
149	0x3da207a7	0.07911616
150	0x3d8519b9	0.06499047
151	0x3cc4472e	0.023959722
152	0x3c77a672	0.015115367
153	0xbd2841e8	-0.041078478
154	0xbd95d7aa	-0.07316525
155	0x3ba1f253	0.0049422174
156	0xbd1b6f92	-0.0379482
157	0xbdb02aad	-0.0860189
158	0xbd5fd876	-0.054649793
159	0xbdcc4b9e	-0.0997536
160	0xbcba25dd	-0.022723133
161	0xbd2f0a92	-0.04273469
162	0xbc745955	-0.014913877
163	0xbd304061	-0.043030147
164	0x3e000d59	0.12505092
165	0x3ca2bd33	0.019865608
166	0x3bd974bf	0.0066362317
167	0x3d8a435e	0.067511305
168	0x3cb080ca	0.021545786
169	0x3c4baec9	0.012431809
170	0x3cfcecf9	0.030874716
171	0x3cb96811	0.02263263
172	0xbd6130de	-0.054978244
173	0xbbd4ea16	-0.006497632
174	0x3d5e0feb	0.0542144
175	0x3d2d33be	0.042285673
176	0x3d5e0615	0.05420502
177	0x3d74727e	0.0596795
178	0x3d93a2c2	0.07208778
179	0x3d3a2674	0.045446828
180	0xbcc7a16c	-0.024368964
181	0xbd9687d4	-0.07350126
182	0xbaa49ca4	-0.001255889
183	0x3b42577b	0.0029654193
184	0xbd945223	-0.07242229
185	0xbcf26566	-0.029589366
186	0xbdbb868e	-0.09156524
187	0xbc0bc101	-0.008529902
188	0xbd07eb58	-0.033183426
189	0xbc00b7b5	-0.007856299
190	0xbc5fef98	-0.013667963
191	0xbd45fc65	-0.048336405
192	0xbd299c58	-0.041408867
193	0x3be11255	0.0068686404
194	0xbd753aff	-0.059870716
195	0x3d0615b3	0.032735538
196	0xbd17882d	-0.0369951
197	0xbd5d0ebb	-0.053969126
198	0xbcb7688f	-0.022388725
199	0xba3ab718	-0.000712262
200	0xbd8a97c0	-0.06767225
201	0xbda24ed2	-0.0792519
202	0xbdd83385	-0.105567016
203	0xbc331345	-0.010929887
204	0xbcbc06ac	-0.0229524
205	0xbc8f9094	-0.017524995
206	0xbd3320f2	-0.04373259
207	0x3b087e68	0.0020827297
208	0xbceb01b5	-0.028687337
209	0x3cf2cd02	0.029638771
210	0x3d0a7274	0.033800557
211	0xbd3c9126	-0.04603686
212	0x3d088f47	0.033339765
213	0x3d9d1846	0.076706454
214	0x3c4eb963	0.012617442
215	0x3d827137	0.0636925
216	0xbd3327e5	-0.04373922
217	0x3d409007	0.047012355
218	0x3cdbb885	0.026821384
219	0xbcd7e2a0	-0.02635318
220	0x3c29d3cb	0.010365437
221	0x3ce16547	0.027514113
222	0x3d09e729	0.033667717
223	0x3ca2a294	0.019852914
224	0x3ce2e96c	0.027699195
225	0x3c8bba33	0.01705656
226	0xbdc0fdd9	-0.094234176
227	0xbd8cad91	-0.06869043
228	0x3df8ddb7	0.12151664
229	0x3b5555e8	0.0032552425
230	0x3d5187a1	0.051154736
231	0x3b73aaf5	0.0037180756
232	0x3d109345	0.035296697
233	0x3d65fece	0.056151204
234	0x3c50afa6	0.01273719
235	0x3dac7264	0.08420256
236	0xbcc33164	-0.023827262
237	0xbd661b8c	-0.056178614
238	0x3c982104	0.01857043
239	0x3d563982	0.052300937
240	0x3ce81731	0.028331371
241	0x3c81d201	0.015847208
242	0x3d057d87	0.032590415
243	0xbd5d9237	-0.05409452
244	0x3d258699	0.040411565
245	0x3d616488	0.055027515
246	0xbc1fe7f3	-0.009759891
247	0xbd67989a	-0.056542017
248	0x3db3618a	0.087588385
249	0x3d4fcee4	0.050734416
250	0xba935f0c	-0.0011243536
251	0x3da199e7	0.07890683
252	0xbd078546	-0.033086084
253	0xbcc1ba5c	-0.023648433
254	0x3c8bb56a	0.017054278
255	0xbdd5e263	-0.104435705

bias f4 [64]
0	0xbe21d411	-0.15803553
1	0x3e276706	0.16347894
2	0x3e343aa8	0.176005
3	0xbd05999d	-0.0326172
4	0xbd3af811	-0.04564673
5	0x3e02d9d0	0.12778401
6	0x3e01a179	0.12659253
7	0x3e42a44b	0.19007985
8	0x3e4887f3	0.1958311
9	0xba8cd89d	-0.0010745708
10	0xbe7ae308	-0.24500668
11	0xbdac4bc3	-0.08412888
12	0xbe65e743	-0.224515
13	0x3dab162e	0.0835384
14	0x3e8e79f3	0.27827415
15	0x3e407f4f	0.18798564
16	0x3dff7d83	0.12475111
17	0xbe244688	-0.1604253
18	0x3e856d88	0.26060128
19	0x3e896a86	0.26839083
20	0x3ec97e14	0.39354002
21	0x3e94902b	0.2901624
22	0x3e3efee0	0.18651915
23	0x3e8ab144	0.27088368
24	0x3e72a327	0.2369505
25	0xbcc76cd3	-0.024343884
26	0x3e8eda98	0.2790115
27	0xbe2452f0	-0.16047263
28	0x3e85e57f	0.26151654
29	0x3e1668d6	0.14688429
30	0x3dc6e09b	0.09710809
31	0x3e91e634	0.28495944
32	0xbe969856	-0.29413098
33	0x3e58bead	0.21166487
34	0x3de3c398	0.11121291
35	0x3e868b02	0.2627793
36	0xbe9b42b7	-0.30324337
37	0xbeacf554	-0.3378092
38	0x3b1c4a0c	0.0023847846
39	0x3d9829dd	0.0742986
40	0x3eaa75bb	0.33292946
41	0x3e8dd7f6	0.27703828
42	0x3eaf573a	0.34246236
43	0xbe05ed4e	-0.13078806
44	0x3c2fa92a	0.010721484
45	0xbe311f60	-0.17297125
46	0xbea224a4	-0.3166858
47	0x3ec90922	0.3926478
48	0xbe55679c	-0.20840305
49	0xbe324d2c	-0.17412251
50	0x3e2f622e	0.17127296
51	0xbe6c13d9	-0.23054446
52	0x3e65aae0	0.22428465
53	0xbe371da7	-0.17882405
54	0x3d89eba8	0.06734401
55	0x3e3a4a33	0.18192367
56	0xbdd9ca59	-0.10634298
57	0x3e44740c	0.19184893
58	0x3e3d0a09	0.1846086
59	0x3dd174d5	0.10227362
60	0xbe522424	-0.20521599
61	0x3e2f9dce	0.17150041
62	0xbe59714e	-0.21234629
63	0xbe317d4b	-0.17332952

weight f4 [64, 64, 2, 2]
0	0x3d767541	0.060170416
1	0x3d565ad8	0.05233273
2	0x3d978c90	0.07399857
3	0x3cfb30ce	0.03066292
4	0x3ba60d0e	0.005067474
5	0xbc087a94	-0.008330006
6	0x3c25881f	0.010103255
7	0xbdbfdc71	-0.09368218
8	0xbd22bba6	-0.039729737
9	0xbdb5381f	-0.08848595
10	0xbd8c9ee1	-0.06866241
11	0xbd898ba6	-0.06716089
12	0xbdf8b076	-0.12143032
13	0xbe21d7ba	-0.1580495
14	0xbdc1d6d8	-0.09464806
15	0xbe0b6ad5	-0.13614972
16	0x3d6aa6e2	0.057288058
17	0x3d899c1e	0.0671923
18	0x3c2b7276	0.010464301
19	0x3d571440	0.052509546
20	0xbd4af6e1	-0.04955185
21	0xbad187b6	-0.001598588
22	0xbdcc2376	-0.09967701
23	0xbdb358d7	-0.08757179
24	0x3b8dfbbf	0.004332989
25	0x3d091dbc	0.033475623
26	0x3d915af0	0.07097423
27	0xbca26c1e	-0.019826945
28	0x3c8005e4	0.015627809
29	0xbd37b082	-0.044846065
30	0xbc726b85	-0.0147961425
31	0xbd45ce95	-0.048292715
32	0xbd08bcd4	-0.033383206
33	0xbd9485b9	-0.07252068
34	0xbd445a82	-0.047937877
35	0x3d55a6b9	0.052160952
36	0x3d45b098	0.048264116
37	0x3c0126ba	0.007882768
38	0x3d5e006c	0.05419962
39	0x3d206c79	0.039165948
40	0xbd89a0ab	-0.06720098
41	0xbd416521	-0.047215585
42	0xbd8873bb	-0.06662699
43	0xbca023e9	-0.019548373
44	0xbd984926	-0.07435827
45	0xbda9a77e	-0.082839
46	0xbdacd501	-0.08439065
47	0xbd04eb79	-0.032451127
48	0xbcbbb072	-0.022911284
49	0xbbae065b	-0.005310816
50	0x3d00a727	0.03140941
51	0x3d5edd34	0.054410174
52	0xbd98833d	-0.07446907
53	0xbd886a07	-0.06660848
54	0xbdab7024	-0.083709985
55	0xbd1a516e	-0.037675314
56	0x3aca187c	0.0015418674
57	0xbd6f7880	-0.058464527
58	0x3d29dbef	0.04146951
59	0x3bc60083	0.0060425415
60	0xbd3252a1	-0.043535832
61	0xbdc9aa1a	-0.098468974
62	0x3c5b4db7	0.013385228
63	0xbb3a138c	-0.0028392999
64	0xbd640838	-0.0556719
65	0x3cd6e8b5	0.02623401
66	0xbd12f4d9	-0.035878036
67	0xbd47d80d	-0.048790026
68	0xbd3cd9cf	-0.046106156
69	0x3ddb33b7	0.10703223
70	0xbcc1b608	-0.02364637
71	0x3d3983e4	0.045291796
72	0xbcfb9e69	-0.030715184
73	0xbc8ef0c4	-0.01744879
74	0xbc9b2d7f	-0.018942593
75	0xbd04f08b	-0.032455962
76	0xbd870ffa	-0.06594844
77	0xbcc35ff0	-0.023849458
78	0xbc64e565	-0.013970708
79	0xbb843745	-0.004034909
80	0xbde24bc7	-0.1104961
81	0xbe24d6dd	-0.16097589
82	0xbda8830e	-0.08228122
83	0xbd38a303	-0.045077335
84	0xbdac0a55	-0.08400408
85	0xbde29d4e	-0.1106516
86	0xbd77fd3a	-0.06054423
87	0xbd47f9d6	-0.048822246
88	0xbd288712	-0.041144438
89	0xbdcea693	-0.10090365
90	0xbdc56c43	-0.0963979
91	0x3c705719	0.014669203
92	0xbe0ad0f6	-0.13556275
93	0xbdf05f1e	-0.11736892
94	0xbdda43e0	-0.106574774
95	0xbcd23b7d	-0.025663132
96	0xbdcc2477	-0.099678926
97	0xbd7922e9	-0.06082431
98	0x3c41e6de	0.011834828
99	0xbcf92d78	-0.030417189
100	0xbd26ce83	-0.04072429
101	0xbe0e10cb	-0.13873594
102	0xbd85241c	-0.06501028
103	0xbd15279c	-0.036414728
104	0xbe342b55	-0.17594655
105	0xbe3d0d2b	-0.18462054
106	0xbcc613d7	-0.024179382
107	0xbdebc3f4	-0.115119845
108	0xbd810232	-0.06299247
109	0x3c705e3a	0.014670903
110	0x3c27780b	0.010221492
111	0xbcd05b61	-0.025434198
112	0xbdeefc4e	-0.11669217
113	0xbdf64c4c	-0.12026271
114	0xbd41d05e	-0.047317855
115	0xbde752da	-0.112950996
116	0xbd2dcbbc	-0.042430624
117	0x3c0012e9	0.0078170085
118	0xbd6540f7	-0.05597016
119	0xbdc07db6	-0.093989775
120	0x3d3b345c	0.04570423
121	0xbd5df5e1	-0.054189567
122	0xbcfd499e	-0.030918892
123	0x3bd2ed99	0.0064370153
124	0xbcbb5c8e	-0.022871282
125	0xbdb3aa95	-0.0877277
126	0xbca78189	-0.02044751
127	0xbd0a1f7f	-0.033721443
128	0xbcc3f786	-0.02392174
129	0x3d90db5d	0.0707309
130	0xbd6122a1	-0.054964665
131	0xbd479688	-0.048727542
132	0xbc91067d	-0.01770329
133	0xbd9ef8be	-0.077622876
134	0xbd0ca273	-0.03433461
135	0xbd630788	-0.055427104
136	0xbddc6af1	-0.10762585
137	0xbde1f3d6	-0.11032836
138	0x3b35a97f	0.0027719436
139	0xbd7021a3	-0.05862583
140	0xbd86e352	-0.06586327
141	0x3bf0654d	0.0073362947
142	0xbdc417dd	-0.09574864
143	0xbc2ff0be	-0.01073855
144	0x3ce79c17	0.028272672
145	0xbd1f00cf	-0.03881913
146	0xbd771ab1	-0.06032819
147	0xbdb2ad97	-0.08724516
148	0xbd186fa3	-0.03721584
149	0x3d157142	0.036484964
150	0x3b2c7161	0.0026312696
151	0xbdaf1916	-0.08549707
152	0xbe815c7a	-0.25265867
153	0xbe86fc86	-0.26364535
154	0xbe23b5a2	-0.15987256
155	0xbe15fd02	-0.14647296
156	0xbd066cca	-0.032818593
157	0xbdb8919d	-0.090121485
158	0x3b051f52	0.0020312858
159	0xbd506f16	-0.05088719
160	0xbdf836ff	-0.12119865
161	0xbe045590	-0.12923265
162	0xbdd12682	-0.10212423
163	0xbc3c99d7	-0.011511288
164	0xbde87420	-0.11350274
165	0xbde984a1	-0.1140225
166	0xbd3eb07d	-0.04655503
167	0xbbb2df39	-0.005458739
168	0xbd72a06a	-0.059235014
169	0xbdbe236a	-0.092840984
170	0xbda96292	-0.08270754
171	0xbc295548	-0.010335274
172	0x3d98902e	0.07449375
173	0x3d5d39e6	0.054010294
174	0xbd0e2954	-0.034707382
175	0xbcc294f1	-0.023752661
176	0xbe21bfc2	-0.15795806
177	0xbe4b44d6	-0.19850478
178	0xbdfb5c7d	-0.122735
179	0xbe48dd00	-0.19615555
180	0x3d8da7e9	0.06916792
181	0x3c8736ee	0.016505685
182	0xbc48f584	-0.012265567
183	0x3daeb1d1	0.085300095
184	0xbc2d8703	-0.010591271
185	0xbc7fabea	-0.015604952
186	0xbb904a9d	-0.004403426
187	0x3cbd33ee	0.023096051
188	0xbd9bc62a	-0.07606156
189	0xbc1f0f90	-0.0097083
190	0xbd422116	-0.047394834
191	0xbc0b705e	-0.008510677
192	0x3d166656	0.03671869
193	0x3cf31e0d	0.029677415
194	0x3d9aea47	0.07564216
195	0xbbb2485f	-0.005440756
196	0xbe8cdb2e	-0.2751097
197	0xbe901f45	-0.28148857
198	0xbe13ca3d	-0.14432617
199	0xbe649b9d	-0.22324987
200	0xbd230c5e	-0.039806716
201	0xbd77e449	-0.060520444
202	0xbda50365	-0.08057288
203	0xbbd588c3	-0.0065165474
204	0x3a9fade4	0.0012182561
205	0x3d08cc9a	0.03339825
206	0xbb4f9571	-0.0031674767
207	0x3ccacc33	0.024755573
208	0xbc8be7c5	-0.01707829
209	0xbdc60a42	-0.09669925
210	0xbddba251	-0.10724319
211	0xbc4d6b15	-0.012537737
212	0xbe1679af	-0.14694856
213	0xbe5915ea	-0.21199766
214	0xbe2956ab	-0.16536967
215	0xbe91c33d	-0.28469267
216	0xbd4282a1	-0.04748786
217	0xbd750368	-0.0598177
218	0xbdcb1963	-0.099169515
219	0xbdf93fc2	-0.12170364
220	0xbd85eeb6	-0.06539671
221	0xbdb1e752	-0.08686699
222	0xbbb7ecd0	-0.005612947
223	0xbd83056e	-0.0639752
224	0xbd395f48	-0.045256883
225	0xbdd9b550	-0.10630286
226	0xbdb539a3	-0.08848884
227	0xbddbf5c1	-0.10740233
228	0xbd0efeb3	-0.03491087
229	0xbda6f776	-0.08152668
230	0xbd96be10	-0.0736047
231	0xbcb638e2	-0.02224392
232	0xbd178235	-0.03698941
233	0x3c31a05f	0.010841458
234	0xbdd28def	-0.10280978
235	0xbc4fb8d8	-0.0126783475
236	0xbd02faa6	-0.03197732
237	0x3d40ac9e	0.04703962
238	0x3d66f130	0.056382358
239	0x3d5be2cf	0.0536831
240	0x3b2a21e3	0.002596014
241	0x3d75510e	0.059891753
242	0x3e15b140	0.14618397
243	0x3de2d3d8	0.11075562
244	0xbe30e0d1	-0.1727326
245	0xbdd8c46b	-0.10584339
246	0x3b2f191c	0.0026717847
247	0xbd45acd6	-0.048260532
248	0x3d8f2bd2	0.0699078
249	0x3d742d14	0.059613302
250	0x3d0da279	0.034578774
251	0x3da85508	0.082193434
252	0x3d198cb0	0.037487686
253	0x3dc20944	0.094744235
254	0x3d2e9e95	0.042631704
255	0x3d5e9351	0.05433971

bias f4 [64]
0	0xbc535e3b	-0.012900884
1	0x3da08384	0.078375846
2	0x3d1c4ead	0.03816097
3	0x3c46ff1f	0.012145787
4	0x3dae67ca	0.0851589
5	0xbd0217eb	-0.03176109
6	0xbdc368e3	-0.0954149
7	0xbdd89702	-0.105756775
8	0xbda07cf8	-0.07836336
9	0x3d8c54ca	0.0685211
10	0x3cdf6ac9	0.027272599
11	0x3d5ffa09	0.05468181
12	0xbd03bf13	-0.032164644
13	0xbc6d2c24	-0.014475856
14	0x3d99225e	0.07477258
15	0xbdca43f2	-0.09876241
16	0x3d665270	0.056230962
17	0x3d3eaac8	0.04654959
18	0xbc51222a	-0.012764493
19	0xbe017b5e	-0.12644717
20	0xbdb2c108	-0.08728224
21	0xbd4164ad	-0.047215153
22	0xbd723a80	-0.05913782
23	0x3c8d8b3e	0.01727831
24	0x3d856b47	0.06514602
25	0x3c82d9c1	0.015972974
26	0x3b0cd2c0	0.0021487921
27	0xbdf700c1	-0.12060691
28	0x3d565f22	0.05233682
29	0x3d3842ff	0.044985767
30	0x3d4c07f5	0.049812276
31	0x3c935a69	0.017987447
32	0x3da025a8	0.07819682
33	0xbc361053	-0.01111229
34	0xbd11c9ec	-0.03559296
35	0xbde84306	-0.11340909
36	0x3d2b2304	0.04178144
37	0xbd2e66ee	-0.04257863
38	0xbd777f6e	-0.06042426
39	0xbbaacb11	-0.0052121957
40	0xbc694445	-0.014237468
41	0x3d5277f3	0.051383924
42	0xbdb97bf3	-0.090568446
43	0x3cd67da8	0.026182964
44	0x3d073598	0.033010095
45	0xbd2bd4da	-0.041951038
46	0xbddd23a2	-0.10797812
47	0xbc07c08f	-0.008285656
48	0xbdcc6358	-0.09979886
49	0xbdccbca7	-0.0999692
50	0x3d22fa73	0.03978963
51	0x3be1364c	0.006872928
52	0xbc28f13d	-0.010311422
53	0x3d3f069d	0.046637166
54	0x3d330b89	0.043712173
55	0x3d78f4d3	0.060780358
56	0xbd9c2519	-0.07624263
57	0x3db9390c	0.09044084
58	0x3cb0279a	0.021503258
59	0x3d2d469a	0.04230366
60	0x3d9cfbc5	0.07665209
61	0xbdac4e85	-0.08413414
62	0xbda4fed2	-0.080564156
63	0x3cdc235d	0.026872331

weight f4 [64, 64, 2, 2]
0	0x3d2300ce	0.03979569
1	0x3c038d37	0.008029274
2	0x3c372b51	0.011179761
3	0x3d0c5b2c	0.034266636
4	0xbe7f4896	-0.24930033
5	0xbe40d9a1	-0.18833019
6	0xbe38fb40	-0.18064594
7	0xbddec459	-0.10877294
8	0xbe2f21ee	-0.17102787
9	0xbe4789c1	-0.19486143
10	0xbe17c5c6	-0.14821538
11	0xbde7538b	-0.112952314
12	0x3e762016	0.24035677
13	0x3e3259e3	0.17417102
14	0x3e034fd3	0.1282342
15	0x3dc0cfbe	0.09414624
16	0xbe0d0ab8	-0.1377362
17	0xbdc4b337	-0.09604495
18	0xbe37eac3	-0.17960648
19	0xbdaaecf4	-0.083459765
20	0xbc2fb251	-0.010723666
21	0xbcd43fde	-0.02590936
22	0xbd509e60	-0.05093229
23	0x3d715e08	0.058927566
24	0x3d245ead	0.040129352
25	0x3cee0eda	0.029059816
26	0x3d910b18	0.07082194
27	0x3d96832a	0.07349236
28	0x3d67f75d	0.05663239
29	0x3d141668	0.03615418
30	0xbc706ecb	-0.014674853
31	0xbcd34d4d	-0.025793696
32	0xbc9f72bd	-0.019463891
33	0x3c76473b	0.015031631
34	0x3c353dba	0.01106208
35	0x3ad3b099	0.0016150653
36	0xbe7e62ef	-0.24842428
37	0xbe0a2159	-0.13489284
38	0xbe57fb9d	-0.21092077
39	0xbe89d87a	-0.2692297
40	0xbdbb262f	-0.09138142
41	0xbe157edb	-0.14599173
42	0xbccb57b7	-0.0248221
43	0xbe1295eb	-0.14315002
44	0xbe7638b0	-0.24045062
45	0xbdec3560	-0.11533618
46	0xbe0ec117	-0.13940845
47	0xbe255e40	-0.16149235
48	0x3cde02be	0.027100917
49	0x3bfb8192	0.007675358
50	0x3d325fef	0.04354852
51	0x3be454f4	0.006968135
52	0xbc819190	-0.01581648
53	0x3d78b879	0.0607228
54	0xbda72a63	-0.081623815
55	0x3d424614	0.047430113
56	0xbe48548f	-0.19563507
57	0xbe6152d1	-0.22004248
58	0xbdfa53cf	-0.122230165
59	0xbdb4401e	-0.08801292
60	0xbc8b7635	-0.017024139
61	0x3d8cc364	0.06873205
62	0xbb1f15e1	-0.0024274515
63	0x3d2563cf	0.040378388
64	0xbe5ab2e6	-0.21357307
65	0xbe025b93	-0.12730245
66	0xbe43b328	-0.19111311
67	0xbe30d09a	-0.17267075
68	0xbe939927	-0.28827783
69	0xbde33ebd	-0.11095951
70	0xbe634445	-0.22194012
71	0xbddcbfca	-0.10778768
72	0xbe19bbef	-0.15013097
73	0xbe32f2d9	-0.17475452
74	0xbe256130	-0.16150355
75	0xbe26491c	-0.16238827
76	0x3dd7c110	0.105348706
77	0x3df18f66	0.11794929
78	0x3dc23316	0.094824
79	0x3df91b8a	0.12163456
80	0x3c318a25	0.010836159
81	0xbc002610	-0.007821575
82	0x3d9e17a0	0.0771935
83	0x3d2ac1b4	0.041688636
84	0x3d975e68	0.073910534
85	0x3ce9b476	0.028528433
86	0x3d943225	0.07236127
87	0x3d979293	0.07401004
88	0x3e01c5f5	0.12673171
89	0x3d952410	0.07282269
90	0x3d1382a5	0.036013264
91	0xbd645512	-0.055745192
92	0xbda5006a	-0.080567196
93	0xbd170252	-0.036867447
94	0x3c8b5d5f	0.017012296
95	0xbd86891b	-0.065691195
96	0xbdf25c7c	-0.11834046
97	0xbe2ccb15	-0.16874345
98	0xbd0993fd	-0.0335884
99	0xbd1336c6	-0.035940908
100	0xbddea6d6	-0.10871665
101	0xbc5db128	-0.013531007
102	0xbe21ccfd	-0.15800853
103	0xbd74ebef	-0.059795316
104	0xbe156dcd	-0.14592667
105	0xbe475854	-0.19467288
106	0xbe06515a	-0.1311697
107	0xbdbed718	-0.093183696
108	0x3da11945	0.07866148
109	0x3da79b43	0.08183911
110	0x3d872fdf	0.066009276
111	0x3c6f7e7b	0.014617558
112	0xbdb559cd	-0.08855019
113	0xbe361ca6	-0.17784366
114	0xbe04203f	-0.12902926
115	0xbdab8cf9	-0.08376498
116	0xbe4d1932	-0.20029142
117	0xbe33996a	-0.17538992
118	0xbe527f2c	-0.20556325
119	0xbe1203a3	-0.142592
120	0xbe7b20ca	-0.24524227
121	0xbd7ff295	-0.062487204
122	0xbe80c77c	-0.25152194
123	0xbdef2700	-0.116773605
124	0x3dfde510	0.12397206
125	0x3d8130e1	0.06308151
126	0x3ddbab49	0.107260294
127	0x3d52dd15	0.05148037
128	0xbea9a61b	-0.3313454
129	0xbe4ef76d	-0.20211573
130	0xbeaf8e57	-0.34288284
131	0xbe08b4f5	-0.1335028
132	0x3dacafd9	0.08431978
133	0x3d527cc4	0.051388517
134	0x3d1a660d	0.03769498
135	0xbca3b556	-0.019983929
136	0x3d510ba0	0.051036477
137	0xbd0999f4	-0.033594087
138	0x3bcd7773	0.006270343
139	0x3d77d22c	0.06050317
140	0x3c3b9d80	0.011451125
141	0x3d155ae8	0.036463648
142	0xbcf0faad	-0.029416407
143	0x3d1f489c	0.038887605
144	0x3e2293cb	0.15876691
145	0xbd1ddd03	-0.03854085
146	0x3e0a2cf1	0.13493706
147	0x3da5cbc5	0.080955066
148	0x3ce4c402	0.027925495
149	0x3d9e0cbe	0.07717274
150	0x3d203540	0.039113283
151	0x3d60e946	0.054909967
152	0x3dd3953d	0.10331199
153	0x3da5ae1f	0.080898516
154	0x3dd7e914	0.10542503
155	0x3e034ba0	0.12821817
156	0x3e0c2c82	0.13688853
157	0x3d57f77c	0.052726254
158	0x3e15bd88	0.14623082
159	0x3c10cea0	0.008838326
160	0x3ba5c1b7	0.005058493
161	0xbbd66748	-0.006543074
162	0xbc48eb6f	-0.012263163
163	0x3d98e965	0.074663915
164	0xbd20699c	-0.039163217
165	0xbcc289d2	-0.023747358
166	0xbe1b5e85	-0.15172775
167	0xbe18450d	-0.14870091
168	0xbb5fd766	-0.0034155487
169	0x3b8eeadc	0.0043614935
170	0x3d8fabfd	0.07015226
171	0xbc905ee8	-0.01762338
172	0xbde61443	-0.11234333
173	0xbd699036	-0.057022296
174	0xbe54bc4a	-0.20774952
175	0xbe104cc4	-0.14091784
176	0xbe4256e9	-0.18978466
177	0xbde0ef7e	-0.109831795
178	0xbdaf899e	-0.0857117
179	0xbe17c792	-0.14822224
180	0x3bd343ba	0.0064472826
181	0x3cf18e46	0.029486787
182	0xbb0d2f41	-0.0021543058
183	0x3d421b75	0.047389466
184	0x3df93518	0.1216833
185	0x3de12750	0.109938264
186	0x3c3eb48a	0.011639724
187	0x3bb66ac1	0.0055669253
188	0x3d3f4a90	0.046701968
189	0xbba40e90	-0.005006619
190	0xbcfd1a51	-0.030896338
191	0xbd42a8ed	-0.04752438
192	0xbd17a7b2	-0.03702516
193	0xbd76af91	-0.060226027
194	0x3d500731	0.05078811
195	0x3d69e2ec	0.057101175
196	0xbc9b7b61	-0.01897973
197	0xbccd6a6a	-0.025075156
198	0xbd34d3cb	-0.044147294
199	0x3da2f7e8	0.079574406
200	0xbe008239	-0.12549676
201	0xbe2d2189	-0.16907324
202	0xbe32e8f3	-0.17471676
203	0xbdd0d334	-0.10196534
204	0xbe1927f6	-0.1495665
205	0xbe58af26	-0.21160564
206	0xbe3874b2	-0.18013266
207	0xbe310c1c	-0.17289776
208	0xbe081d4e	-0.13292429
209	0xbe6c6df3	-0.23088817
210	0xbe30c3cd	-0.17262192
211	0xbe49908c	-0.19684047
212	0xbe6bc87e	-0.230257
213	0xbe106d0b	-0.14104097
214	0xbe6834f6	-0.22676453
215	0xbe3d39fb	-0.18479149
216	0xbe0aaf26	-0.13543376
217	0xbdacbb1a	-0.08434124
218	0xbe7514a3	-0.23933654
219	0xbdc90316	-0.09815042
220	0xbd9b9b4e	-0.075979814
221	0xbd7f5049	-0.062332425
222	0xbe2eadaa	-0.17058435
223	0xbe040c9c	-0.12895435
224	0x3d2ed5cc	0.04268436
225	0xbd0ac334	-0.033877566
226	0x3d7c1491	0.06154305
227	0x3d6480db	0.05578695
228	0xbe410070	-0.18847823
229	0xbe704812	-0.23464993
230	0xbdce91d7	-0.100864105
231	0xbe165474	-0.14680654
232	0xbdcca65f	-0.0999267
233	0xbdcc6b1a	-0.099813655
234	0xbe1b170e	-0.15145513
235	0xbdafef3e	-0.08590554
236	0x3c12a57e	0.008950589
237	0x3d4dea83	0.050272476
238	0x3bc81fc0	0.0061073005
239	0xbc9e338e	-0.019311693
240	0xbe0a409e	-0.13501212
241	0xbe1b7e2b	-0.15184848
242	0xbe0fb533	-0.14033966
243	0xbdcda49a	-0.10041161
244	0x3dd67117	0.10470789
245	0x3dad46b9	0.08460755
246	0x3de02038	0.10943645
247	0xbac69196	-0.0015149589
248	0x3ced92fb	0.02900075
249	0xbccd5a37	-0.025067432
250	0x3d1e6e93	0.03867967
251	0xbd6652a9	-0.056231175
252	0xbe723703	-0.23653798
253	0xbd98a9a0	-0.074542284
254	0xbe392636	-0.18080983
255	0xbe14a504	-0.14516073

bias f4 [64]
0	0xb96e3292	-0.00022716288
1	0xbcda5789	-0.026653068
2	0x3d876549	0.066111155
3	0xbd0eca31	-0.034860794
4	0x3c3a3b99	0.011366748
5	0xbd81e198	-0.06341857
6	0xbbeaa1de	-0.0071604094
7	0x3cc046dc	0.023471288
8	0xbe4f9d4b	-0.20274846
9	0xbdcd6458	-0.10028905
10	0xbd658685	-0.05603649
11	0xbdaba9d5	-0.08382002
12	0xbb0296cb	-0.0019926305
13	0x3b325b34	0.0027215006
14	0x3c9c2666	0.019061279
15	0x3d16b842	0.036796816
16	0xba95d2cb	-0.0011430619
17	0x3c1275a5	0.008939181
18	0xbe0641b4	-0.13111001
19	0x3b8fa77a	0.0043839784
20	0x3c0aa229	0.008461514
21	0xbdbdad25	-0.0926154
22	0x3c9d8d18	0.019232318
23	0xbd400ba0	-0.046886086
24	0xbc8b5f18	-0.017013118
25	0xbd98e7a0	-0.07466054
26	0xbcf18918	-0.029484317
27	0x3ce052fb	0.027383318
28	0xbc82671b	-0.015918305
29	0x3d182b3e	0.037150614
30	0x3b891994	0.0041839574
31	0x3d3e05cb	0.046392243
32	0x3d31cb57	0.04340681
33	0xbce157bb	-0.027507653
34	0xbc5b40b4	-0.013382126
35	0x3d6783cf	0.056522187
36	0xbb8d8390	-0.004318662
37	0xbddfb5b0	-0.10923326
38	0xbd371aaa	-0.044703163
39	0x3d504d07	0.05085471
40	0xbc7cd245	-0.015430992
41	0xbc457a0d	-0.012053025
42	0x3c166436	0.009179166
43	0xbdbbdba4	-0.091727525
44	0x3c91d1de	0.017800268
45	0xbc12e50f	-0.008965745
46	0xbd1b032c	-0.03784482
47	0xbd8fd227	-0.07022505
48	0x3d47126a	0.048601545
49	0xbdb4c964	-0.08827475
50	0xbdd9bda2	-0.10631873
51	0x3ca7ea33	0.020497417
52	0xbcb01dd2	-0.021498594
53	0xbc1379d9	-0.009001219
54	0xbc3a887d	-0.01138508
55	0x3c218a87	0.009859688
56	0xbdbdaf1e	-0.092619166
57	0x3d3f6713	0.04672916
58	0xbddd842c	-0.108162254
59	0x3d1f973e	0.038962595
60	0x3d900b6d	0.07033429
61	0xbd110719	-0.03540716
62	0xbdd671cc	-0.10470924
63	0x3ca47558	0.020075485

weight f4 [64, 64, 2, 2]
0	0xbdf0ffe3	-0.117675565
1	0xbcf232c6	-0.029565226
2	0xbdc5a3df	-0.096503966
3	0x3cd87984	0.02642513
4	0xbd064e6d	-0.032789636
5	0x3bb96cb8	0.0056587122
6	0xbd030937	-0.03199121
7	0xbc61210c	-0.013740789
8	0xbd784f6b	-0.060622614
9	0xbce5a7de	-0.028034147
10	0xbbddc84a	-0.006768261
11	0xbdfeb21f	-0.12436318
12	0xbde63392	-0.11240305
13	0x3ccc0eed	0.02490946
14	0xbdc80637	-0.097668104
15	0xbd91416f	-0.070925586
16	0x3d7b3e81	0.061338905
17	0xbddf617f	-0.10907268
18	0xbd25436e	-0.04034751
19	0xbdfca2c8	-0.123357356
20	0xbe46522e	-0.19367287
21	0x3d942464	0.072335035
22	0x3b771210	0.0037699975
23	0x3dc6fe50	0.09716475
24	0xbd0f63d9	-0.03500733
25	0xbdcbfb8c	-0.09960088
26	0xbd95872f	-0.07301175
27	0xbd3a003b	-0.045410376
28	0xbd8d6356	-0.069037125
29	0xbd757678	-0.059927434
30	0xbc92780c	-0.017879508
31	0xbd82bf5a	-0.06384154
32	0xbcca87ad	-0.024722898
33	0x3de3780e	0.11106883
34	0x3ceebcd0	0.029142767
35	0xbb897a8c	-0.004195517
36	0x3c9a59c8	0.01884164
37	0x3d2cf9a8	0.04223028
38	0x3c41841a	0.011811281
39	0x3b802694	0.003910849
40	0xbc95e79c	-0.018298917
41	0xbd9d8fd6	-0.0769345
42	0xbd8e215c	-0.069399565
43	0xbe1603a4	-0.14649826
44	0xbda0dd5f	-0.07854723
45	0x3cfe7098	0.031059548
46	0xbdae622f	-0.08514821
47	0x3dc28ee6	0.09499912
48	0xbd9965e0	-0.07490134
49	0x3d812dd7	0.063075714
50	0xbcd01697	-0.025401397
51	0xbc6a5a9f	-0.014303832
52	0xbd39f43c	-0.045398936
53	0x3d852b32	0.065023795
54	0x3c4b8c0b	0.012423526
55	0x3dd1629b	0.102238856
56	0xbddf8008	-0.10913092
57	0xbe1b9d97	-0.15196835
58	0xbe0180ff	-0.12646864
59	0xbdc55bb9	-0.09636635
60	0x3b7364ed	0.0037139014
61	0x3be9914b	0.007127916
62	0xbe36067f	-0.17775916
63	0xbdf510fa	-0.11966129
64	0xbb6688ae	-0.0035176682
65	0x3cbdb00c	0.023155235
66	0x3d1e1bb5	0.038600642
67	0x3b27d891	0.0025611261
68	0x3e021621	0.12703754
69	0x3e0770de	0.13226649
70	0xbdf5c49a	-0.120003894
71	0x3d157317	0.03648671
72	0x3de2695c	0.11055252
73	0x3e27d3da	0.16389409
74	0x3d9df284	0.07712272
75	0x3d84eddb	0.0649068
76	0xbdf400ee	-0.1191424
77	0xbe0db055	-0.13836797
78	0xbda0fa86	-0.078602836
79	0xbe1ae48b	-0.15126245
80	0xbcde66e0	-0.027148664
81	0xbd30f673	-0.043203782
82	0xbc44d1bb	-0.012012894
83	0xbc07b4ce	-0.008282853
84	0xbc95d6cc	-0.0182909
85	0x3b3a12e7	0.0028392614
86	0xbbe31384	-0.0069298167
87	0x3d40f21a	0.047105886
88	0xbc44fe47	-0.012023515
89	0x3d5316d7	0.051535454
90	0xbd05e8c1	-0.032692675
91	0xbe236100	-0.15954971
92	0xbcfe1fa0	-0.03102094
93	0x3c7acacd	0.015307141
94	0x3ce2fefb	0.027709475
95	0x3d89e3e7	0.06732922
96	0xbd8c4266	-0.06848602
97	0xbde935ce	-0.113872156
98	0xbe4d81b2	-0.20069006
99	0xbdb502da	-0.088384345
100	0xbd902172	-0.07037629
101	0xbcf1bd5d	-0.02950924
102	0xbd946577	-0.072459154
103	0xbd8095fd	-0.06278608
104	0xbd7fed12	-0.062481947
105	0xbd88fcf6	-0.066888735
106	0xbe4d60e2	-0.20056489
107	0xbc6a6d01	-0.014308215
108	0xbe0ec2e3	-0.13941531
109	0xbe445a5a	-0.19175091
110	0xbe322da9	-0.1740023
111	0xbe36b447	-0.17842208
112	0xbd70a96e	-0.05875533
113	0xbd03c129	-0.032166634
114	0xbd5ea746	-0.054358743
115	0xbb7b8fae	-0.00383852
116	0xbe0d00a1	-0.13769771
117	0xbe800d01	-0.2500992
118	0xbdd51cde	-0.104058966
119	0xbce510b3	-0.027962064
120	0xbda1c030	-0.07897985
121	0x3d1a3715	0.037650187
122	0x3c6f60c2	0.014610471
123	0x3d16fb40	0.036860704
124	0xbd4ac3db	-0.04950319
125	0xbdcaa1cf	-0.09894144
126	0xbdbd53a7	-0.09244471
127	0xbda9bdcc	-0.08288154
128	0xbded7260	-0.11594081
129	0xbd4abef6	-0.04949852
130	0xbcf02818	-0.029315993
131	0xbde05e45	-0.109554805
132	0x3de4dd92	0.11175074
133	0x3e0bfc0d	0.13670368
134	0x3ddbe08b	0.107361875
135	0x3ddc33b0	0.10752046
136	0xbe07b824	-0.13253838
137	0xbe288b0e	-0.16459295
138	0xbd9967cd	-0.074905016
139	0xbdc017c7	-0.09379535
140	0xbe0bdfb2	-0.13659552
141	0xbe032fb4	-0.12811166
142	0xbe0cd831	-0.13754345
143	0xbdcff8a9	-0.1015485
144	0xbd6cce3d	-0.05781387
145	0x3cb6ff47	0.022338523
146	0xbda47a92	-0.08031191
147	0xbdf49268	-0.11941987
148	0x3cf0c3a4	0.029390164
149	0x3df24f14	0.11831489
150	0xba09264d	-0.00052318425
151	0x3d930512	0.071787015
152	0xbc1ee8d4	-0.009699065
153	0x3dbff02f	0.09371983
154	0x3d1dc33c	0.038516268
155	0x3cf5f0b5	0.030022005
156	0xbdf0217b	-0.11725136
157	0xbdc15b63	-0.09441259
158	0xbd992ec6	-0.074796245
159	0xbe08ea95	-0.13370736
160	0xbb7d932d	-0.003869246
161	0xbd8cefc6	-0.06881671
162	0x3d0c35bf	0.034230944
163	0xbe2227ba	-0.15835467
164	0xbcf84f75	-0.030311326
165	0x3d35453d	0.044255484
166	0xba15dd92	-0.00057169155
167	0xbda86a61	-0.08223415
168	0xbbd493e1	-0.006487355
169	0x3ba4a650	0.005024709
170	0xbd4a7b32	-0.049433894
171	0x3c7db3c3	0.015484753
172	0xbd6116af	-0.054953273
173	0x3d81c5e3	0.06336572
174	0xbd485209	-0.04890636
175	0x3d8f8081	0.07006932
176	0xbd84b78a	-0.0648032
177	0xbcd5a55b	-0.026079824
178	0xbe04c416	-0.12965426
179	0xbdbea9d6	-0.093097374
180	0xbd2fc2ca	-0.042910375
181	0x3d4884cf	0.04895478
182	0x3c8210ed	0.015877211
183	0xbd768b7e	-0.060191624
184	0xbd6f72ad	-0.058458973
185	0x3d466a55	0.04844125
186	0x3cf54800	0.029941559
187	0x3c49d91d	0.01231983
188	0x3ca658e5	0.02030606
189	0xbc068348	-0.008210011
190	0xbd40ade1	-0.047040824
191	0x3c296028	0.010337867
192	0xbe0b7ab8	-0.13621032
193	0xbca3c914	-0.019993342
194	0xbe19fe4a	-0.1503841
195	0x3d5a630c	0.053317115
196	0x3d89d842	0.06730701
197	0x3e2c8d72	0.16850832
198	0x3dcecbeb	0.10097488
199	0x3d9b06cb	0.07569655
200	0xbb5dd7d5	-0.003385057
201	0x3db2e07e	0.08734225
202	0x3bc5c0fe	0.0060349694
203	0x3db63a6e	0.08897863
204	0xbcc702b9	-0.02429329
205	0xbcd50716	-0.026004355
206	0xbc257089	-0.010097631
207	0xbca4b589	-0.020106094
208	0xbaa5f013	-0.0012660049
209	0xbcb9de56	-0.022689026
210	0xbcd5c71e	-0.026095923
211	0xbdbba816	-0.09162919
212	0xbcde8d0f	-0.027166871
213	0xbe596387	-0.21229373
214	0xbd768194	-0.06018217
215	0xbc728281	-0.014801622
216	0xbdec9296	-0.115513965
217	0x3ce782f1	0.02826068
218	0xbe0265d6	-0.1273416
219	0xbdba7e20	-0.09106088
220	0xbe115847	-0.14193831
221	0x3c19bede	0.009383885
222	0xbd832a8e	-0.06404601
223	0xbdaf521e	-0.085605845
224	0xbb286af1	-0.0025698508
225	0x3da56477	0.08075803
226	0x3d4c2df9	0.04984853
227	0x3dca6eae	0.09884392
228	0xbdacc7b2	-0.08436526
229	0xbd57efdb	-0.05271898
230	0x3bc6cc6e	0.0060668504
231	0xbc94b458	-0.0181524
232	0xbd4c7d0e	-0.04992395
233	0x3d049299	0.03236637
234	0xbb113089	-0.0022154173
235	0x3c83b1d0	0.016075999
236	0x3a8f9628	0.0010954784
237	0xbdb40daf	-0.087916724
238	0x3d82f870	0.06395042
239	0xbe208438	-0.15675437
240	0x3bf814eb	0.007570853
241	0xbd723c48	-0.05913952
242	0xbbf54492	-0.007484981
243	0xbca52e8c	-0.020163797
244	0x3d5e8ebe	0.05433535
245	0x3d5ec6fb	0.05438898
246	0xbba1184d	-0.004916227
247	0x3d5db008	0.054122955
248	0xbd818c61	-0.06325603
249	0x3de087bb	0.109633885
250	0xbd55e381	-0.052218918
251	0x3d4817c4	0.04885079
252	0xbe37c7f5	-0.17947371
253	0xbe20770d	-0.15670414
254	0xbdd972c0	-0.1061759
255	0x3d939086	0.072053

bias f4 [64]
0	0xbda06388	-0.07831484
1	0xbda909e9	-0.08253843
2	0xbcc03344	-0.023461945
3	0xbe1eaeae	-0.15496323
4	0x3dbf775d	0.093489386
5	0x3d77571e	0.060385816
6	0xbd133d9d	-0.03594743
7	0x3de53ec0	0.11193609
8	0x3d6b02e7	0.057375815
9	0xbccf8567	-0.025332166
10	0xbdd95a75	-0.106129564
11	0xbe740e66	-0.23833618
12	0xbdb1ad06	-0.0867558
13	0x3d189017	0.03724679
14	0xbd1688d7	-0.036751594
15	0x3d4498b6	0.0479972
16	0x3d21a480	0.03946352
17	0xbd9d1111	-0.07669271
18	0x3bb11159	0.0054036793
19	0xbbef23b3	-0.007297957
20	0x3c6e44e9	0.014542797
21	0x3d64f4e0	0.055897593
22	0xbe245611	-0.16048457
23	0x3c93890e	0.018009689
24	0x3d9fc4ae	0.078011855
25	0x3be8f852	0.00710968
26	0x3cabc028	0.02096565
27	0x3c386ae5	0.011255954
28	0x3e19166e	0.14949962
29	0x3d83dd3e	0.06438683
30	0xbd4ac7bb	-0.049506884
31	0x3d0461e6	0.032319926
32	0x3d940184	0.072268516
33	0xbe80c51b	-0.2515038
34	0x3d5c92f0	0.053851068
35	0x3d896ed1	0.0671059
36	0xbdf89950	-0.12138617
37	0xbd9721de	-0.073795065
38	0x3d8deafc	0.06929585
39	0x3cc7fe1a	0.024413157
40	0xbdf30fc4	-0.118682414
41	0x3cecb38c	0.028894208
42	0xbd06b23a	-0.032884814
43	0xbe343685	-0.17598923
44	0xbe4fb6d0	-0.20284581
45	0x3e09e419	0.13465919
46	0x3d2c9705	0.04213621
47	0x3da1666b	0.07880863
48	0xbd3388b5	-0.043831546
49	0x3cb6e50c	0.022326015
50	0xbdb82f08	-0.089933455
51	0x3e0f0622	0.13967183
52	0xbdd7f145	-0.105440654
53	0xbcfe6c4f	-0.031057505
54	0xbe1a6dca	-0.15080944
55	0xbbdf6e33	-0.0068185567
56	0xbc8f7510	-0.017511874
57	0x3d049be7	0.032375243
58	0xbe115918	-0.14194143
59	0x3c07601a	0.0082626585
60	0x3d289a96	0.04116305
61	0x3d6844d8	0.05670628
62	0xbe0fad52	-0.1403096
63	0x3ccd46c4	0.025058158

beta f4 [64]
0	0x3f683a95	0.9071439
1	0x3f70d0ef	0.9406881
2	0x3f77e3d9	0.9683204
3	0x3f5f9444	0.8733561
4	0x3f8afbd2	1.08581
5	0x3f679ea3	0.90476435
6	0x3f62f5f5	0.8865655
7	0x3f69a8be	0.91273105
8	0x3f3ea3a6	0.7446846
9	0x3f37def4	0.71824574
10	0x3f51a4da	0.8189217
11	0x3f83c7ff	1.0295409
12	0x3f5e56e9	0.86851364
13	0x3f968ab9	1.1761085
14	0x3f331a30	0.69961834
15	0x3f563333	0.83671874
16	0x3f8083e2	1.0040247
17	0x3f930c16	1.1488063
18	0x3f50c54e	0.81551063
19	0x3f3e3490	0.74298954
20	0x3f15b64a	0.58481276
21	0x3f4987bf	0.7872276
22	0x3f7cc3a2	0.9873601
23	0x3f523ceb	0.82124203
24	0x3f27e4bc	0.65583396
25	0x3f601ce3	0.8754408
26	0x3f36bfbe	0.71386325
27	0x3f792945	0.973286
28	0x3f495fb3	0.7866165
29	0x3f5993cf	0.84991163
30	0x3f6888db	0.90833825
31	0x3f42d087	0.7609944
32	0x3fa976d4	1.3239388
33	0x3f1ed90d	0.62049943
34	0x3f849601	1.0358278
35	0x3f54c014	0.8310559
36	0x3f88b898	1.0681334
37	0x3f4e77c1	0.8065148
38	0x3f60b878	0.87781477
39	0x3f764c3d	0.9621008
40	0x3f07f1f1	0.5310355
41	0x3f5bff61	0.8593655
42	0x3f33575d	0.7005518
43	0x3f8c6b52	1.0970252
44	0x3f2f7c4d	0.6854904
45	0x3f693748	0.9109998
46	0x3fa434ad	1.2828575
47	0x3ef6c1cf	0.4819474
48	0x3f8ab95b	1.0837816
49	0x3f615a09	0.8802801
50	0x3f790c3a	0.9728428
51	0x3f6e1545	0.93001205
52	0x3f32a22f	0.6977872
53	0x3f396657	0.72421783
54	0x3f39eb83	0.7262499
55	0x3f37135d	0.7151392
56	0x3f85cefa	1.0453789
57	0x3f4476b7	0.76743644
58	0x3f3c5c66	0.7357849
59	0x3f50b0b2	0.81519616
60	0x3f420c51	0.75800043
61	0x3f26a139	0.65089756
62	0x3f709928	0.939837
63	0x3f6bcc16	0.92108285

gamma f4 [64, 64]
0	0x3e806a39	0.2508104
1	0x377ed090	1.51881395e-05
2	0x36633bd7	3.3860467e-06
3	0x36a0606a	4.7795957e-06
4	0x365c47a5	3.2824257e-06
5	0xb51c7df3	-5.829781e-07
6	0xb8089890	-3.256701e-05
7	0xb5710e0c	-8.9799937e-07
8	0x36b71044	5.4557186e-06
9	0x3ccbe4ea	0.024889428
10	0xb63ebf06	-2.8423397e-06
11	0x378b4003	1.6599899e-05
12	0xb6183c1c	-2.2684753e-06
13	0x37752539	1.46118045e-05
14	0x3704fb31	7.926298e-06
15	0x37a883f7	2.0088612e-05
16	0x3b986aee	0.004651419
17	0xb7949108	-1.771051e-05
18	0xb6051684	-1.983165e-06
19	0xb64b1240	-3.025998e-06
20	0x3c1d20ee	0.009590371
21	0x377215ac	1.442937e-05
22	0x371c88a8	9.330142e-06
23	0xb7114c6f	-8.66047e-06
24	0x36a693b6	4.9643813e-06
25	0x36e72dde	6.889676e-06
26	0x374b17d9	1.2105295e-05
27	0x3c8b6c2c	0.017019354
28	0xb8825528	-6.214745e-05
29	0x3659cdf9	3.2455412e-06
30	0x33a8a1e4	7.8525574e-08
31	0x370d45d7	8.420516e-06
32	0xb684e2d3	-3.9603124e-06
33	0x377b02b6	1.4961397e-05
34	0xb60db38c	-2.1115147e-06
35	0xb607175a	-2.013016e-06
36	0xb6a24d07	-4.8369434e-06
37	0xb6f3c961	-7.265408e-06
38	0x3cfd9a95	0.0309575
39	0x37730190	1.44842925e-05
40	0x3bcc1d64	0.0062290896
41	0x369976eb	4.573599e-06
42	0x37b31fd3	2.1353282e-05
43	0xb727c6f1	-1.0000295e-05
44	0x36e80f76	6.9159387e-06
45	0xb6beec8f	-5.6899803e-06
46	0x36837ed7	3.9188703e-06
47	0xb68c2d09	-4.177568e-06
48	0x35035bee	4.893508e-07
49	0xb943646f	-0.00018634064
50	0x367b2d27	3.7428197e-06
51	0xb728f55b	-1.0070707e-05
52	0x36e9559b	6.953907e-06
53	0x3d37763f	0.044790503
54	0xb629489d	-2.522523e-06
55	0x375af541	1.3050915e-05
56	0x3d862763	0.06550481
57	0x36cb80dc	6.0648727e-06
58	0x359c9a08	1.1667735e-06
59	0x37102098	8.590658e-06
60	0xb76b497a	-1.4024199e-05
61	0x3d07c286	0.033144496
62	0xb5a0d627	-1.1983255e-06
63	0x378b27dd	1.6588654e-05
64	0x3667ee17	3.456027e-06
65	0x3e9562bd	0.29176894
66	0x3cd6314d	0.026146555
67	0xb6a78145	-4.992037e-06
68	0x36641644	3.3987608e-06
69	0x3c8af0e8	0.016960576
70	0x36c43bd3	5.8482196e-06
71	0x3cbf5e4e	0.023360398
72	0x37e0c28d	2.6793476e-05
73	0x3cf02e5c	0.02931898
74	0x3629e6e5	2.531736e-06
75	0xb6bc83ab	-5.618165e-06
76	0x3697a8f7	4.519821e-06
77	0x366b00f8	3.5018293e-06
78	0x3cf2dbbd	0.029645795
79	0x3c818307	0.015809549
80	0x36e4461f	6.8030927e-06
81	0x3c3e46c8	0.011613555
82	0x3cba9bcd	0.02277937
83	0x3cb53efb	0.022124758
84	0x3d14f095	0.03636225
85	0x3c9c4a8b	0.019078514
86	0x3c43114b	0.011905978
87	0x3cef4df8	0.029211983
88	0x3b875f54	0.004131237
89	0x36a40819	4.8885236e-06
90	0x3bb17652	0.005415716
91	0xb802b922	-3.1166834e-05
92	0x3c44feaa	0.012023607
93	0x3c957424	0.018243857
94	0x3d4179da	0.047235347
95	0x3c863650	0.01638332
96	0x3cc5126e	0.02405664
97	0x3cb1ee59	0.021720098
98	0x3c9e40fc	0.019318096
99	0x3c503bcf	0.012709572
100	0x3e2aa449	0.16664232
101	0x3e401af3	0.1876028
102	0x3d8b7703	0.06809809
103	0x3ca48f0a	0.020087738
104	0x3d812e7e	0.06307696
105	0x3ca8d228	0.020608023
106	0x3ca33378	0.019922003
107	0x3643e900	2.9192888e-06
108	0x3d7b3da1	0.06133807
109	0x3b9d50af	0.004800878
110	0x363412f0	2.6833113e-06
111	0x37bc452c	2.2443557e-05
112	0x3631d348	2.6498037e-06
113	0x3d1fec1c	0.03904353
114	0x3ce8e077	0.028427346
115	0x3c43eadf	0.011957853
116	0x3d28ed1b	0.041241746
117	0x378c3636	1.6714544e-05
118	0x37091858	8.171504e-06
119	0x3d03376b	0.032035273
120	0x3ce6c9c8	0.028172389
121	0x3d60c948	0.054879457
122	0x3d029fee	0.031890802
123	0x3c66fe11	0.01409866
124	0x3d7f89fd	0.062387455
125	0x3d6191a3	0.05507053
126	0x36854979	3.972262e-06
127	0x3666169d	3.4285833e-06
128	0x3680eaf4	3.8420494e-06
129	0x3b36ddad	0.0027903125
130	0x3e90d89b	0.28290257
131	0x3cf720c0	0.030166984
132	0x36749ce8	3.6450165e-06
133	0x3bdaf289	0.0066817445
134	0x3cce1f51	0.025161417
135	0x3c85cf83	0.0163343
136	0x3c174c47	0.0092344945
137	0x3d8cc7c6	0.06874041
138	0x3685bec1	3.9859156e-06
139	0xb7286ecd	-1.0039378e-05
140	0x364daea6	3.064904e-06
141	0x34394025	1.7252803e-07
142	0x3d2014d2	0.039082356
143	0x3be79d06	0.007068279
144	0x36ca0e9e	6.021771e-06
145	0x3c813b7a	0.015775431
146	0x3c5bdaa2	0.013418825
147	0x3cb5246b	0.022112092
148	0x3dad340f	0.08457195
149	0x3c3e171e	0.011602191
150	0x3c5ed4d2	0.013600545
151	0x3d0aa7fd	0.033851612
152	0x3c07d529	0.008290567
153	0x3c72f86b	0.014829735
154	0x3d013d09	0.03155235
155	0xb62f54cd	-2.6126393e-06
156	0x3d9a5078	0.075348794
157	0x3c063ba6	0.008192932
158	0x3d494dd9	0.049146507
159	0x3cf8bfde	0.030364927
160	0x3d11f82c	0.035637066
161	0x3c6984b4	0.01425283
162	0x3c4c9aff	0.012488126
163	0x36b01635	5.247794e-06
164	0x3dd3021e	0.10303138
165	0x3e31091f	0.17288636
166	0x3dca1644	0.09867528
167	0x3c5c58bc	0.01344889
168	0x3db45ecd	0.08807144
169	0x3c39c84b	0.0113392575
170	0x3c2ecbc2	0.010668697
171	0x363434f4	2.6852913e-06
172	0x3dbd3ff1	0.092407115
173	0x3666a6cc	3.436976e-06
174	0x3cccaa0b	0.024983427
175	0x3c0e5fc8	0.008689828
176	0x3610befc	2.156884e-06
177	0x3cfbe817	0.030750317
178	0x3ce01c33	0.027357196
179	0x3c3e0dc2	0.01159996
180	0x3d97d2b9	0.07413239
181	0x3d2039c5	0.039117593
182	0x3ca4f606	0.020136844
183	0x3cded231	0.027199836
184	0x3da96f6c	0.08273205
185	0x3d6713b9	0.056415293
186	0x3cffd55e	0.031229671
187	0x3c51e8f1	0.012811885
188	0x3d1faee5	0.03898515
189	0x3de01d13	0.109430455
190	0x36758dd6	3.6590404e-06
191	0x367f0245	3.7999282e-06
192	0x36a26082	4.839211e-06
193	0xb7d6913e	-2.5578422e-05
194	0x369ac070	4.6119603e-06
195	0x3e716fdd	0.23577829
196	0x3457aa52	2.0085398e-07
197	0x37a01ff6	1.908837e-05
198	0xb6cfa1aa	-6.187901e-06
199	0x36c3b95f	5.833033e-06
200	0xb818ba8a	-3.6413352e-05
201	0x3baf4afd	0.0053495155
202	0x36b7a628	5.473168e-06
203	0xb7fb71ed	-2.9974583e-05
204	0xb5a62b4c	-1.2380565e-06
205	0x3652bbb5	3.1401698e-06
206	0x3d4d6b31	0.050151054
207	0xb61ac7d7	-2.306411e-06
208	0xb681478b	-3.8528283e-06
209	0x3d387fd8	0.045043796
210	0xb78a9a46	-1.6522721e-05
211	0xb8005bd9	-3.0603118e-05
212	0x3d4fc02a	0.05072037
213	0xb766d6a9	-1.3759048e-05
214	0x36b523e4	5.3983986e-06
215	0x3715089d	8.8830975e-06
216	0x3cebd519	0.028788136
217	0x3cac4521	0.021029057
218	0x3cecdb29	0.028913097
219	0x3798c990	1.8213672e-05
220	0x3d5c77b8	0.05382511
221	0xb616a1e3	-2.2445972e-06
222	0x37091f36	8.173103e-06
223	0xb6a4f14c	-4.9156715e-06
224	0x369c4b73	4.6579457e-06
225	0x36e4d932	6.8202144e-06
226	0x3701d209	7.737902e-06
227	0xb8180f52	-3.6253892e-05
228	0x37c983b8	2.4022404e-05
229	0x3d554409	0.052066837
230	0xb581add6	-9.661842e-07
231	0xb7d3154a	-2.5163074e-05
232	0x3c01493e	0.007890997
233	0xb74e9ad1	-1.2314603e-05
234	0xb795125f	-1.7770739e-05
235	0xb607e39a	-2.024905e-06
236	0x368c76a8	4.1861385e-06
237	0xb8018c6f	-3.0886786e-05
238	0xb694ce35	-4.4347494e-06
239	0xb84ede31	-4.932116e-05
240	0x37c0b1df	2.2971011e-05
241	0x3bfae5f1	0.0076568057
242	0x37afdd79	2.0964757e-05
243	0x378efaf8	1.7044586e-05
244	0x3bb3a6b8	0.005482521
245	0x3b634b2d	0.003468226
246	0x3499f57c	2.8677084e-07
247	0x3c349d62	0.011023851
248	0x371f1a93	9.483326e-06
249	0x3647cc02	2.977206e-06
250	0xb7e9fafa	-2.7892635e-05
251	0xb7f36fb2	-2.901987e-05
252	0x3729b54c	1.0115396e-05
253	0x3958240e	0.00020612797
254	0xb71ef70c	-9.475054e-06
255	0xb68b5873	-4.1528197e-06

beta f4 [64]
0	0x3f6692a1	0.9006749
1	0x3f4cd4d8	0.80012274
2	0x3f4c6835	0.7984651
3	0x3f51eb4c	0.8199966
4	0x3f2ab4c8	0.666821
5	0x3f579b4d	0.84221345
6	0x3f632d67	0.88741153
7	0x3f6ad556	0.91731775
8	0x3f7382db	0.95121545
9	0x3f406803	0.7515871
10	0x3f4db6f5	0.80357295
11	0x3f47f6ca	0.78110945
12	0x3f606a9b	0.8766267
13	0x3f659733	0.89683837
14	0x3f4db84c	0.8035934
15	0x3f6860ad	0.90772516
16	0x3f5534e9	0.8328386
17	0x3f55646c	0.83356357
18	0x3f59f9bd	0.85146695
19	0x3f5858df	0.84510607
20	0x3f6d4fa3	0.9269964
21	0x3f6338fa	0.88758814
22	0x3f4b1769	0.79332596
23	0x3f708a12	0.9396068
24	0x3f371d75	0.7152932
25	0x3f60799a	0.8768555
26	0x3f440153	0.7656452
27	0x3f53c40c	0.8272102
28	0x3f461c9e	0.77387416
29	0x3f6866d9	0.90781933
30	0x3f5bf525	0.85920936
31	0x3f6fa4ac	0.93610644
32	0x3f2fb850	0.68640614
33	0x3f6d43cf	0.9268159
34	0x3f62bc2b	0.8856837
35	0x3f6d4282	0.9267961
36	0x3f7b4998	0.9815917
37	0x3f6d8ee6	0.9279617
38	0x3f3d54d7	0.7395758
39	0x3f59331b	0.84843606
40	0x3f6bdb80	0.92131805
41	0x3f4ef69b	0.8084504
42	0x3f686c10	0.9078989
43	0x3f5e867e	0.8692397
44	0x3f454770	0.7706213
45	0x3f6e9ad4	0.93205
46	0x3f76f745	0.96471053
47	0x3f6739e2	0.903227
48	0x3f4a7030	0.79077435
49	0x3f65aeac	0.89719653
50	0x3f48d90c	0.7845619
51	0x3f3e169d	0.74253255
52	0x3f3727f5	0.71545345
53	0x3f2ba18b	0.6704337
54	0x3f57894e	0.84193885
55	0x3f5d1af8	0.86369276
56	0x3f65e477	0.89801735
57	0x3f4c0b8a	0.7970511
58	0x3f4ae091	0.7924891
59	0x3f7a0306	0.97660863
60	0x3f5670d7	0.8376593
61	0x3f640244	0.8906596
62	0x3f69980e	0.9124764
63	0x3f3d0d12	0.7384807
