models/encNet_15_1.pkl (torch_old, 100767 bytes, 18 tensors)

weight f4 [32, 1, 1, 1]
0	0xbdf9536d	-0.12174115
1	0x3f87f59f	1.0621833
2	0x3e957bb4	0.2919594
3	0x3f0351af	0.51296514
4	0xbf746bd5	-0.9547704
5	0xbd4a4ad0	-0.049387753
6	0xc06e16f8	-3.720152
7	0xbfb8cbff	-1.4437255
8	0xbcebf551	-0.0288035
9	0x3f8066bf	1.0031356
10	0x3f8f2033	1.1181701
11	0x3f897e93	1.0741752
12	0x3f96a8cf	1.1770266
13	0xbe8ef373	-0.27920112
14	0xbef089fc	-0.46980274
15	0x3f9431f8	1.1577749
16	0x3dc07fd1	0.09399379
17	0x3f8aad1a	1.0834076
18	0xbe894858	-0.26813006
19	0xbdd6f222	-0.10495402
20	0x3f168dec	0.58810306
21	0xbeaa0e13	-0.33213863
22	0x3f0a5570	0.5403662
23	0x3f02d4c6	0.51105917
24	0xc0112363	-2.2677848
25	0xbf064165	-0.52443534
26	0x3f23bb51	0.639577
27	0xbf73cabb	-0.9523122
28	0xbf3044ce	-0.6885499
29	0xbf205c5b	-0.62640923
30	0x3ea5b372	0.32363468
31	0xbf885d8b	-1.0653547

bias f4 [32]
0	0x3dff3cf6	0.12462799
1	0x3e5d28df	0.21597622
2	0xbea09a93	-0.3136793
3	0xbeae5335	-0.34047857
4	0xbd8d2311	-0.06891454
5	0xbbb1e9c8	-0.00542948
6	0x3da30b21	0.07961107
7	0xbcf31230	-0.029671758
8	0xbc8a6ec6	-0.016898524
9	0xbf740a19	-0.9532791
10	0x3ea0f7e5	0.3143913
11	0x3cefe598	0.029284284
12	0x3e7e733c	0.24848646
13	0x3e455348	0.1927005
14	0x3efbab5c	0.49154174
15	0x3e9f8d25	0.31162372
16	0xbde7fbd8	-0.11327332
17	0xbcc1a483	-0.023638016
18	0x3eac1049	0.33606175
19	0xbc243e79	-0.01002466
20	0x3be9c034	0.007133508
21	0x3eecf356	0.462794
22	0xbf106037	-0.5639681
23	0xbef26fd0	-0.4735093
24	0x3e991a35	0.29902807
25	0x3f085677	0.53256935
26	0xbf13994b	-0.5765578
27	0xbed9eeb7	-0.42564937
28	0x3f3428e1	0.70374876
29	0x3f234246	0.63773
30	0xbd3c146d	-0.045917917
31	0x3dbf9d2e	0.093561515

weight f4 [32, 32, 2, 2]
0	0x3df9088b	0.121598326
1	0xbc1da493	-0.009621757
2	0x3dbdf1f3	0.09274664
3	0xbe16b1ae	-0.14716217
4	0xbe3d8d93	-0.18511038
5	0xbd15cfec	-0.036575243
6	0xbd74da5f	-0.059778567
7	0xbd8b0dad	-0.06789718
8	0x3cec3cf6	0.028837662
9	0x3a646d70	0.0008713817
10	0x3cfdf29d	0.030999476
11	0x3d00fc9b	0.031490903
12	0x3c4e3827	0.01258663
13	0x3ed20347	0.41018125
14	0x3d3ac5e4	0.04559888
15	0x3f003c01	0.5009156
16	0x3e5228b2	0.20523337
17	0x3de5ed39	0.11226887
18	0x3d2de5a6	0.042455338
19	0x3dd343fa	0.103157
20	0x3e16097d	0.14652057
21	0xbbb397e7	-0.0054807547
22	0x3de0261a	0.10944767
23	0x3d6e8e8d	0.058241416
24	0x3fc95c12	1.5731223
25	0x3f9477e8	1.1599092
26	0x3fc5b44c	1.5445647
27	0x3f8f2250	1.1182346
28	0x3e79212a	0.24329057
29	0x3e26bf0d	0.16283818
30	0x3e2a55bd	0.16634269
31	0x3dd4bc00	0.10387421
32	0xbc211520	-0.009831697
33	0xbd209ff3	-0.03921504
34	0x3cee22b6	0.029069286
35	0xbd1ef8fa	-0.03881166
36	0xbb952595	-0.0045515993
37	0x3e2cfc3f	0.16893099
38	0x3ce99b4a	0.02851643
39	0x3e7c7179	0.24652661
40	0xbe4973e5	-0.19673117
41	0xbd146951	-0.03623325
42	0xbdeaa96e	-0.114580974
43	0x3d08caaa	0.0333964
44	0xbe9281d3	-0.28614673
45	0xbe247527	-0.16060315
46	0xbd0c1aa0	-0.03420508
47	0xbddc966a	-0.10770877
48	0xbe7875b5	-0.24263652
49	0xbd52214a	-0.05130128
50	0xbd8b015c	-0.06787369
51	0xbd3b5ea6	-0.04574456
52	0x3d54907d	0.051895607
53	0xbc806294	-0.015672006
54	0x3ca755a0	0.020426571
55	0xbe703291	-0.2345679
56	0x3e0976ac	0.13424176
57	0xbd8ca96b	-0.068682514
58	0x3c7e91aa	0.015537659
59	0xbd9ecfb5	-0.07754461
60	0xbe1c8de6	-0.15288505
61	0xbe110295	-0.14161141
62	0xbe2e3cb8	-0.1701535
63	0x3c836ca7	0.01604302
64	0xbc5646ba	-0.013078386
65	0x3c9e3800	0.019313812
66	0xbd675bf7	-0.05648419
67	0x3d5386ef	0.051642355
68	0xbddc81a6	-0.10766916
69	0x3e370e7f	0.17876624
70	0x3e22cb73	0.15897922
71	0x3de8bfab	0.11364683
72	0xbccd8276	-0.025086623
73	0xbddb2ba6	-0.10701685
74	0xbd1ab977	-0.03777453
75	0xbe0881be	-0.13330743
76	0x3e33bc1c	0.17552227
77	0x3e2da288	0.16956532
78	0x3d9fd9fe	0.078052506
79	0xbce5967c	-0.028025858
80	0xbe7dd410	-0.24787927
81	0x3b581106	0.003296913
82	0xbd5ad05d	-0.053421367
83	0xbc6d9b22	-0.014502319
84	0x3d6c21d8	0.057649463
85	0x3c689678	0.014196031
86	0xbd366fa8	-0.044540077
87	0xbc943f07	-0.01809646
88	0xbd6a8ceb	-0.057263296
89	0x3d45aaf0	0.04825872
90	0xbd381f47	-0.044951703
91	0x3cde61d2	0.027146254
92	0x3d16646a	0.036716856
93	0x3d8d2c51	0.06893218
94	0xbca77723	-0.020442551
95	0x3cdda02a	0.027053911
96	0x3eee988e	0.46600765
97	0x3e022166	0.12708053
98	0x3ec37e4a	0.38182288
99	0x3e21da43	0.15805916
100	0x3c9ced16	0.01915602
101	0xbd6bea12	-0.057596274
102	0x3d2ead43	0.042645704
103	0x3c912f44	0.017722733
104	0xbdc20030	-0.09472692
105	0x3d19cdbc	0.03754972
106	0x3c2bb4fd	0.010480163
107	0x3db78597	0.08961027
108	0x3e23f82c	0.16012639
109	0x3dc2bde1	0.09508873
110	0x3df8dd5a	0.121515945
111	0x3cb3c19d	0.021942908
112	0x3dc2cea8	0.09512073
113	0x3c792c02	0.015208246
114	0x3d89429b	0.06702157
115	0x3bf31f99	0.007419538
116	0x3d99b093	0.07504382
117	0xbd9d1eb4	-0.07671872
118	0xbc704055	-0.014663775
119	0xbdde1ae9	-0.108449765
120	0xbe8b8ff4	-0.27258265
121	0xbcc7cad8	-0.024388716
122	0xbd683fa9	-0.056701336
123	0xbc07ed95	-0.00829639
124	0x3e7f08f2	0.24905756
125	0x3d4d14f3	0.050068807
126	0x3e5e34bd	0.21699806
127	0xbcfc6cfa	-0.030813683
128	0xbe0be60b	-0.13661973
129	0x3e0d0203	0.13770299
130	0x3d50774e	0.050895028
131	0x3e0c6907	0.1371194
132	0x3da1e200	0.07904434
133	0x3d3de3e0	0.046359897
134	0xbd8f60c7	-0.07000881
135	0xbe1bdaca	-0.1522018
136	0x3dab9df0	0.083797336
137	0x3d85f9b2	0.06541766
138	0xbd22e649	-0.0397704
139	0x3d442884	0.0478902
140	0x3d967b8c	0.073477834
141	0xbe84ef29	-0.25963715
142	0xbd93fcc8	-0.072259486
143	0xbe6d9652	-0.23201874
144	0xbd6c0306	-0.05762007
145	0x3ccc1493	0.024912154
146	0xbc7f30ae	-0.015575571
147	0x3d56a941	0.052407507
148	0x3d806b8b	0.06270512
149	0xbca73993	-0.020413196
150	0xbd43771f	-0.047721025
151	0x3db8199a	0.08989258
152	0xbf62a501	-0.88533026
153	0xbf2ed443	-0.68292636
154	0xbf2e73e7	-0.681456
155	0xbef8b132	-0.4857269
156	0xbddfd09d	-0.10928462
157	0xbd383526	-0.04497256
158	0xbdc8eb88	-0.09810549
159	0x3dd36b7c	0.103232354
160	0x3d41bdf2	0.047300287
161	0x3e18275b	0.14858763
162	0x3d2af0d0	0.041733563
163	0x3da05f7d	0.07830713
164	0x3e2030d5	0.15643628
165	0xbda60cc8	-0.081079066
166	0x3bdc3ee9	0.0067213667
167	0x3dbf0f8d	0.09329138
168	0x3c172772	0.009225713
169	0xbd4d517c	-0.050126538
170	0xbca7e79a	-0.020496178
171	0xbe1d2225	-0.15345056
172	0x3e315793	0.17318563
173	0x3ddb5a11	0.10710538
174	0x3e0773bd	0.13227744
175	0x3b5b3f8f	0.0033454632
176	0x3d88361c	0.066509455
177	0x3d44b138	0.04802057
178	0x3c83ea16	0.016102832
179	0xbdacea12	-0.08443083
180	0xbe17e303	-0.14832692
181	0xbe4bcbec	-0.19902009
182	0xbeca5fa8	-0.39526105
183	0xbe9d7cbd	-0.3075923
184	0xbd9d89f3	-0.07692327
185	0xbd3cda14	-0.046106413
186	0xbc680c37	-0.0141630685
187	0xbbf81c96	-0.007571767
188	0x3e07d46e	0.13264629
189	0xba6be6b1	-0.0008998914
190	0xbce9bda2	-0.028532807
191	0xbdc7121b	-0.0972025
192	0x3cc23fb0	0.02371201
193	0x3d41686d	0.04721873
194	0x3bc5a97c	0.006032167
195	0x3c7c744f	0.0154085895
196	0x3e16c267	0.14722596
197	0x3dce4192	0.100711
198	0x3de9eb6f	0.114218585
199	0xbca40434	-0.020021535
200	0xbdb283a6	-0.08716516
201	0xbd6934ca	-0.05693511
202	0xbc670826	-0.014101064
203	0xbdd0774f	-0.10179006
204	0x3d43413e	0.04766964
205	0x3d9a60fb	0.07538029
206	0x3d6a114d	0.057145406
207	0x3e24e42a	0.16102663
208	0x3df09870	0.11747825
209	0xbd246fd1	-0.0401457
210	0x3d6adbd1	0.05733854
211	0xbc08c739	-0.00834828
212	0x3c5d81aa	0.013519684
213	0xbda70f2f	-0.08157193
214	0xbdeabb87	-0.11461549
215	0xbc225ed9	-0.009910309
216	0x3e119302	0.14216235
217	0xbd8dbb63	-0.06920507
218	0x3c607ae5	0.013701175
219	0x3bd7b42c	0.0065827575
220	0x3e400b76	0.18754372
221	0x3d095a1f	0.03353321
222	0xbd871aa5	-0.06596879
223	0xbde95e14	-0.11394897
224	0xbedac808	-0.42730737
225	0xbea4f899	-0.32220915
226	0xbea912b7	-0.3302209
227	0xbd0b326e	-0.03398364
228	0x3d42cfc1	0.04756141
229	0x3cc6138d	0.024179244
230	0xbd790583	-0.060796272
231	0x3d77ae81	0.060469154
232	0x3e9154fd	0.28385153
233	0x3c0b6324	0.008507524
234	0xbce3eb13	-0.027822053
235	0x3d5d28a0	0.05399382
236	0xbdab7807	-0.08372503
237	0x3dc2ae5a	0.09505911
238	0xbd96c44d	-0.0736166
239	0x3cf8f74a	0.030391354
240	0x3c3e2f32	0.011607932
241	0xbd6101f1	-0.054933492
242	0xbdb7f565	-0.08982352
243	0xbcfbba51	-0.030728491
244	0xbc0416ef	-0.008062108
245	0xbd0d83d0	-0.034549534
246	0xbdcc5549	-0.09977204
247	0xbcc826cf	-0.024432568
248	0xbcae92e9	-0.021310287
249	0x3cbc44ce	0.022982027
250	0xbdae38c5	-0.08506922
251	0xbd252fce	-0.040328793
252	0xbec98237	-0.3935716
253	0xbec7ea9c	-0.3904618
254	0xbe8ce132	-0.2751556
255	0xbe275dd9	-0.16344394

bias f4 [32]
0	0x3c907f8a	0.01763894
1	0xbb7fe1db	-0.0039044532
2	0xbc4d8712	-0.01254441
3	0x3d7e370f	0.062064227
4	0xbdac0763	-0.083998464
5	0xbd578064	-0.052612677
6	0xbd7e1610	-0.06203276
7	0xbd15d664	-0.036581412
8	0xbd6f5823	-0.058433663
9	0xbda226e8	-0.07917577
10	0xbc4527e0	-0.012033433
11	0xbd54b67b	-0.05193184
12	0xbd86614e	-0.06561528
13	0xbccb2d72	-0.024801943
14	0x3d351515	0.04420956
15	0xbb4fbbb8	-0.0031697582
16	0x3cd4ea74	0.025990702
17	0xbd2e8797	-0.042609777
18	0x3c03c1d2	0.008041816
19	0xbbcc2629	-0.006230135
20	0xbe0b44c3	-0.1360045
21	0xbc7b32f2	-0.0153319705
22	0x3c0b97c4	0.00852007
23	0x3c46544e	0.012105061
24	0x3c4a7f3b	0.012359436
25	0x3cba2616	0.022723239
26	0x3e003249	0.12519182
27	0xbcf2915c	-0.029610328
28	0xbd37f052	-0.04490692
29	0x3d9d1ed7	0.07671898
30	0xbcfb2ffe	-0.030662533
31	0x3d900316	0.070318386

weight f4 [32, 32, 2, 2]
0	0xbe635e28	-0.22203887
1	0xbe39022f	-0.18067239
2	0xbf143c1a	-0.5790421
3	0x3e4c04ec	0.19923753
4	0xbc723c88	-0.01478494
5	0xbcb1158f	-0.021616725
6	0xbc8da5af	-0.017290918
7	0xbe17b991	-0.14816882
8	0xbf06718f	-0.52517027
9	0xbdfcce9e	-0.123440966
10	0xbe880234	-0.2656418
11	0xbd9cd771	-0.0765828
12	0xbe52fb97	-0.20603786
13	0xbdf69e5c	-0.120419234
14	0xbcf36014	-0.0297089
15	0x3df379c9	0.11888463
16	0x3ea0b871	0.31390718
17	0xbe8d281d	-0.27569667
18	0xbd7629fe	-0.06009864
19	0xbca388ed	-0.019962752
20	0xbda4ff6d	-0.08056531
21	0x3d8f569d	0.06998942
22	0xbd55b81d	-0.052177537
23	0x3ed70706	0.41997546
24	0x3d2fe371	0.042941514
25	0x3d2a07e7	0.041511443
26	0x3e0a2bd0	0.13493276
27	0x3e901da0	0.28147602
28	0xbeee07b0	-0.4649024
29	0x3d0ed0bd	0.034867037
30	0x3e1e2d46	0.15446958
31	0x3efc4ea6	0.49278754
32	0xbf05aaaf	-0.5221357
33	0x3df30b0b	0.11867341
34	0xbddce825	-0.107864656
35	0x3d502590	0.050817072
36	0x3c56818b	0.013092409
37	0x3d6aeee5	0.057356734
38	0x3e3d3832	0.18478468
39	0x3d261750	0.040549576
40	0xbe2a5a5e	-0.16636035
41	0x3e69ed76	0.2284449
42	0x3eb8569a	0.36003572
43	0x3e0fb809	0.14035048
44	0xbe24d2e8	-0.1609608
45	0x3da598ec	0.08085808
46	0x3d84bde9	0.06481535
47	0xbe02fc3d	-0.12791534
48	0x3f075db0	0.5287733
49	0x3f2e2cda	0.6803719
50	0x3d32745e	0.043568008
51	0x3edabd2d	0.42722455
52	0xbe0a215e	-0.13489291
53	0xbc07fbce	-0.008299781
54	0x3c95c936	0.018284421
55	0xbdaab139	-0.08334584
56	0x3d3a8122	0.045533307
57	0x3dcdf69e	0.10056804
58	0x3db36005	0.08758549
59	0x3a83bcb3	0.0010050744
60	0xbedd5a91	-0.4323316
61	0x3d4c2fda	0.049850322
62	0x3db8067c	0.08985612
63	0x3d985243	0.07437565
64	0xbf61289f	-0.8795261
65	0xbe76207d	-0.24035831
66	0xbec85bd2	-0.39132553
67	0x3d1cbca8	0.038265854
68	0x3d8da7c9	0.06916768
69	0xbcb020b8	-0.021499977
70	0x3c04286b	0.008066277
71	0x3df64cbc	0.12026355
72	0xbda6a449	-0.08136804
73	0x3d6f00e4	0.05835046
74	0x3b1f7663	0.0024332039
75	0xbe34cd84	-0.17656523
76	0xbf09adcd	-0.53780824
77	0xbe8d3c0a	-0.2758487
78	0xbec8a7ac	-0.39190423
79	0xbe8fe56b	-0.2810472
80	0xbf30f09e	-0.6911715
81	0xbe71c8c1	-0.23611738
82	0xbec26fbb	-0.3797587
83	0x3ea61af9	0.32442454
84	0xbdb5b18c	-0.08871755
85	0x3cb29b91	0.021802695
86	0xbd824036	-0.063599035
87	0xbd798e58	-0.060926765
88	0xba05e25a	-0.00051072764
89	0x3e836139	0.25660113
90	0x3c7e7319	0.015530371
91	0xbda607a4	-0.08106926
92	0xbebc3693	-0.36760387
93	0xbd498a49	-0.049204145
94	0x3d9c4986	0.07631211
95	0x3ed6910b	0.41907534
96	0xbe1765b4	-0.1478489
97	0xbe478a1b	-0.19486277
98	0x3e0ace85	0.13555343
99	0xbe4b2571	-0.19838502
100	0xbf4aca79	-0.792152
101	0xbcae512a	-0.021278936
102	0xbe258347	-0.1616336
103	0xbe8945bc	-0.26811016
104	0xbf1bbbaa	-0.6083323
105	0xbe98f682	-0.2987557
106	0xbe0e287d	-0.13882633
107	0x3e87bc9d	0.26511088
108	0x3d90f39b	0.07077714
109	0xbe017772	-0.12643221
110	0x3c1f83a6	0.009735977
111	0x3e2c6a3b	0.16837399
112	0x3cce62de	0.025193628
113	0x3cfcc45f	0.030855356
114	0xba13d7b3	-0.00056397467
115	0x3cd96d53	0.026541388
116	0xbea1e4ff	-0.31620023
117	0xbe07604c	-0.13220328
118	0xbde5b362	-0.11215855
119	0xbe3d6447	-0.18495284
120	0xbe054e1c	-0.13018078
121	0x3d8f1037	0.069855146
122	0x3eaf41d8	0.34229922
123	0x3d10bd7a	0.03533695
124	0xbf2910d3	-0.66041297
125	0xbdbf434d	-0.093390085
126	0xbec56e4e	-0.38560718
127	0x3f3568d5	0.70863086
128	0x3e1be103	0.15222554
129	0x3e7f80cc	0.24951476
130	0x3dc700a2	0.097169176
131	0x3dbe4457	0.092903785
132	0x3e3cceba	0.18438235
133	0xbd3c43a6	-0.045962952
134	0x3dff0b0b	0.12453278
135	0xbd841d04	-0.06450847
136	0x3e164a21	0.14676715
137	0x3cd60ba7	0.026128603
138	0x3e18f2d9	0.14936389
139	0x3dbfe8d2	0.09370579
140	0x3e4716e7	0.1944233
141	0xbe1b76bc	-0.15182012
142	0x3e16d14d	0.1472828
143	0xbe45c3f0	-0.19313025
144	0xbc80495e	-0.015659984
145	0x3e888c9f	0.26669785
146	0xbe68b272	-0.22724321
147	0x3e998455	0.29983774
148	0x3d8d612a	0.06903298
149	0xbd77440e	-0.060367636
150	0xbe0251e4	-0.12726551
151	0x3b9a1607	0.004702333
152	0x3c2c8d28	0.010531701
153	0x3d874ee4	0.06606844
154	0xbd837ba4	-0.06420067
155	0x3d8ad1c8	0.06778294
156	0x3ea00945	0.31257072
157	0x3da65919	0.08122463
158	0x3e5ce004	0.2156983
159	0xbe7196bf	-0.23592661
160	0x3d9065b9	0.07050652
161	0xbcbf828f	-0.023377685
162	0x3d3ab90f	0.045586642
163	0xbdb04b24	-0.08608082
164	0xbe0d0a2f	-0.13773416
165	0x3a098af1	0.0005246839
166	0xbe51a952	-0.20474747
167	0x3e45316a	0.19257131
168	0xbe4bc91f	-0.1990094
169	0xbec978ee	-0.39350075
170	0x3e028a24	0.12748009
171	0x3d912d85	0.0708876
172	0xbe3819b6	-0.17978558
173	0x3de67c8b	0.112542234
174	0x3bf5fb55	0.0075067678
175	0x3e4dfe55	0.20116551
176	0xbe0702c5	-0.1318465
177	0xbe8b38a2	-0.27191645
178	0x3e8615f0	0.26188612
179	0x3da0d074	0.07852259
180	0xbe330254	-0.17481357
181	0xbab4c076	-0.0013790268
182	0xbd8c9c1e	-0.068657145
183	0x3e0581c8	0.13037789
184	0xbe2d121e	-0.16901442
185	0x3da7be69	0.08190615
186	0xbe0f66f0	-0.14004111
187	0x3de9034e	0.113775834
188	0xbe301bcb	-0.17198102
189	0x3d09295c	0.03348671
190	0x3d2e19d2	0.042505093
191	0x3eb39232	0.35072476
192	0xbe849d04	-0.25901043
193	0x3e1f95a6	0.1558443
194	0xbdda8c76	-0.10671322
195	0x3e490a3a	0.19632807
196	0x3e11faa0	0.14255762
197	0xbe0fe71e	-0.14053008
198	0x3e3208d8	0.17386186
199	0xbe357003	-0.1771851
200	0xbe0ec27c	-0.13941377
201	0x3e13537f	0.1438732
202	0xbe15b554	-0.14619952
203	0x3e502dbe	0.2032995
204	0xbea7af56	-0.32750958
205	0xbe068c38	-0.13139427
206	0xbe9538df	-0.29144952
207	0xbdc92fc1	-0.098235615
208	0xbe305b8e	-0.17222425
209	0xbe9e2865	-0.30890194
210	0xbdbf0ded	-0.09328828
211	0xbea58a5d	-0.32332125
212	0xbbd3c9e9	-0.0064632786
213	0x3e69c2a4	0.22828156
214	0xbcacdb62	-0.021100704
215	0x3e99461f	0.2993631
216	0xbdb17643	-0.08665135
217	0x3e35502f	0.17706369
218	0xbe43c0cb	-0.19116513
219	0x3e3aafd9	0.18231143
220	0x3e2836a3	0.16427092
221	0xbdcbbdbc	-0.09948298
222	0x3e28050b	0.16408174
223	0xbe819740	-0.25310707
224	0xbd074068	-0.033020407
225	0x3d327adb	0.043574195
226	0x3c4c73b5	0.012478759
227	0x3d29434d	0.04132395
228	0xbe261f3e	-0.16222855
229	0xbe3449ed	-0.17606325
230	0xbeb5b8dc	-0.354926
231	0xbe33c532	-0.17555693
232	0xbe8a3621	-0.26994422
233	0x3df1b963	0.11802938
234	0xbdc795d1	-0.09745372
235	0x3e436fa4	0.19085556
236	0xbe83ffeb	-0.25781187
237	0xbd2a7797	-0.041617956
238	0xbf0e3b4b	-0.55559224
239	0xbe465215	-0.1936725
240	0x3ddb2d5e	0.107020125
241	0xbdd9b2fb	-0.10629841
242	0x3d713b6e	0.058894567
243	0xbd8885ad	-0.06666122
244	0xbdc6e425	-0.09711484
245	0x3e0c8b98	0.13725126
246	0xbd379acd	-0.044825364
247	0x3dff38fb	0.1246204
248	0xbe9f3030	-0.31091452
249	0xbe370eb2	-0.178767
250	0xbd683800	-0.05669403
251	0x3e3c5acf	0.18394016
252	0xbdf1fa55	-0.11815325
253	0x3d85f905	0.06541637
254	0xbe58d5f6	-0.2117537
255	0xbd5aeff1	-0.053451482

bias f4 [32]
0	0xbd255754	-0.040366486
1	0xbd319c39	-0.043361876
2	0xbc811d13	-0.015760934
3	0x3d4c08c7	0.04981306
4	0x3e7647eb	0.24050872
5	0x3c421ebf	0.011848151
6	0xbddc5cc3	-0.107598804
7	0x3d63901e	0.055557363
8	0xbda631e7	-0.08114987
9	0xbcacea70	-0.021107882
10	0x3de1fd8e	0.1103469
11	0x3d524849	0.051338468
12	0xbd608d94	-0.05482252
13	0x3d7f3590	0.06230694
14	0xbd689957	-0.05678686
15	0x3d11e6dc	0.035620555
16	0xbe11838f	-0.14210342
17	0xbdbadaa7	-0.09123736
18	0xbc1b25a0	-0.00946942
19	0xbca43943	-0.020046836
20	0xbd1abcda	-0.03777776
21	0xbd9d2c7d	-0.07674501
22	0x3e88e8cf	0.2674012
23	0x3d3e01de	0.0463885
24	0x3eb5c255	0.35499826
25	0x3e0bfe27	0.1367117
26	0xbaf6c0ac	-0.0018825731
27	0xbedf2a68	-0.4358704
28	0xbd6244f5	-0.055241544
29	0x3dd50c9d	0.104027964
30	0xbe5429d0	-0.20719075
31	0xbc5973df	-0.013272255

weight f4 [32, 32, 2, 2]
0	0x3e98ec9a	0.29868013
1	0xbeee7828	-0.46576047
2	0x3edeb592	0.43497902
3	0xbde1f4e1	-0.11033035
4	0xbf0f9a26	-0.56094587
5	0xbe45ff40	-0.19335651
6	0x3e46202a	0.19348207
7	0xbe1a0857	-0.15042244
8	0xbe1f3626	-0.15548
9	0xbd5f4e00	-0.054517746
10	0xbe138696	-0.14406809
11	0xbda633fa	-0.081153825
12	0xbf291ac5	-0.6605647
13	0xbeb118b5	-0.34589162
14	0x3da49480	0.080361366
15	0xbe3cf06c	-0.18451089
16	0x3d2e6ed4	0.042586163
17	0xbd9bbb56	-0.07604091
18	0xbd8d5e61	-0.06902767
19	0xbe077454	-0.1322797
20	0xbd86a319	-0.06574077
21	0xbec7b75b	-0.39007077
22	0xbe908d37	-0.28232738
23	0xbe88986e	-0.26678795
24	0xbecc759e	-0.39933485
25	0xbcbeea89	-0.023305194
26	0x3eb245e3	0.34818944
27	0xbe51632f	-0.20447992
28	0xbea976d4	-0.3309847
29	0xbe13ec17	-0.1444553
30	0x3d9228bc	0.07136676
31	0xbeec9ade	-0.46211904
32	0x3ddaec04	0.10689548
33	0x3dcd40cc	0.10022125
34	0xbf0d26b0	-0.5513716
35	0xbcda8481	-0.02667451
36	0x3d949719	0.07255382
37	0xbf06a180	-0.5259018
38	0xbe82c59a	-0.25541383
39	0xbee6d599	-0.45084837
40	0xbe7c14a7	-0.24617253
41	0xbb32d1fe	-0.002728581
42	0x3e04e1f7	0.12976824
43	0xbcd1032f	-0.025514213
44	0xbe0fe0f6	-0.1405066
45	0xbf0689db	-0.525541
46	0x3c8b4ac2	0.01700342
47	0xbf3b5a50	-0.7318468
48	0xbea1b0b2	-0.3158012
49	0xbe64a030	-0.22326732
50	0x3bc4c3fa	0.0060048075
51	0x3d2437f5	0.040092427
52	0x3e01c19f	0.12671517
53	0x3d8a2ebe	0.067471966
54	0xbeb4bfbc	-0.35302532
55	0xbd2d1877	-0.04225966
56	0x3c83b37f	0.016076801
57	0xbe44b0cd	-0.19208069
58	0xbe36f7a4	-0.17867905
59	0xbe4d383d	-0.20040984
60	0xbe037c31	-0.12840344
61	0xbdb28003	-0.087158225
62	0x3ea2b1c3	0.31776246
63	0xbea04e0b	-0.31309542
64	0x3d4c76a1	0.04991782
65	0x3e01204b	0.12609975
66	0x3d76953e	0.060200922
67	0xbd5e798d	-0.05431514
68	0xbe348a29	-0.17630829
69	0xbb26e3e4	-0.0025465423
70	0xbe83d03e	-0.25744814
71	0x3cfeffc1	0.031127812
72	0xbea70e38	-0.32628036
73	0xbe2f772e	-0.17135307
74	0xbec18abc	-0.37801158
75	0xbe1e13b9	-0.15437211
76	0x3d667062	0.05625952
77	0xbec0950b	-0.3761371
78	0x3e75d0fe	0.24005505
79	0xbeced12b	-0.40393957
80	0xbe2edc35	-0.1707619
81	0xbd434034	-0.04766865
82	0xbdd58413	-0.10425582
83	0x3d488ed4	0.048964337
84	0xbefdbe8b	-0.49559435
85	0xbee8df44	-0.45482838
86	0xbf07f597	-0.53109115
87	0xbeeab172	-0.45838505
88	0x3e21fa6d	0.15818186
89	0xbdb04b2d	-0.08608089
90	0x3d6d2676	0.057898007
91	0xbd3d9f74	-0.046294644
92	0xbecad002	-0.39611822
93	0xbdc9b872	-0.09849633
94	0xbe076016	-0.13220248
95	0xbde6fd44	-0.11278775
96	0x3def3a4f	0.11681043
97	0x3b6072bd	0.0034248077
98	0xbdfb4224	-0.12268475
99	0xbdcba96e	-0.099444255
100	0x3db7d176	0.089754984
101	0x3c8be3b1	0.017076345
102	0x3d05877a	0.032599904
103	0xbe04093d	-0.12894149
104	0x3d26332a	0.040576138
105	0x3e22748c	0.15864772
106	0x3c95fec7	0.018309964
107	0x3ddad8d2	0.106858864
108	0xbf2f3806	-0.6844486
109	0xbeccd6c6	-0.4000761
110	0xbefa7b45	-0.48922172
111	0xbed3fd1e	-0.4140405
112	0xbe27c2ab	-0.16382854
113	0x3e231865	0.15927275
114	0xbdd4d373	-0.10391893
115	0x3d8ae00f	0.06781017
116	0x3e219ab5	0.15781672
117	0xbd2b8aa8	-0.04188028
118	0x3d7b9996	0.061425768
119	0x3bdbc8de	0.006707295
120	0xbf0ee5d6	-0.5581945
121	0xbe753c19	-0.23948707
122	0xbf0f9a7e	-0.5609511
123	0xbeb7f8e0	-0.35932064
124	0x3e5473e7	0.20747338
125	0x3e6c5df4	0.23082715
126	0xbd999864	-0.07499769
127	0x3ede362a	0.434007
128	0xbe8837a9	-0.26604965
129	0x3d9d9ee6	0.07696323
130	0xbe080708	-0.13283932
131	0x3d3f2e72	0.046675153
132	0xbd01d9f4	-0.031701997
133	0xbcc28667	-0.023745729
134	0xbd7e4e99	-0.062086675
135	0xbcc619ee	-0.024182286
136	0x3d82b1a4	0.063815385
137	0x3c91205e	0.01771563
138	0x3e11bd38	0.14232337
139	0x3d9d5764	0.07682684
140	0x3d9e047c	0.07715699
141	0xbcff88d9	-0.031193184
142	0x3e2c2cb0	0.16813922
143	0x3e0d7765	0.13815077
144	0x3d607933	0.054803085
145	0x3bf58131	0.0074922075
146	0xbdb40aa7	-0.08791094
147	0xbbb1d319	-0.005426776
148	0x3eb4dc05	0.35324112
149	0x3e1da768	0.15395892
150	0x3e2efe99	0.17089309
151	0x3e29330b	0.16523378
152	0xbdbde924	-0.09272984
153	0xbd706404	-0.058689132
154	0x3bc1a360	0.0059093684
155	0xbd823a5b	-0.06358787
156	0xbcce6541	-0.025194766
157	0x3d773a40	0.060358286
158	0x3dcc160d	0.09965143
159	0xbd805aa8	-0.06267291
160	0x3d911e70	0.070858836
161	0x3cf0ac28	0.029378965
162	0x3d1634a7	0.036671307
163	0x3e000cca	0.12504879
164	0x3e005ae2	0.12534669
165	0x3d91d1fc	0.071201295
166	0x3c81289f	0.01576644
167	0x3dd3af79	0.10336203
168	0x3e113619	0.14180793
169	0x3d897cce	0.06713258
170	0x3df9887e	0.12184237
171	0x3c49180b	0.012273799
172	0x3d3be21c	0.04586993
173	0xbcd52a4a	-0.026021142
174	0x3de76bf4	0.11299887
175	0x3d2cc585	0.042180557
176	0xbb5ec2a2	-0.0033990522
177	0xbd0444e1	-0.03229225
178	0xba942505	-0.0011302537
179	0xbcb502fb	-0.022096148
180	0x3dd9deb1	0.10638178
181	0x3d6beb4a	0.057597436
182	0xbd90babf	-0.07066869
183	0x3de657bb	0.11247202
184	0x3c870c11	0.016485246
185	0x3d4dc646	0.050237916
186	0x3d1d30f0	0.03837675
187	0xbb450250	-0.0030061193
188	0xbe0b2741	-0.13589193
189	0xbda63bbb	-0.081168614
190	0xbd592bbe	-0.05302023
191	0x3ba91cd2	0.0051609064
192	0x3d9bbbc5	0.076041736
193	0x3b7a40f1	0.003818568
194	0xbd758a71	-0.05994648
195	0xbc0c5351	-0.008564786
196	0x3dbcdae4	0.092214376
197	0xbd43f153	-0.047837567
198	0x3e30c904	0.17264181
199	0x3ca8db42	0.020612363
200	0x3dd0efee	0.10202013
201	0x3d432981	0.047647003
202	0x3d8cadc8	0.06869084
203	0x3d41d00a	0.047317542
204	0x3d4627ce	0.048377804
205	0x3cb99140	0.022652268
206	0x3d9a319a	0.07528992
207	0xbcb4d4fc	-0.022074215
208	0x3e5c6e10	0.2152636
209	0x3e3e4262	0.1858001
210	0x3e5b7463	0.21431117
211	0x3d9605d9	0.07325334
212	0x3d111159	0.035416935
213	0xbb0d53c7	-0.0021564828
214	0x3dd4b7a8	0.10386592
215	0x3d1bc676	0.038031064
216	0x3c82167d	0.015879864
217	0x3d71b61a	0.059011556
218	0xbd0d665b	-0.034521442
219	0x3d529bcd	0.051418114
220	0xbd98c1f8	-0.074588716
221	0x3d643e6b	0.05572359
222	0xbda2dfff	-0.0795288
223	0x3d9dee50	0.0771147
224	0xbc59fd4c	-0.01330502
225	0x3d91f598	0.071269214
226	0xbdd31ee7	-0.103086285
227	0xbb9f7d78	-0.004867252
228	0xbc71d45d	-0.014760104
229	0x3c503d55	0.012709935
230	0xbd53b9db	-0.051690917
231	0x3d32e426	0.04367461
232	0xbdad3558	-0.0845744
233	0xbc0431f7	-0.008068553
234	0x3e3192eb	0.17341201
235	0x3db59d62	0.08867909
236	0x3e1130dc	0.14178795
237	0x3cdbe5db	0.026843002
238	0x3e1447f0	0.14480567
239	0x3daa2cc0	0.08309317
240	0xbd12e189	-0.03585962
241	0xbc3d9c6e	-0.01157294
242	0xbd07f14e	-0.03318911
243	0x3d6ef966	0.058343314
244	0x3d7516a7	0.059836056
245	0x3cdc0703	0.026858812
246	0xbdb5eb23	-0.088827394
247	0xbc5a0e8a	-0.01330913
248	0x3d2d5f0f	0.042326983
249	0x3cd9a957	0.026570005
250	0x3dc238c2	0.09483482
251	0x3dd88cff	0.10573768
252	0xbdb67a33	-0.089100264
253	0x3daa9d68	0.08330804
254	0xbdac9142	-0.08426143
255	0x3d81232e	0.06305538

bias f4 [32]
0	0xbd89581c	-0.06706259
1	0x3e191fbf	0.14953516
2	0xbc557ccd	-0.013030243
3	0xbd899041	-0.067169674
4	0x3d1baa45	0.03800418
5	0xbcd48b9c	-0.025945477
6	0x3e0113cb	0.12605207
7	0xbdb1ac05	-0.08675388
8	0x3da8e12a	0.08246072
9	0x3d1daa36	0.038492404
10	0xbcac0b7e	-0.021001574
11	0xbd54ea89	-0.051981483
12	0xbd0a5e5e	-0.0337814
13	0xbcefe09a	-0.029281903
14	0xbea3fb09	-0.32027462
15	0xbe540fff	-0.20709227
16	0xbe420229	-0.18946137
17	0xbd323732	-0.04350967
18	0x3e3afcda	0.18260518
19	0xbd92c391	-0.071662076
20	0xbdd35702	-0.1031933
21	0x3d8424a8	0.06452304
22	0x3d8ca774	0.06867877
23	0xbe93078e	-0.287167
24	0xbc739ca6	-0.014868891
25	0x3d747653	0.059683155
26	0x3d9936e5	0.074811734
27	0xbe8d69ff	-0.2761993
28	0x3d8baafb	0.06819721
29	0xbd4daa57	-0.050211277
30	0xbdaaf06c	-0.08346638
31	0x3c79d7d7	0.015249214

weight f4 [32, 32, 2, 2]
0	0x3cde2952	0.027119312
1	0xbc616bec	-0.013758641
2	0x3e47c9fa	0.19510642
3	0x3d543e24	0.051817074
4	0x3dcec3aa	0.10095914
5	0x3d7348ce	0.059395604
6	0xbe1d00af	-0.15332292
7	0xbcf85746	-0.030315053
8	0xbdf01cb2	-0.11724223
9	0x3e1d50bf	0.15362833
10	0x3cfbf034	0.030754186
11	0x3ead8ec9	0.33898
12	0x3e0439a0	0.12912607
13	0x3d153222	0.036424764
14	0x3ea20bc6	0.31649607
15	0x3e1bc9bd	0.15213676
16	0xbdf02e55	-0.11727587
17	0xbdbfa2e1	-0.093572386
18	0x3e3ab51a	0.18233147
19	0x3e378069	0.17920078
20	0x3d607524	0.054799214
21	0x3e0d33c8	0.13789284
22	0xbde237b3	-0.1104578
23	0x3c8dd855	0.01731507
24	0xb9cd6b58	-0.00039180624
25	0x3c735c29	0.014853516
26	0x3e0c5331	0.1370361
27	0xbcce0137	-0.025147064
28	0x3e3174d2	0.1732972
29	0x3dfa80e0	0.12231612
30	0x3ebb5b43	0.36593065
31	0x3df9728c	0.12180051
32	0x3d7614e9	0.060078535
33	0xbddaa2a1	-0.1067555
34	0xbe1fd421	-0.15608265
35	0xbac01b65	-0.0014656602
36	0xbde7ca69	-0.113179035
37	0x3e82510d	0.25452462
38	0x3c26c98f	0.010179891
39	0xbe1cab0d	-0.15299626
40	0x3ce920db	0.02845805
41	0x3b957f54	0.004562298
42	0xbe0c06b3	-0.1367443
43	0x3d2aa36e	0.041659765
44	0x3ea8269f	0.32841966
45	0xbe2eaac7	-0.17057334
46	0x3eb6d77f	0.35711285
47	0x3e1957f9	0.14974965
48	0xbdb1b031	-0.08676184
49	0x3e866aca	0.2625335
50	0xbe039b21	-0.12852146
51	0x3d54d787	0.051963355
52	0x3e0c2167	0.13684617
53	0x3de5900d	0.11209116
54	0x3caab767	0.020839406
55	0x3c841acb	0.016126057
56	0xbe39ca05	-0.1814347
57	0x3d13de91	0.036100928
58	0x3cba42ee	0.022736993
59	0x3e34d9d1	0.17661215
60	0xbe25bd67	-0.16185533
61	0xbda0ed53	-0.07857766
62	0x3c939067	0.018013192
63	0xbe464049	-0.1936046
64	0xb88fed0d	-6.8629255e-05
65	0x3e1daf50	0.15398908
66	0xbdef2f81	-0.116789825
67	0x3e36487a	0.17801085
68	0x3c6e0c7f	0.0145293465
69	0xbd3a7a5b	-0.045526844
70	0x3cb0e12a	0.021591742
71	0xbb137d39	-0.0022505058
72	0x3d199e7d	0.03750466
73	0x3dce77b7	0.100814275
74	0x3db244b0	0.08704507
75	0x3c30feb0	0.01080291
76	0x3df9b0e2	0.12191941
77	0x3d063061	0.03276098
78	0x3e8491d0	0.25892496
79	0xbcf7b909	-0.030239599
80	0x3e72a2ac	0.23694867
81	0xbe977a3f	-0.29585454
82	0x3e1f6316	0.15565142
83	0x3e693e4d	0.22777672
84	0x3e22ee18	0.15911138
85	0x3c8cf611	0.017207177
86	0x3e954f48	0.2916205
87	0x3e0f5c7d	0.14000125
88	0xbbf765fd	-0.0075499997
89	0x3d1d47c9	0.038398538
90	0xbe1c5e32	-0.15270308
91	0x3cb963e1	0.022630634
92	0xbc722d6d	-0.014781338
93	0xbc5f1be8	-0.013617493
94	0xbd7a3a96	-0.06109103
95	0xbe4489c2	-0.19193175
96	0xbb8694fc	-0.004107116
97	0x3c912c5e	0.017721351
98	0xbd2f58a6	-0.04280915
99	0xbdbcb38a	-0.09213932
100	0x3e1b8aff	0.15189742
101	0x3e019be0	0.12657118
102	0xbd3f8e5f	-0.046766635
103	0xbdb4a289	-0.088200636
104	0x3d871a4d	0.06596813
105	0x3d6bdce4	0.057583705
106	0x3e32e725	0.17470987
107	0x3d9334df	0.07187819
108	0x3e304910	0.17215371
109	0x3eb3de90	0.3513074
110	0x3e2c1aef	0.1680715
111	0xbd85f8e5	-0.065416135
112	0x3eafa199	0.34302977
113	0x3d7b399e	0.061334245
114	0x3e6a6a63	0.22892146
115	0xbd8fabd1	-0.07015193
116	0x3d928a61	0.071553
117	0xbde7be01	-0.11315537
118	0x3e41abf2	0.18913248
119	0xbe377b50	-0.17918134
120	0xbe45cb4b	-0.19315831
121	0x3e586707	0.21133052
122	0x3c99bd23	0.018766945
123	0x3dea7ed7	0.11449974
124	0x3e67cb68	0.22636187
125	0x3e8c6910	0.27423906
126	0x3e86f570	0.2635913
127	0x3e314ff4	0.17315656
128	0xbe1df5d8	-0.15425813
129	0xbe3ff8e2	-0.18747285
130	0xbe80b077	-0.25134632
131	0xbd9ebd89	-0.07750995
132	0xbae5c524	-0.0017530066
133	0xbcd289e1	-0.025700511
134	0x3be7eab3	0.007077539
135	0xbd038e3d	-0.03211807
136	0xbe4320fc	-0.19055551
137	0x3e2f5bda	0.17124882
138	0x3de0c696	0.10975377
139	0x3d207855	0.039177258
140	0x3c0195c1	0.007909239
141	0xbde53640	-0.11191988
142	0xbdc75e3f	-0.09734773
143	0xbc53b606	-0.012921816
144	0xbd595280	-0.053057194
145	0x3d8539cc	0.065051645
146	0xbc248eec	-0.010043841
147	0x3da5e65b	0.081005774
148	0x3dcd9659	0.10038442
149	0xbcdce323	-0.026963776
150	0xbccd7ad8	-0.02508299
151	0xbcb6310d	-0.022240186
152	0xbcbab6f1	-0.022792311
153	0xbdbf5d5a	-0.09343977
154	0xbcf25aeb	-0.029584369
155	0xbdb7f39c	-0.08982012
156	0x3e13a0a4	0.14416748
157	0xbd959095	-0.073029675
158	0x3e579092	0.21051243
159	0xbd4d7996	-0.05016478
160	0xbdf99ecf	-0.121884935
161	0x3e43ee98	0.19133985
162	0x3c463afa	0.012099022
163	0x3dd15e64	0.10223082
164	0x3d740ba8	0.05958143
165	0xbe462403	-0.19349675
166	0xbe122830	-0.14273143
167	0xbafb1b92	-0.0019157997
168	0x3d4a0af3	0.04932685
169	0x3d531bff	0.05154037
170	0xbc57754e	-0.013150526
171	0x3da3f21a	0.080051616
172	0xbe016eba	-0.12639895
173	0x3dca1871	0.09867943
174	0x3da71ae0	0.08159423
175	0x3dfc580a	0.123214796
176	0x3df6fd7f	0.12060069
177	0x3cdb28da	0.026752878
178	0x3c0592a8	0.008152641
179	0xbd1b7a5a	-0.03795848
180	0x3db10196	0.086428806
181	0x3d13a7a3	0.036048543
182	0xbd41b765	-0.04729404
183	0xbb3fbcb3	-0.002925676
184	0xbe40a801	-0.18814088
185	0xbc94c66f	-0.018161027
186	0xbe873b70	-0.26412535
187	0xbc82ef58	-0.015983269
188	0xbdf1cbac	-0.118064255
189	0x3e4b37c8	0.19845498
190	0xbe5255c0	-0.20540524
191	0x3d81b5b6	0.06333487
192	0x3e24e610	0.16103387
193	0x3deadfd5	0.11468474
194	0xbd11a390	-0.035556376
195	0x3e042bbf	0.12907313
196	0xbe334e4d	-0.17510338
197	0x3da7c87e	0.08192538
198	0x3dd36f48	0.103239596
199	0x3d8ba852	0.06819214
200	0x3d4aeb94	0.04954107
201	0xbbd74a05	-0.006570103
202	0xbda48a1a	-0.08034153
203	0x3d834fc9	0.06411702
204	0xbe70067d	-0.23439975
205	0xbdf10074	-0.117676646
206	0x3df0d3af	0.117591254
207	0x3dc73bcd	0.09728203
208	0xbd7b8734	-0.061408237
209	0x3e5bc906	0.21463403
210	0x3e3bce8f	0.18340515
211	0x3d0643a0	0.032779336
212	0xbd8245e1	-0.063609846
213	0x3cfb646c	0.030687533
214	0x3d8be018	0.06829852
215	0x3d8ee61b	0.06977483
216	0xbd9759a8	-0.073901474
217	0x3e5e845b	0.21730177
218	0xbea1414f	-0.3149514
219	0x3de0a424	0.10968807
220	0xbdfe2b30	-0.12410581
221	0x3bbab92d	0.005698344
222	0x3ccbd410	0.024881393
223	0xbb43640a	-0.0029814267
224	0x3d85666d	0.06513677
225	0x3d53ff40	0.051757097
226	0x3b579935	0.0032897715
227	0xbd189968	-0.037255675
228	0x3c8a74b1	0.016901346
229	0xbdcc7db0	-0.099849105
230	0x3d94695c	0.07246658
231	0xbdf118f0	-0.117723346
232	0xbd25838e	-0.040408663
233	0x3cd23b6c	0.0256631
234	0xbd1f0c94	-0.038830355
235	0x3d4e1e0c	0.050321624
236	0x3de9a197	0.11407774
237	0xbe55ab81	-0.20866205
238	0x3e1f0176	0.15527901
239	0xbd802f77	-0.06259053
240	0x3e53f86b	0.20700233
241	0xbd618a9d	-0.055063833
242	0xbbef5206	-0.007303479
243	0x3d14dbd7	0.036342468
244	0xbea5ca3b	-0.32380852
245	0xbe845310	-0.25844622
246	0x3c9b9f5f	0.018996892
247	0x3d59ee67	0.053205874
248	0x3e34e65a	0.17665997
249	0xbe3a29da	-0.18180028
250	0xbd216810	-0.039405882
251	0xbc51bd82	-0.01280153
252	0x3d7b7aa8	0.06139627
253	0x3d4a6bf1	0.049419347
254	0x3d7ba1ca	0.06143359
255	0x3d2cd6e9	0.04219714

bias f4 [32]
0	0xbb9c27c0	-0.0047654808
1	0x3db3d10b	0.08780106
2	0xbd0b765e	-0.03404843
3	0x3d394b7a	0.045237996
4	0xbdb58b89	-0.08864505
5	0x3c9444a0	0.01809913
6	0xbd827ae9	-0.063710995
7	0xbe0af49e	-0.13569877
8	0x3d4d1474	0.050068334
9	0x3bf333f9	0.007421967
10	0x3cc2cb38	0.023778543
11	0xbc79b428	-0.0152407065
12	0xbdd8afda	-0.10580416
13	0xbc6a9013	-0.0143165765
14	0xbd1a5dfe	-0.037687294
15	0xbbc87c7a	-0.0061183544
16	0x3cfd8eb6	0.030951839
17	0xbe1bb7c7	-0.15206824
18	0xbb5ba451	-0.0033514688
19	0x3cc4864e	0.023989823
20	0xbcd6a7f4	-0.026203133
21	0x3c4e1a13	0.012579459
22	0xbd3fd973	-0.046838235
23	0xbdab69dc	-0.083698004
24	0x3cde5ee9	0.027144866
25	0x3d12a0e6	0.035797976
26	0xbcb60f95	-0.022224227
27	0x3dd96c56	0.106163666
28	0xbc5f250d	-0.013619673
29	0x3b78a3bc	0.003793939
30	0x3db6a083	0.08917334
31	0xbdca82a8	-0.09888202

beta f4 [32]
0	0x3fc6373e	1.5485609
1	0x3fa00753	1.2502235
2	0x3f9810e2	1.1880152
3	0x3f6f4d26	0.93477094
4	0x3fa08288	1.2539835
5	0x3f7af816	0.980348
6	0x3fdd2868	1.7277956
7	0x3f422aa2	0.758463
8	0x3fb1dea2	1.3896067
9	0x3f59b662	0.8504392
10	0x3fe499ee	1.7859476
11	0x3fcb3b7a	1.5877526
12	0x3f2abdf7	0.66696113
13	0x3f663382	0.89922345
14	0x3f887ff3	1.0664047
15	0x3fbeb083	1.4897617
16	0x3f736a0a	0.9508368
17	0x3f87896e	1.0588815
18	0x3fa6dd86	1.3036354
19	0x3f689624	0.90854096
20	0x3fba6a2a	1.4563649
21	0x3f8303a5	1.0235487
22	0x3f908db3	1.1293243
23	0x3f4aee6b	0.79270047
24	0x3fc4b6e6	1.5368316
25	0x3f57f4ac	0.84357715
26	0x3fb4cb7b	1.4124597
27	0x3f63923e	0.8889502
28	0x3f88342f	1.0640925
29	0x3f8d2711	1.1027547
30	0x3fd10126	1.6328475
31	0x3fa25408	1.2681894

gamma f4 [32, 32]
0	0x3f0c83d8	0.5488868
1	0xb90d6144	-0.00013483042
2	0xb73a4a0c	-1.1103704e-05
3	0x36ea956e	6.9911393e-06
4	0xb92f8e85	-0.00016742393
5	0x36846b1c	3.9463757e-06
6	0xba242e10	-0.00062629674
7	0x3ead75c0	0.338789
8	0xbb8f6fdb	-0.004377348
9	0xb7c7e5ec	-2.3829714e-05
10	0xba562f2a	-0.000817048
11	0xb9a38197	-0.00031186335
12	0xba03447c	-0.00050074584
13	0x363a3f0d	2.775286e-06
14	0x3883f892	6.2928666e-05
15	0x368000b6	3.81478e-06
16	0xb9e20e31	-0.00043116653
17	0x3e5ec95d	0.21756501
18	0x3612799c	2.1826481e-06
19	0xb9308e1e	-0.00016837611
20	0xbaeca1e0	-0.0018053614
21	0x367a7406	3.7320438e-06
22	0xbabf9368	-0.0014616074
23	0x3e6d4b32	0.23173216
24	0xba6c030a	-0.00090031384
25	0xb88ae345	-6.622685e-05
26	0xbccb4282	-0.024811987
27	0xba88c371	-0.0010434223
28	0xb6658a56	-3.4204181e-06
29	0x3e628b5b	0.22123472
30	0xb89889f6	-7.273622e-05
31	0x3ee513d3	0.44741687
32	0xb97df239	-0.00024218195
33	0x3f185d4c	0.5951736
34	0xbae533e1	-0.0017486775
35	0xbbf3cb7f	-0.00744003
36	0x3708dbef	8.157439e-06
37	0x3682d0bd	3.8986022e-06
38	0xbbf85122	-0.007578031
39	0x3f1d3bf4	0.61419606
40	0xbc0d29e8	-0.008615948
41	0x3698b6b9	4.5512247e-06
42	0xbb38495a	-0.0028119893
43	0x36d5c22b	6.370499e-06
44	0xb9d3525e	-0.00040306424
45	0x37011a9f	7.695197e-06
46	0x36aa2ad9	5.071383e-06
47	0xba9ce4e0	-0.0011970066
48	0x36a9fed1	5.066257e-06
49	0xbc187fa4	-0.009307776
50	0x3692ecd3	4.378709e-06
51	0xba8d4de9	-0.0010780665
52	0x36840133	3.934046e-06
53	0x36aff433	5.243835e-06
54	0xbb45ccd1	-0.0030181895
55	0xbc124b39	-0.008929067
56	0xb7d2615c	-2.5079287e-05
57	0xba0c9df1	-0.0005364111
58	0x372a685b	1.0157087e-05
59	0x37c2d228	2.3224464e-05
60	0xb830c3ce	-4.2144027e-05
61	0xbc194e6f	-0.009357079
62	0xbac6bf07	-0.0015163132
63	0x3f90870b	1.1291212
64	0x367cf65e	3.769433e-06
65	0xbb1e6b3c	-0.0024172803
66	0x40506af0	3.256527
67	0xbba2acf9	-0.0049644676
68	0x3688e49b	4.079729e-06
69	0x3685db72	3.9892557e-06
70	0xbbf81ce7	-0.007571805
71	0xbb220c70	-0.0024726652
72	0x4095f86a	4.686574
73	0x3688289c	4.0578434e-06
74	0x36a35567	4.8677207e-06
75	0x377cf78e	1.5078009e-05
76	0xb9205672	-0.00015290992
77	0x36788733	3.7033576e-06
78	0x36abe877	5.1232596e-06
79	0x3692847a	4.3665614e-06
80	0x35efec09	1.7875583e-06
81	0xb8685a34	-5.539712e-05
82	0x36b3f6d5	5.3633507e-06
83	0xb9f2e5ef	-0.0004632915
84	0xb9b1ad3b	-0.00033889138
85	0x367f86e6	3.8076482e-06
86	0xb66d89ed	-3.5396035e-06
87	0xba3ceda4	-0.0007207042
88	0x367b405d	3.743938e-06
89	0x3fbd8602	1.4806521
90	0xb61810c8	-2.2659533e-06
91	0x3a18906b	0.000581986
92	0xbcb070cc	-0.02153816
93	0x3edaaaf5	0.42708555
94	0x36affddd	5.24496e-06
95	0xb9bb515e	-0.00035728043
96	0xbb892228	-0.00418498
97	0xb64161f6	-2.8816262e-06
98	0x38b28612	8.512674e-05
99	0xbb0521b7	-0.0020314285
100	0xbabe045c	-0.0014497149
101	0x38181d11	3.6266694e-05
102	0xbb326499	-0.0027220605
103	0xbb3f32c2	-0.002917454
104	0x3e3ca3d9	0.18421878
105	0x3681daf9	3.8699914e-06
106	0xba9c11bb	-0.001190714
107	0xb89cfdf9	-7.485966e-05
108	0x3e2816c8	0.1641494
109	0x36860706	3.994329e-06
110	0xbab5d104	-0.0013871496
111	0x3e1c9472	0.15291002
112	0x368b98a7	4.160294e-06
113	0xb8acc966	-8.2391125e-05
114	0xba3ade88	-0.00071284967
115	0xbae56850	-0.0017502401
116	0x37b57a06	2.1633703e-05
117	0x368d98f3	4.219933e-06
118	0xbc10cfd6	-0.008838614
119	0xbca0d817	-0.01963429
120	0xbb955a57	-0.0045578885
121	0xbbca1e22	-0.006168143
122	0xb7454a5a	-1.1759426e-05
123	0xbb7b9989	-0.0038391075
124	0xbbc0a794	-0.005879352
125	0x3f5df010	0.8669443
126	0xbbaee4b6	-0.005337323
127	0xbcbb3916	-0.02285437
128	0xb836b99e	-4.356505e-05
129	0xbc3e4d16	-0.011615058
130	0xbb083582	-0.0020783846
131	0xb89ec805	-7.571284e-05
132	0x38380a2e	4.38785e-05
133	0x36801de5	3.8181774e-06
134	0xbc0614ff	-0.008183717
135	0xbb304094	-0.002689396
136	0xbad1c475	-0.0016003983
137	0x36757b3e	3.6579581e-06
138	0xbbdcd996	-0.0067398055
139	0x36c20732	5.782488e-06
140	0xb81e77ae	-3.7781596e-05
141	0x3683e07d	3.930238e-06
142	0x3681e252	3.8708467e-06
143	0xba4e0073	-0.00078583433
144	0xb828eb5b	-4.0273513e-05
145	0xbc3848fc	-0.01124787
146	0x36811886	3.8473545e-06
147	0xb9e3c40b	-0.00043442877
148	0xbb3b9562	-0.0028622975
149	0x3681c9f1	3.8680087e-06
150	0xb9111ea9	-0.000138397
151	0xba2d424d	-0.0006609306
152	0xb77ce5d9	-1.5073886e-05
153	0x3f921462	1.141247
154	0x3fa4ed95	1.2885004
155	0xb6b5e49d	-5.4208344e-06
156	0xb9f5e50a	-0.0004690069
157	0x3f838703	1.0275577
158	0xba65525e	-0.00087479304
159	0xba296e2f	-0.0006463257
160	0x36801427	3.8170433e-06
161	0x368036a3	3.821058e-06
162	0x36834efb	3.9132988e-06
163	0x3ed6d087	0.4195597
164	0x3639a55e	2.7663405e-06
165	0x3eb83685	0.35979095
166	0x3779ff3a	1.4900981e-05
167	0xb959b9ea	-0.00020763991
168	0x368363a8	3.9157057e-06
169	0x36acdd25	5.151744e-06
170	0xb5bc6106	-1.4035329e-06
171	0x36c1b0c5	5.772427e-06
172	0x36f19ee8	7.200859e-06
173	0x36831488	3.9064944e-06
174	0x36dd6867	6.5984673e-06
175	0x36819861	3.862239e-06
176	0xba84ff5a	-0.0010146901
177	0x3f08aae6	0.5338577
178	0x36901168	4.293561e-06
179	0x370e2a70	8.47374e-06
180	0x3725ce6d	9.882829e-06
181	0x36800121	3.8148287e-06
182	0x36803c72	3.821734e-06
183	0x38310065	4.2200456e-05
184	0x3a061889	0.00051153504
185	0x386c0a82	5.627657e-05
186	0x36c1af9e	5.7722928e-06
187	0x36891bc0	4.0861487e-06
188	0x3f133eb9	0.5751758
189	0x36ff99e6	7.6175083e-06
190	0x3770ad48	1.434546e-05
191	0x36e5a455	6.8438626e-06
192	0xbaecb012	-0.0018057844
193	0x36e31cc6	6.768477e-06
194	0xbb02a146	-0.0019932552
195	0x3ef998e2	0.48749453
196	0x3a8e6f22	0.001086686
197	0x36897c11	4.0973614e-06
198	0x3ebada09	0.36494473
199	0x3eec3375	0.4613301
200	0xbb714d8a	-0.0036819899
201	0x39196e40	0.00014632288
202	0xba2584a9	-0.00063140184
203	0x3703218c	7.816019e-06
204	0xbc0684e2	-0.008210393
205	0x38ec182b	0.000112578586
206	0x368c0763	4.173185e-06
207	0xb981fa20	-0.00024791155
208	0x3684eed9	3.961712e-06
209	0x3d3a3d24	0.045468464
210	0x3691183b	4.3241575e-06
211	0xb73a7c49	-1.1115401e-05
212	0xbb478ddd	-0.0030449547
213	0x373997c6	1.1062197e-05
214	0xb94808bb	-0.00019076739
215	0x3f1d6cfa	0.6149441
216	0xb9accc20	-0.00032958481
217	0xb8f775e2	-0.00011799835
218	0xbb89a827	-0.0042009535
219	0xb6be0b3a	-5.663748e-06
220	0xbc2d4c0b	-0.010577212
221	0xbb650423	-0.0034945093
222	0x371700fb	9.00053e-06
223	0xba38c835	-0.0007048876
224	0xba07f723	-0.00051866675
225	0x369fe384	4.7650556e-06
226	0x4024683b	2.5688617
227	0xbbfb3602	-0.0076663503
228	0x3ff1a3f0	1.8878155
229	0x39b70e34	0.00034915062
230	0x36818ad4	3.8606613e-06
231	0x369d53a9	4.688704e-06
232	0x400e035d	2.2189553
233	0x372754bd	9.973705e-06
234	0xb9f1036a	-0.00045969646
235	0x38951136	7.1080794e-05
236	0x3f63b206	0.8894352
237	0x367fa1a7	3.8092055e-06
238	0x367ff0be	3.8138091e-06
239	0xb996c3f4	-0.00028756226
240	0xbc91a2b4	-0.017777778
241	0xba041c8b	-0.00050396536
242	0x368080e9	3.8297044e-06
243	0xb9ef0745	-0.0004559105
244	0xbac862d5	-0.0015288243
245	0x368154c7	3.854369e-06
246	0x36809adc	3.8327253e-06
247	0xb8466e9d	-4.7309895e-05
248	0x3daeabbe	0.08528851
249	0x4035f81d	2.8432686
250	0xbc104ddf	-0.008807628
251	0x368e7127	4.2451024e-06
252	0x369b8ebd	4.635977e-06
253	0xb9b12cb7	-0.00033793386
254	0xb92a96ee	-0.00016268689
255	0x4000657d	2.0061944

beta f4 [32]
0	0x3fcb3d04	1.5877995
1	0x3eded30e	0.43520397
2	0x3f874ea2	1.0570872
3	0x3f5938d1	0.8485232
4	0x3f64b043	0.89331454
5	0x3f153828	0.5828881
6	0x3f3ddf64	0.7416899
7	0x3f35df78	0.7104411
8	0x3f00fc86	0.5038532
9	0x3f7e1c60	0.99262047
10	0x3f9eb457	1.2398785
11	0x3f46a276	0.77591646
12	0x3f263e37	0.6493868
13	0x3f8fa4e2	1.1222193
14	0x3f1c364a	0.6102034
15	0x3ed1b177	0.40955707
16	0x3f47c610	0.78036594
17	0x3f8afb02	1.0857852
18	0x3f9e3bf6	1.2362049
19	0x3ec913a2	0.3927279
20	0x3f6ea58c	0.93221354
21	0x3f91af34	1.1381593
22	0x3f86d1da	1.0532792
23	0x3f0f2f15	0.55931216
24	0x3f68f1a7	0.9099373
25	0x3f9fe4fe	1.2491758
26	0x3fa96d65	1.323651
27	0x3975ae4f	0.00023429956
28	0x3f60f1e1	0.8786908
29	0x3f8f3355	1.118754
30	0x3f8c46f9	1.0959159
31	0x3ee77ba3	0.45211515

gamma f4 [32, 32]
0	0xbbe9fd49	-0.0071407896
1	0x3fdbf5ab	1.7184347
2	0xba1e4f17	-0.0006039007
3	0x3e8a9d62	0.270732
4	0x3ee4faca	0.44722587
5	0xbb169943	-0.0022979535
6	0x3a98892b	0.0011637559
7	0x3fa429db	1.2825273
8	0xba176d37	-0.0005776467
9	0xb90f3734	-0.00013658107
10	0xba80997f	-0.000981137
11	0x4015b4ae	2.3391528
12	0xb8410201	-4.6016652e-05
13	0x3e40a318	0.18812215
14	0x3ef3334c	0.47500074
15	0x40263530	2.5969963
16	0x3723f6c3	9.773011e-06
17	0xb80b2397	-3.3173328e-05
18	0xb9bb7ad0	-0.00035758922
19	0x3f89b5da	1.0758622
20	0xbc7dec76	-0.015498271
21	0xbb238019	-0.0024948178
22	0xb930aa52	-0.00016848117
23	0x3f6f8a60	0.9357052
24	0x3fb68fbb	1.4262613
25	0x3e0cb60b	0.13741319
26	0xba4aa8d4	-0.0007730846
27	0x38893efb	6.5444e-05
28	0xbb356a49	-0.002768176
29	0x3f2132f0	0.6296835
30	0xbbf41b3a	-0.0074495347
31	0x3efe6f74	0.49694407
32	0xb59b074d	-1.1550525e-06
33	0x3e074e8f	0.13213561
34	0xbb977dcd	-0.004623151
35	0xbb9da81d	-0.0048113004
36	0xbafcb806	-0.0019280917
37	0x3f148917	0.5802168
38	0xbaf84efe	-0.001894444
39	0x36a216c1	4.830625e-06
40	0x3f159e28	0.5844445
41	0xbb20815a	-0.0024491162
42	0xba189a36	-0.0005821319
43	0x3f197650	0.59946156
44	0x3e055379	0.13020124
45	0x3d9803a9	0.07422573
46	0x3e0e4fda	0.13897648
47	0xbb392a6c	-0.0028254045
48	0x3823c919	3.9049515e-05
49	0xbc910ba8	-0.017705753
50	0xbcab6591	-0.020922454
51	0xbb1185c7	-0.0022204982
52	0xbac6015a	-0.0015106604
53	0xb63219bb	-2.6539044e-06
54	0xbca3b708	-0.019984737
55	0x3e45c738	0.19314277
56	0xbcb35b8d	-0.02189424
57	0xbccaae93	-0.024741447
58	0xbb4d93c6	-0.0031368597
59	0xbb876400	-0.004131794
60	0xbbc04967	-0.0058681252
61	0xbcd06a5f	-0.025441347
62	0xbc84627c	-0.016160242
63	0x3f242cf4	0.64131093
64	0x3d722e15	0.05912598
65	0xbc17a877	-0.009256474
66	0xbc984f4d	-0.018592501
67	0x37c4b432	2.344893e-05
68	0xba584f27	-0.0008251541
69	0xb8ba3696	-8.8793386e-05
70	0xbc119479	-0.008885496
71	0xbbae5fec	-0.0053214934
72	0xbb834011	-0.00400544
73	0x36cb525a	6.0594584e-06
74	0xb7629394	-1.350501e-05
75	0x3e119d2c	0.14220113
76	0x384d6a33	4.8974714e-05
77	0x3780ae12	1.5339847e-05
78	0xbb16bacc	-0.0022999523
79	0xb90e0dee	-0.00013547365
80	0xb7eef532	-2.8485989e-05
81	0xbc465520	-0.012105256
82	0xbc733ea5	-0.014846479
83	0xbc0e6e52	-0.008693295
84	0xbc8cdffa	-0.017196644
85	0xbab5bffc	-0.001386642
86	0xb98252f9	-0.00024857352
87	0xbb7983a0	-0.003807284
88	0xb914443a	-0.00014139796
89	0xbc2fa2d8	-0.010719977
90	0xb9b7b85d	-0.0003504184
91	0xba317203	-0.0006769003
92	0x3e1f742c	0.1557166
93	0x3783703b	1.5668678e-05
94	0xbc10b178	-0.008831374
95	0xbb29ec6e	-0.0025928277
96	0x3e46f688	0.19429982
97	0x35e57a7a	1.7097475e-06
98	0xbc06ab02	-0.008219482
99	0x3cb8dc2d	0.022565925
100	0xb802f875	-3.122581e-05
101	0x3cbf8845	0.023380408
102	0xb9b1b60f	-0.00033895715
103	0x3f86b462	1.0523798
104	0x3eaa10cc	0.3321594
105	0xb8f611d3	-0.00011733514
106	0x3f8a3918	1.0798674
107	0x36be9264	5.6794834e-06
108	0xba7b7509	-0.000959233
109	0xb9272c3e	-0.00015942843
110	0xbc30c0e1	-0.010788173
111	0x3f6dcc78	0.9289012
112	0xbaaa7deb	-0.0013007497
113	0xbaa4dc55	-0.0012577871
114	0xb94bc9d8	-0.00019434781
115	0x3698242d	4.5341644e-06
116	0xb68629cf	-3.9983784e-06
117	0xbb1c43b9	-0.0023844077
118	0xbc4b1686	-0.012395507
119	0xbb876bdc	-0.004132731
120	0xbc0056ef	-0.007833227
121	0xbad745ab	-0.0016423961
122	0x3f934e83	1.1508335
123	0xb9c8ee50	-0.0003832453
124	0xb8c6aae0	-9.473204e-05
125	0xbb41e1db	-0.0029584083
126	0xb9268835	-0.00015881735
127	0xb62f004d	-2.6077207e-06
128	0x368edc4d	4.257576e-06
129	0xbb7b45d5	-0.0038341184
130	0xb96df2ab	-0.00022692482
131	0xb9fd2e5a	-0.00048290455
132	0xbcaa3cbf	-0.02078092
133	0x39d359e6	0.00040312036
134	0xb8b86e39	-8.794334e-05
135	0xb566b9f6	-8.5952286e-07
136	0xbc20ec9e	-0.009822039
137	0xb8602c77	-5.3447173e-05
138	0xbcb40dfa	-0.02197932
139	0xbae07092	-0.0017123392
140	0x36b23879	5.3113877e-06
141	0x3e329022	0.17437795
142	0xb70c9dd6	-8.381399e-06
143	0xbc2cfb05	-0.010557895
144	0xbb04f976	-0.0020290292
145	0x3ec830be	0.39099687
146	0xb7e9acb9	-2.7856195e-05
147	0xba4235d5	-0.00074085343
148	0xbcbea439	-0.023271667
149	0xbbcdc807	-0.0062799486
150	0xbc4c1c66	-0.012457943
151	0x3921c1c1	0.00015426335
152	0xbce93dea	-0.028471906
153	0xba02e5ab	-0.00049933296
154	0x3dbe68a0	0.092972994
155	0xbc2f3f81	-0.010696293
156	0x3d91c161	0.07116962
157	0xbc88d9d3	-0.01670543
158	0xb9a72886	-0.00031882914
159	0x3eae17e5	0.34002605
160	0x3ee327c6	0.44366282
161	0x3f1ac528	0.60457087
162	0x36bd32b7	5.638543e-06
163	0x3e124f0e	0.1428797
164	0xbc0b431f	-0.00849989
165	0x3f4116a4	0.7542517
166	0x36b26ac0	5.3172407e-06
167	0x3fa681ac	1.3008323
168	0xb90f57ba	-0.00013670223
169	0x37c7288e	2.3741533e-05
170	0xb97671b0	-0.0002350274
171	0x368a1725	4.115415e-06
172	0x37041515	7.872722e-06
173	0x3f1cb057	0.61206573
174	0x3ec8163b	0.3907946
175	0x40165d4c	2.3494444
176	0x35e47530	1.702143e-06
177	0xba45890f	-0.0007535377
178	0x380655fa	3.202816e-05
179	0x3f0c1d47	0.54732174
180	0x3c3ceedf	0.011531561
181	0xba420395	-0.00074010465
182	0xb88cfc03	-6.722661e-05
183	0xb67282f4	-3.6137035e-06
184	0xb88b094f	-6.62977e-05
185	0xb822180e	-3.8646212e-05
186	0xbb847718	-0.0040425174
187	0x3fc1a0e3	1.5127224
188	0x3eab1a61	0.33418563
189	0xb7ba9e28	-2.2246575e-05
190	0x37265e23	9.916289e-06
191	0x3fbb6989	1.4641582
192	0x3e9a861f	0.3018045
193	0xbc983c87	-0.01858355
194	0xbc9a1481	-0.018808605
195	0xbb4e10aa	-0.0031443038
196	0xb981ecb7	-0.00024781164
197	0x3ea40e62	0.32042223
198	0xbba2e054	-0.0049705897
199	0xbc6ed46b	-0.014577012
200	0x3e9f92de	0.31166738
201	0x3e9b7cb1	0.3036857
202	0xbc7489fb	-0.014925475
203	0xbb7f121b	-0.0038920704
204	0xb9d85fd5	-0.0004127013
205	0x3e674b9b	0.22587435
206	0xbc4e28aa	-0.012582937
207	0xbd01a1c8	-0.031648427
208	0x3e1cd818	0.15316808
209	0xbb8ac1f5	-0.0042345473
210	0xbb0175c9	-0.0019754043
211	0xbb0201ae	-0.0019837427
212	0xbc7fb358	-0.015606724
213	0xbca326e1	-0.019916
214	0xb8e79ecf	-0.00011044519
215	0xb612e16b	-2.1886906e-06
216	0xbb01bfe3	-0.0019798211
217	0x3c421e0d	0.011847985
218	0x400b29ba	2.1744218
219	0x3da1737f	0.07883357
220	0xbbff8846	-0.0077982275
221	0x3e0aa076	0.13537773
222	0xbc65b712	-0.014020698
223	0xbc078488	-0.008271344
224	0xba6f7d4b	-0.00091357966
225	0xbc2774bd	-0.010220704
226	0xbc17687b	-0.009241219
227	0xbb48b85c	-0.0030627465
228	0xbcd7e65c	-0.026354961
229	0x3e8e2a39	0.27766588
230	0xbb164eb4	-0.0022935094
231	0xbcbfe54a	-0.023424763
232	0x361351c2	2.1952296e-06
233	0xbbcfc22d	-0.006340286
234	0xb9cc246c	-0.00038937049
235	0xbc1e2281	-0.009651781
236	0xbbb9190c	-0.005648738
237	0xb830b357	-4.2128693e-05
238	0xb7a73331	-1.993179e-05
239	0xbc21b186	-0.009868985
240	0xbcdd2fec	-0.02700039
241	0xbc940cef	-0.018072573
242	0xbc3064eb	-0.010766248
243	0xbbd673d1	-0.006544568
244	0xb906cd73	-0.00012855772
245	0xbad37372	-0.0016132428
246	0xbcbd9255	-0.023141066
247	0xba8f283d	-0.0010922026
248	0x36efd9d8	7.1481154e-06
249	0xb93fc178	-0.00018287252
250	0x360abfb0	2.067518e-06
251	0xb9598f21	-0.00020748052
252	0xbad58f84	-0.0016293381
253	0xbcbcbe05	-0.023039827
254	0x3d8896cc	0.06669387
255	0xb74334d1	-1.1635203e-05

beta f4 [32]
0	0x3eebf82b	0.46087775
1	0x3f84dd04	1.0379949
2	0x3f73abb8	0.95183897
3	0x3f4e10ca	0.8049437
4	0x3f667e8c	0.90036845
5	0x3f6b235b	0.91850823
6	0x3f9a97d9	1.207759
7	0x3f4cd4d0	0.80012226
8	0x3f3a6d56	0.72823083
9	0x3f464e3c	0.77463126
10	0x3f9c3527	1.2203721
11	0x3f79766f	0.9744634
12	0x3f3beed5	0.73411304
13	0x3f3a8fa6	0.7287544
14	0x3edfa21e	0.43678373
15	0x3d5c4c66	0.053783797
16	0x3e79991e	0.24374816
17	0x3f7c76c0	0.986187
18	0x3edd73a4	0.4325229
19	0x3f23646f	0.63825125
20	0x3f3717c5	0.71520644
21	0x3f507aa4	0.81437135
22	0x3f3c6aba	0.7360035
23	0x3edaee02	0.4275971
24	0x3f8ebff5	1.1152331
25	0x3f8e0440	1.1095047
26	0x3f7e6c0e	0.9938363
27	0x3ec2be5d	0.3803586
28	0x3f3eb194	0.7448971
29	0x3ec65b99	0.38741758
30	0x3f803d20	1.0018654
31	0x3f7483e5	0.95513755
